mappo/results/MyEnv/Intersection_MAPPO/rmappo/check/run2/models/actor.pt (torch, 206338 bytes, 31 tensors)

base.feature_norm.weight f4 [104]
0.98148715 1.0076386 0.99850786 0.9793083 0.96732587 0.999408 1.0130197 0.9981376
0.9041462 0.9694558 0.998372 0.99092954 0.9608261 1.0173609 0.9887714 1.0068977
0.9896249 0.99031043 1.0400658 1.0313512 1.040142 1.0504678 1.1114361 1.07031
1.1135299 1.0148057 0.9840334 1.0333313 1.0061373 0.9890553 1.2639261 1.0387701
1.0452926 1.1858687 1.1044828 1.0170032 1.0182443 0.95407325 0.96863145 0.9649458
0.97234905 1.01389 1.0152515 1.028702 1.0132338 0.911133 0.9999164 1.0094695
1.0072837 1.0296196 0.9989946 0.9895615 1.0070772 1.03394 1.1342791 0.98645294
0.93048126 1.0028704 1.0185515 0.9358094 1.0157127 1.0340827 0.8286653 0.8659657
1.0437065 1.0041432 0.9697298 0.9022882 0.95965815 0.95141304 0.9506542 0.8450917
0.9557988 0.94858193 1.0662788 1.012729 1.0163682 0.9644656 0.98838466 1.0093477
0.9760479 0.9759983 0.98264056 1.0130364 0.9191166 0.9608829 0.98193514 0.9520794
0.8994468 0.8872194 0.8614309 0.8772909 0.9640731 0.9720193 0.9750148 0.9808223
0.99937654 0.9493954 0.9803649 0.9757468 0.9950844 1.0152919 1.06341 1.0126681
00000000: be42 7b3f 4dfa 803f 369e 7f3f f3b3 7a3f
00000010: aba2 773f 34d9 7f3f a1aa 813f f285 7f3f
00000020: 2076 673f 412e 783f 4f95 7f3f 8fad 7d3f
00000030: b3f8 753f e238 823f 1f20 7d3f 06e2 803f
00000040: 0f58 7d3f fc84 7d3f e020 853f 5103 843f
00000050: 6023 853f bb75 863f 8a43 8e3f ebff 883f
00000060: 2688 8e3f 27e5 813f 9de9 7b3f 3344 843f
00000070: 1bc9 803f ba32 7d3f 55c8 a13f 6bf6 843f
00000080: 26cc 853f 8cca 973f b15f 8d3f 292d 823f
00000090: d455 823f 253e 743f 3bf8 773f b006 773f
000000a0: deeb 783f 26c7 813f c3f3 813f 82ac 833f
000000b0: a5b1 813f 0340 693f 85fa 7f3f 4c36 813f
000000c0: acee 803f 93ca 833f 1cbe 7f3f e753 7d3f
000000d0: e8e7 803f 2558 843f 0f30 913f 2e88 7c3f
000000e0: 0534 6e3f 0f5e 803f e55f 823f 3491 6f3f
000000f0: e002 823f d25c 843f 6923 543f eeaf 5d3f
00000100: 2d98 853f c487 803f 3640 783f 5cfc 663f
00000110: 28ac 753f ce8f 733f 135e 733f ee57 583f
00000120: 3baf 743f 44d6 723f d37b 883f 1ba1 813f
00000130: 5a18 823f 38e7 763f c706 7d3f 4e32 813f
00000140: 46de 793f 06db 793f 558e 7b3f 2dab 813f
00000150: 3a4b 6b3f 6cfc 753f 1a60 7b3f 7abb 733f
00000160: 2542 663f d020 633f bc86 5c3f 2396 603f
00000170: 7fcd 763f 42d6 783f 929a 793f 2c17 7b3f
00000180: 24d7 7f3f 940b 733f 32f9 7a3f 8bca 793f
00000190: dabd 7e3f 16f5 813f d21d 883f 1c9f 813f

base.feature_norm.bias f4 [104]
0.01628291 0.0047022025 0.015269188 0.013654516 0.013112483 0.0091965925 0.0037685018 -0.0050676917
0.019328874 -0.0031028797 -0.011655235 0.004194637 0.054097857 -0.002464005 -0.0015290712 0.0176323
-0.019828707 0.00845706 -0.008871082 0.004500851 0.0030903297 0.0010673701 -0.0045211334 -0.015909519
0.0033410818 4.0484465e-05 0.026146686 -0.016632862 -0.0012754833 0.006408991 0.011888804 -0.0073101018
-0.004792696 0.0017510087 0.013183563 0.014712212 -0.0077189957 0.034012586 5.6734796e-05 -0.014901985
-0.019005783 0.00027063725 0.015933765 0.018718775 -0.006165803 0.009836149 0.004147726 0.00021205924
-0.0015571684 -0.016350027 0.006031897 0.0072497358 0.0020815528 0.0076446696 0.0005774142 0.013772638
0.0013747878 0.0101517085 -0.0056942897 0.018707816 -0.010751428 -0.015679725 -0.014928304 0.01970428
0.017641675 -0.012527931 0.047704943 0.009976278 0.002044547 -0.0010386795 0.012741721 0.012180612
0.00022917589 -0.008559756 -0.015908364 -0.004199211 0.0017512819 0.005658033 -0.0073811105 -0.001237344
0.01283245 -0.012221743 0.0062617 0.014155642 -0.020298582 -0.027630113 -0.0034626932 -0.008110772
-0.010001611 -0.039596483 -0.043785345 -0.059074894 -0.0018200647 -0.0063286084 -0.009366054 -0.029892514
-0.007610252 -0.030188562 -0.020457296 0.004217029 0.0075577665 0.010704822 -0.0020636606 -0.017290266
00000000: bd63 853c ef14 9a3b 9e2b 7a3c 31b7 5f3c
00000010: bdd5 563c 4ead 163c f8f8 763b e10e a6bb
00000020: 9657 9e3c af59 4bbb 99f5 3ebc 2a73 893b
00000030: b795 5d3d 257b 21bb 1e6b c8ba 9d71 903c
00000040: d06f a2bc 7b8f 0a3c 0458 11bc e07b 933b
00000050: 2187 4a3b ffe6 8b3a 0426 94bb ae54 82bc
00000060: 0df6 5a3b ddcd 2938 9331 d63c a441 88bc
00000070: 1e2e a7ba 8302 d23b 42c9 423c 9489 efbb
00000080: 0c0c 9dbb 1a82 e53a dfff 573c 7d0b 713c
00000090: a1ef fcbb c850 0b3d 86f6 6d38 7527 74bc
000000a0: 04b2 9bbc 51e4 8d39 8787 823c 1e58 993c
000000b0: 810a cabb cd27 213c a6e9 873b 385c 5e39
000000c0: e719 ccba 7ef0 85bc 38a7 c53b 318f ed3b
000000d0: a96a 083b 2380 fa3b 9c5d 173a a1a6 613c
000000e0: 3932 b43a 5a53 263c 2a97 babb 2241 993c
000000f0: c226 30bc c472 80bc d895 74bc df6a a13c
00000100: 4685 903c f341 4dbc 4266 433d 8b73 233c
00000110: cffd 053b 4d24 88ba a7c2 503c 3191 473c
00000120: ef4e 7039 383e 0cbc 4252 82bc 8999 89bb
00000130: 458b e53a 0567 b93b 3edd f1bb 602e a2ba
00000140: 323f 523c b53d 48bc f22e cd3b 11ed 673c
00000150: 3649 a6bc 8c58 e2bc 5aee 62bb 0be3 04bc
00000160: ccdd 23bc ec2f 22bd 4358 33bd 84f8 71bd
00000170: 3d8f eeba 3760 cfbb 1474 19bc 25e1 f4bc
00000180: 6c5f f9bb 014e f7bc 0f96 a7bc 012f 8a3b
00000190: 24a7 f73b 4763 2f3c 7b3e 07bb 51a4 8dbc

base.mlp.fc1.0.weight f4 [64, 104]
0.03436916 -0.29978698 -0.068941586 -0.02099995 -0.057326715 -0.17573313 0.05147554 0.24971847
-0.09170042 0.32480776 -0.08063479 -0.0834738 -0.11641792 0.04358613 0.18013825 -0.2707032
0.06099394 -0.103899546 -0.10267493 0.14229639 0.061754953 -0.046123505 0.27042672 -0.090830155
0.48412567 -0.03939602 -0.3425048 -0.14955406 -0.20670444 0.13587175 0.0056791333 -0.07483929
-0.16479242 -0.1953154 0.4534938 0.100722685 -0.055133246 0.16069397 -0.11845393 0.022720598
0.044769567 -0.31244704 0.03791438 -0.37226483 -0.41431478 0.0802514 -0.020471832 -0.03981999
0.21706195 -0.043900806 -0.04296216 0.3015778 0.03462987 -0.09198887 -0.21005657 -0.123479165
-0.37106216 -0.254624 0.19906728 0.12823544 0.056876566 -0.012787603 -0.0062990976 -0.14871468
-0.0337706 -0.018251086 0.06784851 0.038179222 -0.1875691 -0.046178676 0.06523447 0.0017525132
-0.038233057 0.163061 0.048932415 0.17914397 -0.11500771 -0.15064803 0.113315105 0.1462817
-0.10150396 -0.13223208 -0.03232176 -0.24256924 0.2775713 0.16428722 -0.06726736 0.042116396
-0.065630764 -0.097490005 0.16565096 0.024965828 -0.14757988 -0.054889917 0.042277526 -0.070303716
0.18118212 0.033664484 0.17232145 -0.062072117 -0.2531458 -0.12877382 0.010591398 0.061551347
-0.014936464 0.073087566 0.08077683 -0.17932662 -0.037717592 0.045936856 -0.20621249 -0.06621366
-0.33900678 0.11209301 0.16383213 -0.28851902 -0.14735831 0.15830497 -0.024508975 -0.09450411
-0.19464172 0.17333783 -0.00041933128 0.07756723 -0.545765 -0.021500256 -0.11428411 0.17949748
0.3728606 -0.10572709 0.13067962 -0.22434014 0.04327574 0.27163354 0.1585266 0.06756119
0.0815409 0.29783586 -0.10189235 -0.29091957 0.010470996 0.102208525 0.06058404 -0.33568126
0.03961509 -0.052290197 -0.112510644 0.14858876 0.26698187 -0.11821233 0.14509936 -0.0422789
0.052502863 0.16062723 0.02155579 -0.2919212 0.110650755 -0.13527997 0.026343942 0.12853146
0.018301079 -0.25686768 0.07110866 -0.16418086 -0.049321596 0.033797916 -0.017830802 0.14124927
-0.13053003 0.08193712 -0.25648022 0.05951015 -0.02204527 0.049879823 -0.023539867 -0.16465583
0.29597643 -0.12538794 -0.17622954 0.1272211 -0.02673545 0.09102462 -0.107056856 0.049096555
0.19756901 -0.21933216 -0.07641916 0.008360465 0.06881276 -0.16870137 0.10706875 -0.21967334
-0.4211709 -0.16561866 0.25333884 -0.22506687 -0.084596395 0.048455846 -0.21082287 0.14955123
0.12677266 0.060621776 0.054505993 -0.17969629 -0.06917222 -0.11016684 0.15887155 -0.010782834
-0.07332312 0.12863535 0.31397936 -0.096247 0.03417368 0.05043917 0.11802739 -0.43446836
0.077759355 -0.16852695 0.3133635 -0.12815166 0.23653443 0.10502941 -0.003947877 0.36651674
0.008154595 0.10821535 0.284201 -0.043654963 -0.09655904 0.14848262 0.20743577 0.0028473597
-0.123395845 0.059709735 -0.11356233 -0.1032089 -0.14490311 -0.20379776 0.09948813 -0.12169122
-0.09358406 -0.07009652 0.16978714 -0.19469184 -0.20131306 -0.105345085 -0.039496478 -0.25445884
0.081615515 -0.3370203 -0.099198654 0.036371876 -0.07632739 -0.12319986 -0.19173056 -0.2895266
00000000: adc6 0c3d ae7d 99be 3f31 8dbd 1608 acbc
00000010: 6bcf 6abd 63f3 33be 04d8 523d 33b6 7f3e
00000020: 6ecd bbbd 344d a63e da23 a5bd 50f4 aabd
00000030: 856c eebd 5f87 323d 2976 383e 9c99 8abe
00000040: c8d4 793d 49c9 d4bd 3c47 d2bd 25b6 113e
00000050: c3f2 7c3d 00ec 3cbd 5f75 8a3e 2905 babd
00000060: 52df f73e b95d 21bd ca5c afbe b324 19be
00000070: 54aa 53be f721 0b3e 0618 ba3b 5745 99bd
00000080: 58bf 28be c300 48be 5730 e83e b247 ce3d
00000090: 66d3 61bd f68c 243e f997 f2bd 8c20 ba3c
000000a0: 4b60 373d 0ff9 9fbe 1c4c 1b3d 7f99 bebe
000000b0: 1121 d4be d95a a43d 8bb4 a7bc 491a 23bd
000000c0: 7d45 5e3e 55d1 33bd 17f9 2fbd 6868 9a3e
000000d0: 0dd8 0d3d a964 bcbd 1219 57be a5e2 fcbd
000000e0: dcfb bdbe 145e 82be 4bd8 4b3e 2750 033e
000000f0: 67f7 683d 1883 51bc a968 cebb a948 18be
00000100: 0a53 0abd 4d83 95bc 29f4 8a3d d161 1c3d
00000110: 1d12 40be da25 3dbd a699 853d 96b4 e53a
00000120: 449a 1cbd 76f9 263e 5b6d 483d 8471 373e
00000130: 2a89 ebbd 7a43 1abe c011 e83d dfca 153e
00000140: 4fe1 cfbd d967 07be d263 04bd 1264 78be
00000150: d31d 8e3e e93a 283e 78c3 89bd 3e82 2c3d
00000160: 6c69 86bd d7a8 c7bd 68a0 293e 2385 cc3c
00000170: 2e1f 17be 40d4 60bd 332b 2d3d 65fb 8fbd
00000180: ce87 393e c5e3 093d 0975 303e 553f 7ebd
00000190: 549c 81be 49dd 03be 8b87 2d3c 441d 7c3d
000001a0: 12b8 74bc efae 953d 536e a53d 66a1 37be
000001b0: c37d 1abd 4928 3c3d 5e29 53be 079b 87bd
000001c0: 4c92 adbe 0591 e53d 9cc3 273e c4b8 93be
000001d0: 19e5 16be b31a 223e 0cc7 c8bc 5f8b c1bd
000001e0: 2950 47be 797f 313e b1d9 dbb9 91db 9e3d
000001f0: 41b7 0bbf 4e21 b0bc ca0d eabd 30ce 373e
00000200: 96e7 be3e 7287 d8bd e1d0 053e 6cb9 65be
00000210: e741 313d 8d13 8b3e cc54 223e 855d 8a3d
00000220: eafe a63d f17d 983e f0ac d0bd 69f3 94be
00000230: 8a8e 2b3c b452 d13d f826 783d 6ade abbe
00000240: 6f43 223d 3f2e 56bd fb6b e6bd a727 183e
00000250: d9b1 883e 4e19 f2bd ed94 143e a42c 2dbd
00000260: 3e0d 573d 777b 243e c595 b03c b276 95be
00000270: dd9c e23d d586 0abe 40cf d73c c09d 033e
00000280: 25ec 953c 2984 83be 6ba1 913d 071f 28be
00000290: 7105 4abd af6f 0a3d e711 92bc a6a3 103e
000002a0: aaa9 05be a6ce a73d 6051 83be eac0 733d
000002b0: 4898 b4bc c94e 4c3d aed6 c0bc 8a9b 28be
000002c0: 398a 973e b265 00be 8475 34be 3f46 023e
000002d0: 4d04 dbbc 1e6b ba3d a040 dbbd 7819 493d
000002e0: 884f 4a3e 9c98 60be a681 9cbd 55fa 083c
000002f0: b4ed 8c3d 0dc0 2cbe dc46 db3d 0cf2 60be
00000300: b6a3 d7be f097 29be a1b5 813e ee77 66be
00000310: e040 adbd a379 463d f3e1 57be f523 193e
00000320: b1d0 013e 8a4e 783d ad41 5f3d 4e02 38be
00000330: 2aaa 8dbd 279f e1bd 39af 223e 7caa 30bc
00000340: 6f2a 96bd fcb8 033e e7c1 a03e 261d c5bd
00000350: b3f9 0b3d 4e99 4e3d 58b8 f13d a372 debe
00000360: 4c40 9f3d 5492 2cbe 2e71 a03e 303a 03be
00000370: 1536 723e a919 d73d 315d 81bb 15a8 bb3e
00000380: da9a 053c 02a0 dd3d cb82 913e 8ccf 32bd
00000390: bfc0 c5bd d40b 183e 0b6a 543e c59a 3a3b
000003a0: f6b6 fcbd 3292 743d 5e93 e8bd 305f d3bd
000003b0: 7b61 14be 5cb0 50be 6fc0 cb3d 3f39 f9bd
000003c0: 00a9 bfbd c48e 8fbd aedc 2d3e 4c5d 47be
000003d0: 0325 4ebe 2abf d7bd 0fc7 21bd 6e48 82be
000003e0: 0926 a73d ed8d acbe aa28 cbbd adfa 143d
000003f0: 8951 9cbd 3550 fcbd 0455 44be d53c 94be

base.mlp.fc1.0.bias f4 [64]
-0.021961609 -0.002963703 0.009769904 -0.0048642685 0.018473804 -0.021635758 0.010030156 0.0028051839
-0.019044373 -0.023283573 -0.015352129 0.012986322 0.008301789 -0.014474446 0.008391658 0.009305203
0.009899323 -0.0020337498 0.0054792017 -0.0103001 -0.002362592 0.009577273 -0.05341659 0.0036524998
-0.020741753 -0.017621147 0.0027436472 -0.02175179 0.0034184137 0.007984732 0.007814703 -0.012903002
0.01186216 -0.0008725271 0.0064994777 0.023638269 0.05016068 -0.023798581 0.021044033 5.287152e-05
0.0066765547 0.002327024 0.05070316 0.0045441934 -0.008067164 0.017770058 -0.013920902 -0.0245773
-0.0124045955 0.00195005 0.053109612 0.033608597 -0.003287466 -0.020773243 -0.006476601 0.024076913
0.012584295 0.009058962 0.009220806 -0.03254844 0.013691403 -0.019555477 0.029413939 0.008789616
00000000: d5e8 b3bc af3a 42bb f311 203c 7164 9fbb
00000010: 6056 973c 793d b1bc 8655 243c 2dd7 373b
00000020: f202 9cbc 31bd bebc 7f87 7bbc 95c4 543c
00000030: 3a04 083c 3a26 6dbc 2a7d 093c da74 183c
00000040: c530 223c a948 05bb e08a b33b c0c1 28bc
00000050: b7d5 1abb ffe9 1c3c 5bcb 5abd c75e 6f3b
00000060: 9cea a9bc 395a 90bc c3ce 333b cf30 b2bc
00000070: 7707 603b 65d2 023c 3d09 003c 1d67 53bc
00000080: 8159 423c 4dba 64ba 92f9 d43b 0ba5 c13c
00000090: 4975 4d3d 3ef5 c2bc 8964 ac3c 5dc2 5d38
000000a0: 00c7 da3b fc80 183b 1eae 4f3d 75e7 943b
000000b0: 232c 04bc 8392 913c 7f14 64bc 5556 c9bc
000000c0: a53c 4bbc d298 ff3a 7789 593d 2ba9 093d
000000d0: 8772 57bb a62c aabc ab39 d4bb f23c c53c
000000e0: 5c2e 4e3c 0a6c 143c dd12 173c 8351 05bd
000000f0: e851 603c cf32 a0bc 80f5 f03c 5202 103c

base.mlp.fc1.2.weight f4 [64]
1.0016505 0.9905588 1.0049258 0.98030716 1.0252616 0.9859371 0.97058463 1.0028818
1.0059721 1.0761503 1.008458 1.038613 1.0227476 1.0116603 1.0219009 0.985404
0.98497903 0.979534 1.0246339 1.0491185 0.9688375 0.98403585 1.0072832 1.0068626
1.0178174 1.0357661 1.0010937 0.97293454 1.0238923 1.0258291 0.9939925 1.0340575
1.0137365 0.98997706 0.9648292 1.0114764 0.9739938 0.9851359 0.99115026 0.9901505
1.023292 0.99647003 0.9918151 0.89115953 0.9870577 0.99904525 0.9784291 1.0026212
1.0126258 1.0038176 0.9933604 1.0062435 0.97583747 1.0013471 1.0253986 0.98616785
1.0317383 0.98853934 0.9977212 0.9313679 0.99616164 0.98971564 1.0417367 1.0040598
00000000: 1536 803f 4395 7d3f 69a1 803f 69f5 7a3f
00000010: c63b 833f 6066 7c3f 3c78 783f 6e5e 803f
00000020: b2c3 803f 4bbf 893f 2715 813f 45f1 843f
00000030: 65e9 823f 167e 813f a6cd 823f 7043 7c3f
00000040: 9627 7c3f bdc2 7a3f 3427 833f 8449 863f
00000050: bc05 783f c6e9 7b3f a8ee 803f e0e0 803f
00000060: d747 823f fc93 843f d723 803f 3d12 793f
00000070: e70e 833f 5e4e 833f 4b76 7e3f ff5b 843f
00000080: 1ec2 813f 236f 7d3f 0cff 763f 0f78 813f
00000090: a857 793f de31 7c3f 06bc 7d3f 817a 7d3f
000000a0: 3bfb 823f a918 7f3f 98e7 7d3f 0823 643f
000000b0: d0af 7c3f 6ec1 7f3f 547a 7a3f e455 803f
000000c0: b99d 813f 187d 803f de4c 7e3f 96cc 803f
000000d0: 7cd0 793f 242c 803f 4340 833f 7f75 7c3f
000000e0: 0010 843f ea10 7d3f a86a 7f3f 206e 6e3f
000000f0: 7304 7f3f 015e 7d3f a157 853f 0885 803f

base.mlp.fc1.2.bias f4 [64]
-0.018069724 -0.011687519 0.015763562 -0.006113428 -0.005087969 -0.022494428 -0.00934289 -0.00985104
-0.021747312 -0.053968158 -0.0047391024 -0.00088710623 -0.006936916 -0.01388711 0.01767236 0.03642555
-0.0035937612 -0.013774748 0.0049965633 0.000787275 -0.012890361 -0.0065227654 -0.0062367585 0.026924876
0.022754656 0.0056361016 -0.014731508 0.0048674135 -0.01680342 -0.0011269952 -0.013295945 -0.02454224
0.005452536 -0.025761163 -0.020228762 0.033585522 -0.021081977 0.014519803 0.018074885 0.013069894
-0.016841244 0.007282621 -0.006469737 0.017720874 -0.014543589 -0.001218101 -0.03341734 -0.022916298
0.016544465 0.016401537 -0.006972556 0.021069212 0.015349385 0.0029972869 0.018934892 0.0031002546
0.008523218 -0.006349358 0.020280622 0.018685276 0.009428002 0.0049952683 0.05605871 0.006703293
00000000: f506 94bc 027d 3fbc 9622 813c 2753 c8bb
00000010: fab8 a6bb 3c46 b8bc ec12 19bc 4266 21bc
00000020: 6b27 b2bc b70d 5dbd 794a 9bbb b18c 68ba
00000030: 124f e3bb c386 63bc a0c5 903c f532 153d
00000040: 4f85 6bbb 7baf 61bc 36ba a33b 2261 4e3a
00000050: 1832 53bc ecbc d5bb b95d ccbb 8f91 dc3c
00000060: f967 ba3c 0caf b83b 6c5c 71bc d37e 9f3b
00000070: 53a7 89bc afb7 93ba 3cd7 59bc cf0c c9bc
00000080: 30ab b23b 1309 d3bc cab6 a5bc f990 093d
00000090: 1cb4 acbc 78e4 6d3c c811 943c 1c23 563c
000000a0: a6f6 89bc 0ea3 ee3b 1600 d4bb 5e2b 913c
000000b0: 3c48 6ebc b0a8 9fba 9fe0 08bd f6ba bbbc
000000c0: 4288 873c 845c 863c 0a7a e4bb 5799 ac3c
000000d0: fd7b 7b3c 216e 443b 591d 9b3c a42d 4b3b
000000e0: f8a4 0b3c 460e d0bb 8c23 a63c dd11 993c
000000f0: e877 1a3c 59af a33b d19d 653d 4ca7 db3b

base.mlp.fc_h.0.weight f4 [64, 64]
0.039142568 0.038209446 -0.031631432 0.038176514 -0.09722014 0.37798914 -0.07956498 -0.43584707
0.08191527 -0.12237042 -0.4603131 -0.1187668 0.068158455 0.24906561 0.100467846 -0.06276611
0.27730814 0.19610079 -0.2710712 -0.24393901 -0.30075657 0.23891163 0.081902824 0.12323801
0.022134308 0.18546225 -0.18920177 -0.2480557 0.32380718 0.33122513 -0.19694024 0.1725187
-0.12652336 0.069259375 0.210182 -0.19879474 0.092131615 -0.09159637 0.19946507 0.06585226
0.106818125 -0.3021219 0.18860835 0.1461252 -0.36445943 -0.31294206 -0.2560158 -0.033354826
0.27657336 0.0009156329 -0.39126623 -0.16484228 -0.19564572 0.12513714 -0.018971238 0.058240816
0.14528936 -0.28130585 0.016604096 0.13610244 0.28496388 0.0027829986 0.3515144 -0.03774398
0.23507015 0.03682653 -0.27892202 0.12701462 -0.03351728 -0.19021624 -0.18923001 0.23550385
0.094019085 -0.08943027 -0.050801504 0.20156422 0.174275 0.43738398 0.1936837 0.18091117
-0.24182902 0.10381046 0.1448894 0.05573121 -0.07390612 0.2726574 0.023276296 0.04793521
0.26592296 -0.044922967 -0.30876294 0.0261171 0.10097641 0.025326023 0.00962746 -0.025415525
0.14863327 0.27842158 -0.035472088 -0.33444986 -0.26234052 0.50370276 0.07444493 -0.044518497
0.17887175 -0.14628783 0.21230288 -0.38076007 0.18259841 0.287291 0.12538546 0.24273582
-0.22439258 0.20715657 0.20461948 -0.2692123 0.18683948 -0.09809062 -0.17909878 0.19509499
0.25920802 0.023383342 -0.1109909 -0.11045925 0.1408581 0.25456473 0.4093463 0.3832336
0.11347477 0.21589108 -0.057055354 0.12269751 0.10646457 0.11040315 0.13625683 0.506722
-0.082100876 -0.33753368 -0.19582185 -0.37221244 0.112494044 0.0923703 0.08240645 0.0036002598
-0.058094386 -0.09067633 -0.04129265 -0.24654534 -0.015152009 -0.20087257 -0.019401837 0.042171314
0.6400228 0.2646259 -0.1732637 0.23391277 0.12758766 -0.2849901 0.11831765 0.018097239
-0.17455697 -0.02560884 0.18876302 0.3301221 0.17852859 -0.2159171 -0.33853096 0.13703181
0.20522207 0.03212328 0.10499306 -0.32380253 -0.11190937 0.06287717 0.12383648 -0.39156702
-0.014209508 -0.23527634 -0.15734483 -0.15106179 0.14486918 0.011226386 -0.11599737 0.017565178
-0.045658723 -0.07567028 0.050304946 0.035426192 -0.2989067 -0.52435684 0.17741458 0.07343435
0.17814533 -0.027662227 -0.08075489 -0.24855931 0.02476549 -0.05429904 0.24682526 -0.04521426
-0.037457407 -0.15019569 -0.21519916 0.17767352 -0.18183789 -0.2697195 0.24174851 0.18880904
-0.16788825 -0.12066461 -0.28593707 0.026392626 -0.24853818 -0.042793624 0.34028858 -0.06988049
0.10703685 0.02159974 -0.2182866 -0.15896817 -0.048063878 0.3166381 -0.17558214 -0.71501946
-0.29094765 0.3760806 0.043669604 0.034408495 0.029531904 0.21214698 -0.19525588 -0.0004740362
0.15700394 0.0990969 0.11737859 0.15704675 -0.0735795 -0.19938804 -0.014994063 0.23464349
-0.013765702 -0.23536095 0.4341936 0.30519593 -0.22461177 0.27401054 -0.31292307 -0.01779709
0.1394588 0.0567369 0.0838858 0.11121238 -0.25798017 -0.11642035 -0.29152724 0.1224057
00000000: f553 203d 8281 1c3d f68f 01bd fa5e 1c3d
00000010: 5a1b c7bd cb87 c13e f7f2 a2bd 5927 dfbe
00000020: 31c3 a73d 589d fabd 29ae ebbe 023c f3bd
00000030: a996 8b3d 0e0b 7f3e 16c2 cd3d 858b 80bd
00000040: 55fb 8d3e a5ce 483e d8c9 8abe 26cb 79be
00000050: c4fc 99be 40a5 743e abbc a73d 3664 fc3d
00000060: 0253 b53c d1e9 3d3e 1cbe 41be 5002 7ebe
00000070: 0eca a53e 5796 a93e b4aa 49be bea8 303e
00000080: 578f 01be dcd7 8d3d f339 573e d990 4bbe
00000090: 80af bc3d e196 bbbd 9240 4c3e 8ddd 863d
000000a0: 76c3 da3d b9af 9abe 8c22 413e d8a1 153e
000000b0: 6d9a babe f139 a0be 8114 83be 129f 08bd
000000c0: 069b 8d3e 1507 703a 0c54 c8be 6acc 28be
000000d0: 5a57 48be f323 003e 9269 9bbc ec8d 6e3d
000000e0: bcc6 143e 5207 90be 5005 883c 705e 0b3e
000000f0: c9e6 913e f862 363b b2f9 b33e 6e99 1abd
00000100: 3bb6 703e 6ad7 163d dece 8ebe 1f10 023e
00000110: 6a49 09bd 0cc8 42be 83c5 41be ec27 713e
00000120: 148d c03d 3827 b7bd 3d15 50bd da66 4e3e
00000130: 2575 323e cbf0 df3e 0555 463e c740 393e
00000140: 07a2 77be 949a d43d e35d 143e 6946 643d
00000150: 185c 97bd c099 8b3e eead be3c b657 443d
00000160: 0e27 883e 2501 38bd 2d16 9ebe 87f3 d53c
00000170: b8cc ce3d 8578 cf3c 7ebc 1d3c 3834 d0bc
00000180: 5233 183e 468d 8e3e 2e4b 11bd 033d abbe
00000190: 7f51 86be aaf2 003f 9576 983d 0759 36bd
000001a0: 282a 373e 7acc 15be ed65 593e fcf2 c2be
000001b0: 14fb 3a3e ce17 933e 0c65 003e bd8f 783e
000001c0: 2bc7 65be da20 543e c587 513e 32d6 89be
000001d0: d952 3f3e bce3 c8bd ac65 37be fbc6 473e
000001e0: eab6 843e 6c8e bf3c 324f e3bd 7638 e2bd
000001f0: 1b3d 103e 4f56 823e d795 d13e 3237 c43e
00000200: 7665 e83d 8d12 5d3e e0b2 69bd d548 fb3d
00000210: 190a da3d 0c1b e23d e986 0b3e 88b8 013f
00000220: 8124 a8bd 37d1 acbe 8685 48be a192 bebe
00000230: 4763 e63d a42c bd3d b6c4 a83d 56f2 6b3b
00000240: 61f4 6dbd 83b4 b9bd 7b22 29bd 6276 7cbe
00000250: 2240 78bc 8ab1 4dbe 9af0 9ebc d4bb 2c3d
00000260: 89d8 233f 0c7d 873e 0a6c 31be d486 6f3e
00000270: 57a6 023e 39ea 91be 8650 f23d a940 943c
00000280: 10bf 32be a1c9 d1bc 184b 413e c405 a93e
00000290: 33d0 363e 5f19 5dbe ee53 adbe 1152 0c3e
000002a0: bc25 523e b393 033d 9a06 d73d 72c9 a5be
000002b0: bd30 e5bd bfc5 803d fb9d fd3d 797b c8be
000002c0: ffce 68bc 48ec 70be 011f 21be f1af 1abe
000002d0: 9658 143e e0ee 373c 0790 edbd d9e4 8f3c
000002e0: a404 3bbd 05f9 9abd 8f0c 4e3d 0e1b 113d
000002f0: 4d0a 99be 403c 06bf 2bac 353e c064 963d
00000300: bb6b 363e e59b e2bc d262 a5bd 5586 7ebe
00000310: ffe0 ca3c ac68 5ebd c3bf 7c3e 9732 39bd
00000320: f06c 19bd e6cc 19be 2b5d 5cbe 0cf0 353e
00000330: b633 3abe ad18 8abe ec8c 773e 2857 413e
00000340: e6ea 2bbe 021f f7bd 5866 92be 5935 d83c
00000350: cb80 7ebe 5e48 2fbd 4e3a ae3e 811d 8fbd
00000360: 2336 db3d f0f1 b03c 8686 5fbe 8dc8 22be
00000370: a1de 44bd 641e a23e cecb 33be 840b 37bf
00000380: 17f7 94be a38d c03e e6de 323d ecef 0c3d
00000390: e4ec f13c 0f3d 593e 28f1 47be 1088 f8b9
000003a0: a4c5 203e 51f3 ca3d 3064 f03d ddd0 203e
000003b0: d9b0 96bd 612c 4cbe a9a9 75bc 6246 703e
000003c0: 8a89 61bc 7602 71be a04e de3e a442 9c3e
000003d0: a100 66be 1c4b 8c3e 7437 a0be 34cb 91bc
000003e0: 4ace 0e3e f464 683d 51cc ab3d 51c3 e33d
000003f0: fa15 84be cb6d eebd 0f43 95be d7af fa3d

base.mlp.fc_h.0.bias f4 [64]
0.0 0.0 0.0 0.0 0.0 0.0 0.0 0.0
0.0 0.0 0.0 0.0 0.0 0.0 0.0 0.0
0.0 0.0 0.0 0.0 0.0 0.0 0.0 0.0
0.0 0.0 0.0 0.0 0.0 0.0 0.0 0.0
0.0 0.0 0.0 0.0 0.0 0.0 0.0 0.0
0.0 0.0 0.0 0.0 0.0 0.0 0.0 0.0
0.0 0.0 0.0 0.0 0.0 0.0 0.0 0.0
0.0 0.0 0.0 0.0 0.0 0.0 0.0 0.0
00000000: 0000 0000 0000 0000 0000 0000 0000 0000
00000010: 0000 0000 0000 0000 0000 0000 0000 0000
00000020: 0000 0000 0000 0000 0000 0000 0000 0000
00000030: 0000 0000 0000 0000 0000 0000 0000 0000
00000040: 0000 0000 0000 0000 0000 0000 0000 0000
00000050: 0000 0000 0000 0000 0000 0000 0000 0000
00000060: 0000 0000 0000 0000 0000 0000 0000 0000
00000070: 0000 0000 0000 0000 0000 0000 0000 0000
00000080: 0000 0000 0000 0000 0000 0000 0000 0000
00000090: 0000 0000 0000 0000 0000 0000 0000 0000
000000a0: 0000 0000 0000 0000 0000 0000 0000 0000
000000b0: 0000 0000 0000 0000 0000 0000 0000 0000
000000c0: 0000 0000 0000 0000 0000 0000 0000 0000
000000d0: 0000 0000 0000 0000 0000 0000 0000 0000
000000e0: 0000 0000 0000 0000 0000 0000 0000 0000
000000f0: 0000 0000 0000 0000 0000 0000 0000 0000

base.mlp.fc_h.2.weight f4 [64]
1.0 1.0 1.0 1.0 1.0 1.0 1.0 1.0
1.0 1.0 1.0 1.0 1.0 1.0 1.0 1.0
1.0 1.0 1.0 1.0 1.0 1.0 1.0 1.0
1.0 1.0 1.0 1.0 1.0 1.0 1.0 1.0
1.0 1.0 1.0 1.0 1.0 1.0 1.0 1.0
1.0 1.0 1.0 1.0 1.0 1.0 1.0 1.0
1.0 1.0 1.0 1.0 1.0 1.0 1.0 1.0
1.0 1.0 1.0 1.0 1.0 1.0 1.0 1.0
00000000: 0000 803f 0000 803f 0000 803f 0000 803f
00000010: 0000 803f 0000 803f 0000 803f 0000 803f
00000020: 0000 803f 0000 803f 0000 803f 0000 803f
00000030: 0000 803f 0000 803f 0000 803f 0000 803f
00000040: 0000 803f 0000 803f 0000 803f 0000 803f
00000050: 0000 803f 0000 803f 0000 803f 0000 803f
00000060: 0000 803f 0000 803f 0000 803f 0000 803f
00000070: 0000 803f 0000 803f 0000 803f 0000 803f
00000080: 0000 803f 0000 803f 0000 803f 0000 803f
00000090: 0000 803f 0000 803f 0000 803f 0000 803f
000000a0: 0000 803f 0000 803f 0000 803f 0000 803f
000000b0: 0000 803f 0000 803f 0000 803f 0000 803f
000000c0: 0000 803f 0000 803f 0000 803f 0000 803f
000000d0: 0000 803f 0000 803f 0000 803f 0000 803f
000000e0: 0000 803f 0000 803f 0000 803f 0000 803f
000000f0: 0000 803f 0000 803f 0000 803f 0000 803f

base.mlp.fc_h.2.bias f4 [64]
0.0 0.0 0.0 0.0 0.0 0.0 0.0 0.0
0.0 0.0 0.0 0.0 0.0 0.0 0.0 0.0
0.0 0.0 0.0 0.0 0.0 0.0 0.0 0.0
0.0 0.0 0.0 0.0 0.0 0.0 0.0 0.0
0.0 0.0 0.0 0.0 0.0 0.0 0.0 0.0
0.0 0.0 0.0 0.0 0.0 0.0 0.0 0.0
0.0 0.0 0.0 0.0 0.0 0.0 0.0 0.0
0.0 0.0 0.0 0.0 0.0 0.0 0.0 0.0
00000000: 0000 0000 0000 0000 0000 0000 0000 0000
00000010: 0000 0000 0000 0000 0000 0000 0000 0000
00000020: 0000 0000 0000 0000 0000 0000 0000 0000
00000030: 0000 0000 0000 0000 0000 0000 0000 0000
00000040: 0000 0000 0000 0000 0000 0000 0000 0000
00000050: 0000 0000 0000 0000 0000 0000 0000 0000
00000060: 0000 0000 0000 0000 0000 0000 0000 0000
00000070: 0000 0000 0000 0000 0000 0000 0000 0000
00000080: 0000 0000 0000 0000 0000 0000 0000 0000
00000090: 0000 0000 0000 0000 0000 0000 0000 0000
000000a0: 0000 0000 0000 0000 0000 0000 0000 0000
000000b0: 0000 0000 0000 0000 0000 0000 0000 0000
000000c0: 0000 0000 0000 0000 0000 0000 0000 0000
000000d0: 0000 0000 0000 0000 0000 0000 0000 0000
000000e0: 0000 0000 0000 0000 0000 0000 0000 0000
000000f0: 0000 0000 0000 0000 0000 0000 0000 0000

base.mlp.fc2.0.0.weight f4 [64, 64]
0.03686366 0.058061745 -0.033100363 0.09627379 -0.14360176 0.42041916 0.022308327 -0.4352695
0.13105051 -0.12774542 -0.49770394 -0.112724036 0.015834462 0.22334936 0.100344874 -0.033156063
0.31949115 0.19820783 -0.28691608 -0.20142515 -0.30876172 0.22074339 0.06957722 0.14127772
0.08198011 0.17658368 -0.22083613 -0.23837748 0.3249599 0.36377275 -0.21945809 0.14074199
-0.12572497 0.079940006 0.18032268 -0.18694419 0.08825161 -0.09163868 0.16670935 0.052929264
0.11367077 -0.2831938 0.19025446 0.09390671 -0.30068704 -0.31657934 -0.24648929 -0.03944909
0.24955891 0.0048032766 -0.39154103 -0.15304291 -0.17892662 0.12473523 -0.032277428 0.012026975
0.22123043 -0.31847188 0.016882356 0.106893815 0.24375793 -0.011929914 0.38267145 -0.027833933
0.22135064 0.05666447 -0.2681144 0.09181617 -0.018045401 -0.20088388 -0.18329057 0.19865915
0.20305367 -0.07232589 -0.08579678 0.2103066 0.14862266 0.42520812 0.19166024 0.17492111
-0.23194848 0.13813819 0.10619476 -0.0072512846 -0.054978047 0.26989946 0.060781997 0.036996733
0.26147223 -0.10362154 -0.39594582 0.0743711 0.13154864 -0.0063968026 -0.023367442 -0.036424786
0.094447464 0.28446418 -0.07987249 -0.37244302 -0.2871028 0.5153974 0.060113564 -0.07912643
0.23513944 -0.08909732 0.17457786 -0.36221895 0.17480554 0.31861365 0.113956414 0.21243122
-0.22604503 0.20051923 0.1723413 -0.208427 0.23714378 -0.14010963 -0.13967225 0.25043538
0.28989324 0.05658817 -0.08234165 -0.11119732 0.087925576 0.28428954 0.40765697 0.3904353
0.1134755 0.25084087 -0.081791885 0.13513632 0.13813034 0.1324223 0.15046105 0.45913392
-0.13934037 -0.35495743 -0.19148415 -0.32383168 0.09968764 0.14192751 0.06178873 -0.05903639
-0.14293677 -0.15484269 0.008416629 -0.2640941 0.06318025 -0.2070785 -0.023347193 0.025313018
0.6322151 0.38735813 -0.14182451 0.21478973 0.12010898 -0.37536022 0.1473352 0.056314066
-0.17798291 -0.014177475 0.23237392 0.36514607 0.20234357 -0.21131775 -0.31819096 0.17576912
0.10837527 0.021311909 0.13090393 -0.24392827 -0.12352569 0.030706596 0.12168372 -0.41821715
-0.019730616 -0.2643537 -0.13222298 -0.17310017 -0.08527417 0.034167722 -0.119680785 -0.057958893
-0.0679605 -0.021862717 -0.015567469 0.07121473 -0.2631874 -0.5246531 0.27463943 0.0724205
0.25518668 -0.054083854 -0.10557851 -0.3011866 0.002163206 -0.112285085 0.34922343 -0.04195836
-0.02446747 -0.14486589 -0.20986933 0.2208004 -0.15745623 -0.26902485 0.20671195 0.19920409
-0.15303122 -0.10779495 -0.33248538 -0.031430718 -0.10041041 -0.061600693 0.341478 -0.055833787
0.103029795 0.030063 -0.21678491 -0.1564809 -0.055396643 0.3234634 -0.12165538 -0.69706374
-0.32302663 0.37053567 0.028763667 0.005051678 0.043635767 0.18227781 -0.20981777 -0.0063514845
0.099816196 0.086835764 0.11917731 0.18064071 -0.09034886 -0.21783412 -0.0034921002 0.27301842
-0.0040161144 -0.2086347 0.43968084 0.23911332 -0.2547891 0.27471158 -0.26939344 0.0045582126
0.009383542 0.18038175 0.119243905 0.08931707 -0.25840786 -0.10213363 -0.355168 0.028332904
00000000: 59fe 163d 27d2 6d3d 3f94 07bd 312b c53d
00000010: 570c 13be 2e41 d73e f4bf b63c a5db debe
00000020: 1b32 063e b2cf 02be 0dd3 febe dcdb e6bd
00000030: 46b7 813c b2b5 643e 9d81 cd3d a7ce 07bd
00000040: 5894 a33e fef6 4a3e aae6 92be 6542 4ebe
00000050: 0416 9ebe 8e0a 623e 807e 8e3d 1bab 103e
00000060: 30e5 a73d 5ad2 343e de22 62be 3a19 74be
00000070: 2561 a63e 6c40 ba3e 9fb9 60be ab1e 103e
00000080: 0cbe 00be 96b7 a33d 82a6 383e 4c6e 3fbe
00000090: 43bd b43d 0fad bbbd dbb5 2a3e 5bcc 583d
000000a0: 38cc e83d c7fe 90be 11d2 423e 2952 c03d
000000b0: a7f3 99be b016 a2be b067 7cbe 5e95 21bd
000000c0: 5f8c 7f3e ce64 9d3b 1178 c8be 48b7 1cbe
000000d0: 8a38 37be 2f75 ff3d 5635 04bd ca0c 453c
000000e0: 3b8a 623e bf0e a3be de4c 8a3c 25eb da3d
000000f0: ae9b 793e b075 43bc 83ed c33e fd03 e4bc
00000100: bea9 623e 0119 683d 4a46 89be 1e0a bc3d
00000110: f3d3 93bc 81b4 4dbe 86b0 3bbe 4e6d 4b3e
00000120: 4ded 4f3e 991f 94bd 39b6 afbd 9d5a 573e
00000130: 8a30 183e e1b4 d93e 9542 443e 851e 333e
00000140: e783 6dbe 1974 0d3e a37c d93d 2f9c edbb
00000150: a930 61bd 4330 8a3e 8bf6 783d e389 173d
00000160: b0df 853e 8837 d4bd 69b9 cabe e04f 983d
00000170: b0b4 063e 459c d1bb 146d bfbc 2832 15bd
00000180: ac6d c13d 4aa5 913e 3094 a3bd dab0 bebe
00000190: 23ff 92be 16f1 033f a439 763d 0a0d a2bd
000001a0: 65c8 703e a878 b6bd 8ac4 323e c374 b9be
000001b0: 3900 333e 5421 a33e fb61 e93d 9287 593e
000001c0: 5978 67be ea54 4d3e 3d7a 303e e36d 55be
000001d0: d2d5 723e e678 0fbe 3e06 0fbe 1139 803e
000001e0: e36c 943e ffc8 673d bda2 a8bd 6cbb e3bd
000001f0: 5312 b43d 668e 913e 6ab8 d03e 23e7 c73e
00000200: d865 e83d 376e 803e 8182 a7bd 2d61 0a3e
00000210: 0a72 0d3e b699 073e 7612 1a3e 9a13 eb3e
00000220: 3eaf 0ebe fbbc b5be 6c14 44be 44cd a5be
00000230: 0929 cc3d 7255 113e 2e16 7d3d 24d0 71bd
00000240: 045e 12be 158f 1ebe e7e5 093c 5837 87be
00000250: a664 813d 630c 54be 9d42 bfbc 3f5d cf3c
00000260: d9d8 213f ce53 c63e 723a 11be d7f1 5b3e
00000270: b2fb f53d 372f c0be 0adf 163e 94a9 663d
00000280: 2741 36be a448 68bc 6ef3 6d3e 6df4 ba3e
00000290: 2733 4f3e ae63 58be ede9 a2be d2fc 333e
000002a0: dbf3 dd3d 5096 ae3c ae0b 063e 55c8 79be
000002b0: 09fb fcbd 668c fb3c 5035 f93d 8f20 d6be
000002c0: 1aa2 a1bc 5e59 87be 7665 07be 2c41 31be
000002d0: 39a4 aebd 74f3 0b3d 331b f5bd 4e66 6dbd
000002e0: e02e 8bbd 7119 b3bc b30e 7fbc 07d9 913d
000002f0: 80c0 86be aa4f 06bf 8a9d 8c3e 3351 943d
00000300: d4a7 823e 0887 5dbd 8c39 d8bd 2135 9abe
00000310: 93c4 0d3b b9f5 e5bd 6acd b23e 87dc 2bbd
00000320: 0170 c8bc b957 14be fce7 56be 8019 623e
00000330: 353c 21be a0bd 89be 4cac 533e 28fc 4b3e
00000340: 37b4 1cbe 99c3 dcbd 863b aabe 7fbd 00bd
00000350: f9a3 cdbd 0251 7cbd 34d6 ae3e f8b1 64bd
00000360: 4901 d33d ae46 f63c ddfc 5dbe 873c 20be
00000370: 97e7 62bd ff9c a53e 7526 f9bd c572 32bf
00000380: bf63 a5be dab6 bd3e c8a1 eb3c 8c88 a53b
00000390: 6bbb 323d 09a7 3a3e 78da 56be 1d20 d0bb
000003a0: 6f6c cc3d f3d6 b13d 3c13 f43d e1f9 383e
000003b0: d308 b9bd e80f 5fbe b8db 64bb 12c9 8b3e
000003c0: 9c99 83bb 56a4 55be d91d e13e 1fda 743e
000003d0: b873 82be ffa6 8c3e f0ed 89be 0f5d 953b
000003e0: 6ebd 193c feb5 383e 2636 f43d deeb b63d
000003f0: 094e 84be 702b d1bd 95d8 b5be 681a e83c

base.mlp.fc2.0.0.bias f4 [64]
0.008860553 -0.036049582 0.011533961 -0.0011150353 -0.0030228172 -0.010191905 -0.004349011 -0.01830015
0.0061441157 -0.012668173 -0.03544892 0.030550642 -0.004928813 -0.015444557 -0.00013698192 0.0050210026
0.0060743648 0.01999398 -0.005644133 -0.019262588 0.007891304 -0.0038057368 0.010812991 0.007662678
0.0021319787 -0.031069318 0.008375352 -0.010303797 -0.03019379 0.010967591 -0.01722401 0.020143589
-0.0012203865 0.00692042 0.02653022 0.007154788 -0.008792406 -0.013582365 -0.019506112 -0.016715737
0.00986047 -0.026148671 -0.050560646 -0.011389168 -0.017693141 -0.03389805 -0.016290773 0.009270287
-0.0001748602 0.034967802 0.0111956345 -0.02584377 -0.018340046 -0.003073467 9.0113055e-05 -0.024940103
0.018231671 -0.03340766 -0.033145584 0.017762862 0.0035582825 -0.037041966 0.035405237 -0.028298667
00000000: da2b 113c baa8 13bd f0f8 3c3c 6026 92ba
00000010: 751a 46bb f3fb 26bc 2682 8ebb 32ea 95bc
00000020: 9454 c93b 2b8e 4fbc e332 11bd 5745 fa3c
00000030: e181 a1bb 2b0b 7dbc cea2 0fb9 3987 a43b
00000040: 770b c73b 6aca a33c 6bf2 b8bb 93cc 9dbc
00000050: 874a 013c ab69 79bb f928 313c 3417 fb3b
00000060: abb8 0b3b 1585 febc c638 093c 42d1 28bc
00000070: f858 f7bc 69b1 333c 5e19 8dbc 2b04 a53c
00000080: 60f5 9fba b1c4 e23b e755 d93c b672 ea3b
00000090: 060e 10bc 9188 5ebc 48cb 9fbc 71ef 88bc
000000a0: cf8d 213c bd35 d6bc ae18 4fbd a299 3abc
000000b0: 35f1 90bc afd8 0abd 3a74 85bc 67e2 173c
000000c0: ad5a 37b9 663a 0f3d e56d 373c 50b6 d3bc
000000d0: dd3d 96bc 386c 49bb 14fb bc38 304f ccbc
000000e0: 965a 953c 78d6 08bd aac3 07bd 6c83 913c
000000f0: 1332 693b 51b9 17bd 1505 113d 9bd2 e7bc

base.mlp.fc2.0.2.weight f4 [64]
0.98062885 1.037951 1.047104 0.9779343 0.97377545 1.0410457 1.0292718 0.96824527
1.04009 0.97620255 0.94302964 0.9848501 1.0121459 0.98445904 1.0778155 1.0135711
0.9992679 1.0058999 1.0275766 1.0032109 0.9569501 1.0582448 0.9440895 1.0682638
1.0043195 1.0251852 1.020493 1.047748 1.0213512 1.0195677 1.0252631 1.0743899
0.9697433 0.9860153 1.0635608 1.031085 0.95244867 1.0249499 1.0265428 1.066061
1.011803 1.0284243 1.0289843 0.9836399 0.95438695 1.0170842 0.9807282 0.99156415
0.99625427 0.96468973 1.020896 0.96325433 0.98430234 1.0622706 1.0621378 1.0255033
1.0418794 1.0237595 0.9496908 1.0584704 1.0598099 1.0200201 0.980151 0.99774235
00000000: 7e0a 7b3f 94db 843f 8107 863f e759 7a3f
00000010: 5949 793f fc40 853f 2ebf 833f ecde 773f
00000020: ab21 853f 69e8 793f 646a 713f 231f 7c3f
00000030: ff8d 813f 8205 7c3f dcf5 893f b3bc 813f
00000040: 05d0 7f3f 54c1 803f a187 833f 3769 803f
00000050: affa 743f 9174 873f d9af 713f debc 883f
00000060: 8b8d 803f 4539 833f 849f 823f 9b1c 863f
00000070: a3bb 823f 3281 823f d23b 833f 9c85 893f
00000080: 1941 783f 806b 7c3f c322 883f 98fa 833f
00000090: add3 733f 8f31 833f c165 833f b074 883f
000000a0: c382 813f 68a3 833f c2b5 833f d3cf 7b3f
000000b0: b452 743f d12f 823f 0111 7b3f 26d7 7d3f
000000c0: 850a 7f3f e8f5 763f b8ac 823f d697 763f
000000d0: 3dfb 7b3f 7cf8 873f 22f4 873f b143 833f
000000e0: 4e5c 853f 8d0a 833f f01e 733f f57b 873f
000000f0: daa7 873f 0590 823f 2deb 7a3f 0b6c 7f3f

base.mlp.fc2.0.2.bias f4 [64]
0.010078967 -0.03420183 0.013805994 -0.0030913486 -0.0068379287 -0.0030544556 -0.015767694 0.003517335
-0.0055659404 -0.006561608 0.03708651 0.0031093033 -0.017869746 -0.02752907 -0.0195919 -0.02092067
0.0070229997 0.006203082 0.0150908055 -0.0010904873 0.033121947 0.0010300234 -0.023514558 0.010844061
-0.007124307 -0.009235054 0.0010303119 0.0072496906 -0.020145694 -0.015543094 -0.0076518306 0.010152599
0.0010149168 0.0077565107 0.029324256 0.016349636 -0.047550905 -0.03445199 -0.027680894 -0.02540643
0.011922557 0.015356536 -0.048441757 -0.041567866 -0.02312012 -0.05321177 -0.039024692 -0.009642418
0.008758176 -0.028618155 0.016637549 0.008673152 -0.014147726 0.04072906 -0.0064033596 -0.02081293
-0.032368798 -0.055543214 0.008380074 0.0018178318 0.031331386 -0.02001908 0.028284425 -0.0050278897
00000000: 4022 253c 3817 0cbd 8932 623c 3998 4abb
00000010: b410 e0bb 432d 48bb 402b 81bc 1783 663b
00000020: 7e62 b6bb c202 d7bb 06e8 173d 74c5 4b3b
00000030: 9363 92bc a584 e1bc 317f a0bc d361 abbc
00000040: 3121 e63b 3943 cb3b 6d3f 773c afee 8eba
00000050: e1aa 073d da01 873a 9aa1 c0bc 4aab 313c
00000060: 0573 e9bb a04e 17bc 880b 873a d08e ed3b
00000070: 9508 a5bc 76a8 7ebc 35bc fabb 1657 263c
00000080: f506 853a 542a fe3b 6c39 f03c acef 853c
00000090: bdc4 42bd 881d 0dbd 0bc3 e2bc 2521 d0bc
000000a0: d456 433c fb99 7b3c dd6a 46bd 1143 2abd
000000b0: 6866 bdbc 96f4 59bd 5bd8 1fbd 3bfb 1dbc
000000c0: 747e 0f3c 9f70 eabc 784b 883c d619 0e3c
000000d0: ddcb 67bc 84d3 263d 46d3 d1bb e17f aabc
000000e0: 2595 04bd 4881 63bd 944c 093c 5044 ee3a
000000f0: 5755 003d 0eff a3bc bdb4 e73c ffc0 a4bb

base.mlp.fc2.1.0.weight f4 [64, 64]
0.029272957 0.08027442 -0.062761456 0.031369682 -0.106865875 0.37089142 -0.07751492 -0.4301767
0.051355217 -0.10842778 -0.4579797 -0.11479931 0.09210964 0.25568786 0.07650456 -0.0597155
0.26936984 0.19723378 -0.2681276 -0.2146182 -0.30662808 0.20562713 0.057431675 0.08581264
-0.034305483 0.19951482 -0.19773167 -0.23578314 0.3186129 0.35860965 -0.17758799 0.12375501
-0.14805262 0.03900342 0.21686962 -0.19792026 0.083288044 -0.119940974 0.26698464 0.060570125
0.10192569 -0.29483193 0.20443486 0.10978361 -0.43154216 -0.24970153 -0.22260295 0.016151052
0.3255807 -0.011170053 -0.40265718 -0.16345188 -0.2125804 0.11358114 -0.009792853 0.06822287
0.2055645 -0.26618806 0.014056509 0.11026135 0.28994676 0.010621842 0.31703874 -0.039514493
0.14243919 0.04575061 -0.31174335 0.07507149 -0.09262037 -0.12214526 -0.26107562 0.23943353
0.07917869 -0.17370847 -0.0064503374 0.13170514 0.13248606 0.4130431 0.22635816 0.22079635
-0.20374268 0.1298459 0.24547371 0.0055381847 0.0024280942 0.31798515 -0.009948274 0.06656518
0.31853873 -0.0020457515 -0.32365525 0.05489246 0.17756227 0.01281103 0.052561786 -0.08700392
0.15459938 0.25559303 -0.018104445 -0.33859384 -0.30016017 0.5008136 0.10259779 -0.08954232
0.20649627 -0.17576846 0.2842481 -0.31944698 0.22862874 0.2731196 0.15126325 0.13969718
-0.23674478 0.1805651 0.12758797 -0.2414319 0.15921338 -0.056067545 -0.20066145 0.24844769
0.2720941 0.0586807 -0.05634486 -0.14536506 0.11232479 0.30587378 0.39002666 0.34808943
0.11740592 0.24626371 -0.026049655 0.1101488 0.12368769 0.13276803 0.12841499 0.5336937
-0.029178154 -0.2576025 -0.21419482 -0.34259224 0.115718655 0.1268451 0.14962558 0.055786323
-0.051101755 -0.12932202 -0.07064061 -0.27755722 -0.036149226 -0.24509706 0.029862298 0.07543258
0.6518753 0.24364302 -0.24609157 0.20173906 0.14067289 -0.28936315 0.014651764 -0.050651465
-0.25004533 -0.054906566 0.21277694 0.2791378 0.18941085 -0.11625084 -0.3002846 0.115348175
0.21193407 0.036205903 0.11789359 -0.28656015 -0.089407094 0.040208794 0.09163444 -0.41695827
-0.0074224533 -0.2325097 -0.1300035 -0.1623414 0.14327712 -0.006988265 -0.13925822 0.014466652
-0.06854619 -0.07570814 0.0697752 0.014636183 -0.27953082 -0.537346 0.18035552 0.12730144
0.11093927 0.03681647 -0.16160247 -0.27201906 -0.006640263 -0.029842213 0.18946055 -0.017331395
-0.048708424 -0.1574652 -0.19033784 0.16449355 -0.21903858 -0.25733846 0.2558293 0.2570318
-0.07011167 -0.13692358 -0.27152222 0.14252953 -0.24562058 -0.009195354 0.3338993 -0.035020143
0.11025631 0.068075724 -0.26548353 -0.10739248 -0.04260122 0.28857833 -0.2177187 -0.72909796
-0.32209283 0.32478863 0.07956775 0.0022459102 -0.00137558 0.28206643 -0.16598424 0.005990582
0.21962397 0.08650139 0.18178773 0.040987156 -0.082846515 -0.22820443 -0.035683967 0.19120014
-0.022204611 -0.28736222 0.39505446 0.37406597 -0.22353676 0.26975793 -0.3704806 -0.0005148847
0.13041484 0.1172537 0.10598602 0.10095344 -0.24453346 -0.074656226 -0.36532438 0.12580408
00000000: d7cd ef3c ea66 a43d 1489 80bd 7f7d 003d
00000010: 7fdc dabd 7be5 bd3e 24c0 9ebd 1f40 dcbe
00000020: d959 523d 620f debd 517c eabe e71b ebbd
00000030: fba3 bc3d 85e9 823e 6cae 9c3d 3d98 74bd
00000040: d8ea 893e a7f7 493e 0548 89be e0c4 5bbe
00000050: 5bfe 9cbe eb8f 523e 7a3d 6b3d 8abe af3d
00000060: e883 0cbd 9d4d 4c3e 2c7a 4abe 2371 71be
00000070: 3b21 a33e af9b b73e a0d9 35be 4473 fd3d
00000080: 1b9b 17be 0dc2 1f3d 1213 5e3e 9cab 4abe
00000090: ec92 aa3d 9da3 f5bd 36b2 883e 6118 783d
000000a0: 6bbe d03d 36f4 96be 5f57 513e 3bd6 e03d
000000b0: 18f3 dcbe c2b1 7fbe 07f2 63be 364f 843c
000000c0: 83b2 a63e 9902 37bc 1529 cebe ee5f 27be
000000d0: adae 59be 3b9d e83d 3472 20bc 6fb8 8b3d
000000e0: 807f 523e cd49 88be 464d 663c b4d0 e13d
000000f0: e773 943e 3c07 2e3c e752 a23e f3d9 21bd
00000100: 94db 113e fe64 3b3d d39c 9fbe 15bf 993d
00000110: c0af bdbd 4b27 fabd b4ab 85be 102e 753e
00000120: 7028 a23d a2e0 31be 5a5d d3bb b6dd 063e
00000130: 6daa 073e 637a d33e 6fca 673e 7018 623e
00000140: eca1 50be 53f6 043e 765d 7b3e a979 b53b
00000150: a920 1f3b f3ce a23e 16fe 22bc 5353 883d
00000160: 8217 a33e 0412 06bb 24b6 a5be ebd6 603d
00000170: e2d2 353e 5be5 513c 074b 573d 1c2f b2bd
00000180: 4d4f 1e3e 17dd 823e c64f 94bc 2c5c adbe
00000190: 98ae 99be 5235 003f ca1e d23d f761 b7bd
000001a0: c273 533e a6fc 33be f888 913e 8e8e a3be
000001b0: a71d 6a3e 55d6 8b3e c1e4 1a3e c70c 0f3e
000001c0: 396d 72be 0fe6 383e 6ca6 023e ed39 77be
000001d0: d508 233e 15a7 65bd 327a 4dbe 1269 7e3e
000001e0: eb4f 8b3e 2c5b 703d dec9 66bd 94da 14be
000001f0: 8a0a e63d 7d9b 9c3e 93b1 c73e c738 b23e
00000200: 8472 f03d 8e2c 7c3e 1666 d5bc b295 e13d
00000210: f94f fd3d 58f4 073e 387f 033e 26a0 083f
00000220: 0607 efbc 7ae4 83be e355 5bbe 4068 afbe
00000230: e7fd ec3d afe3 013e 7337 193e 3380 643d
00000240: 1350 51bd fe6c 04be 06ac 90bd fb1b 8ebe
00000250: 3611 14bd b9fa 7abe c7a1 f43c 667c 9a3d
00000260: 4de1 263f 8e7d 793e 6eff 7bbe af94 4e3e
00000270: 8e0c 103e 6827 94be f40d 703c e977 4fbd
00000280: f105 80be b5e5 60bd 33e2 593e 26eb 8e3e
00000290: ebf4 413e ec14 eebd e7be 99be aa3b ec3d
000002a0: 3f05 593e a44c 143d 3272 f13d 03b8 92be
000002b0: 111b b7bd fab1 243d d6aa bb3d 8e7b d5be
000002c0: 0d38 f3bb 0617 6ebe a31f 05be d33c 26be
000002d0: 3db7 123e d1fd e4bb b599 0ebe 8905 6d3c
000002e0: f261 8cbd df0c 9bbd 4de6 8e3d 9acc 6f3c
000002f0: aa1e 8fbe 828f 09bf 1eaf 383e 4f5b 023e
00000300: 2134 e33d decc 163d 1e7b 25be 1546 8bbe
00000310: 9096 d9bb a877 f4bc f201 423e 92fa 8dbc
00000320: 7c82 47bd 8f3e 21be ece7 42be ff70 283e
00000330: a64b 60be dec1 83be 0ffc 823e ac99 833e
00000340: b596 8fbd b235 0cbe f604 8bbe 43f3 113e
00000350: f683 7bbe 1ca8 16bc d9f4 aa3e 4871 0fbd
00000360: 0fce e13d 496b 8b3d 75ed 87be 97f0 dbbd
00000370: 9e7e 2ebd 8ac0 933e a7f1 5ebe 2aa6 3abf
00000380: 5ae9 a4be b24a a63e 6bf4 a23d 1f30 133b
00000390: ce4c b4ba 036b 903e c6f7 29be a54c c43b
000003a0: 1be5 603e a427 b13d 9026 3a3e 26e2 273d
000003b0: 6fab a9bd 6cae 69be 5a29 12bd f8c9 433e
000003c0: 72e6 b5bc 2421 93be 9444 ca3e 9385 bf3e
000003d0: d2e6 64be b61d 8a3e a2af bdbe 54f9 06ba
000003e0: 788b 053e b522 f03d 330f d93d adc0 ce3d
000003f0: fb66 7abe 5de5 98bd cc0b bbbe c9d2 003e

base.mlp.fc2.1.0.bias f4 [64]
-0.009084742 -0.056026988 0.009136998 -0.034653075 0.019692685 -0.031329066 0.014256009 -0.006841308
0.012154127 0.045718152 -0.030800834 0.02268497 -0.011210667 -0.014820763 0.023569293 -0.052936133
0.02812679 -0.016986275 -0.024040269 0.004901291 0.0033782348 -0.023190642 -0.021550424 0.010493953
0.0077345297 0.01948772 -0.008566564 0.004968934 -0.041470252 0.044938713 -0.0074846935 0.0059032002
0.028111452 -0.028207526 -0.008895972 -0.0022702843 -0.0030390024 0.017903741 -0.04797087 0.0023555735
0.011768959 0.0053558564 0.037756428 -0.022214388 -0.013178204 -0.0060476107 -0.005733527 0.009368236
0.00026266143 -0.020276211 0.028417446 0.016800253 0.035872933 -0.0132567445 -0.05537957 -0.04208395
0.016383933 0.058712475 0.011677985 -0.008652097 0.028351026 0.026695594 0.0066123847 -0.01854612
00000000: 2bd8 14bc 8e7c 65bd 59b3 153c 62f0 0dbd
00000010: 8e52 a13c e852 00bd 0992 693c 0d2d e0bb
00000020: 1a22 473c f542 3b3d 0852 fcbc d5d5 b93c
00000030: f2ac 37bc c9d2 72bc 6414 c13c 8fd3 58bd
00000040: 276a e63c cd26 8bbc 19f0 c4bc 029b a03b
00000050: 6065 5d3b 4dfa bdbc 848a b0bc d4ee 2b3c
00000060: f071 fd3b b6a4 9f3c c65a 0cbc 71d2 a23b
00000070: b6dc 29bd a811 383d 2942 f5bb a26f c13b
00000080: fd49 e63c 7813 e7bc 69c0 11bc 0dc9 14bb
00000090: 002a 47bb deaa 923c 1a7d 44bd f75f 1a3b
000000a0: 98d2 403c 2e80 af3b 7ca6 1a3d f3fa b5bc
000000b0: 65e9 57bc 092b c6bb 4fe0 bbbb 3b7d 193c
000000c0: d2b5 8939 4c1a a6bc b4cb e83c afa0 893c
000000d0: 7fef 123d d132 59bc b0d5 62bd 3860 2cbd
000000e0: 9937 863c 7e7c 703d 0555 3f3c 86c1 0dbc
000000f0: 6940 e83c b8b0 da3c b4ac d83b 08ee 97bc

base.mlp.fc2.1.2.weight f4 [64]
0.98301846 0.95325667 1.0571529 1.0282024 1.0052103 1.0790772 1.0565832 1.1318872
1.0597632 1.0465057 0.9462856 1.0554 1.0219151 0.9557876 0.9959423 1.0162729
0.90894914 0.991631 0.9779397 1.0421288 1.035079 0.9833671 1.0577912 1.0014446
0.9836807 0.98348707 1.0153227 1.0347769 0.9449071 1.0021203 1.0053408 1.0219278
1.0145775 0.97980887 1.004293 1.0317763 1.0529108 1.0513215 0.9440273 1.000817
0.9736682 1.0057522 1.0005524 0.9775156 1.045843 1.0149261 1.0037512 0.9599991
1.028544 1.0819719 0.9744101 0.9346291 1.0868359 0.98579186 1.0103778 1.0254219
1.0574492 0.9745851 0.98716074 1.0516121 1.0368036 0.97861516 1.0082631 1.0403558
00000000: 19a7 7b3f a108 743f c950 873f 239c 833f
00000010: bbaa 803f 341f 8a3f 1e3e 873f aee1 903f
00000020: 52a6 873f e6f3 853f c63f 723f 5917 873f
00000030: 1dce 823f 7fae 743f 13f6 7e3f 3b15 823f
00000040: e4b0 683f 87db 7d3f 425a 7a3f 7a64 853f
00000050: 787d 843f f2bd 7b3f b465 873f 562f 803f
00000060: 80d2 7b3f cfc5 7b3f 18f6 813f 9273 843f
00000070: 6fe5 713f 7a45 803f 02af 803f 88ce 823f
00000080: addd 813f c1d4 7a3f ac8c 803f 3f11 843f
00000090: c8c5 863f b491 863f c6ab 713f c51a 803f
000000a0: 5242 793f 7dbc 803f 1a12 803f 763e 7a3f
000000b0: 2fde 853f 19e9 813f eb7a 803f 80c2 753f
000000c0: 54a7 833f 0e7e 8a3f f172 793f da43 6f3f
000000d0: 701d 8b3f db5c 7c3f 0f54 813f 0641 833f
000000e0: 7f5a 873f 697e 793f 91b6 7c3f 3a9b 863f
000000f0: fbb5 843f 8686 7a3f c40e 813f 612a 853f

base.mlp.fc2.1.2.bias f4 [64]
0.0018471665 0.0065451777 0.016753808 -0.0028597119 0.00056026736 -0.025551924 0.0040468583 -0.013231034
0.011227867 -0.025611859 -0.015201767 0.017781507 0.014615133 -0.00069102243 0.013094517 -0.06735262
0.08067407 0.018983005 0.0027744477 0.016738044 -0.0027712318 -0.019855354 0.0068249214 0.01129605
0.0014082263 -0.007847804 -0.006577199 -0.0068730484 0.0077051315 0.016339846 -0.010160717 0.014912534
0.0083077615 -0.01386545 -0.006515931 0.03531254 -0.023537876 0.020919252 -0.03932915 -0.008695011
-0.0085593425 0.017036103 -0.00055856036 -0.006567696 0.011800897 -0.00829104 0.0008296904 -0.028036555
-0.0061827702 0.0051956484 -0.00013972496 -0.031379662 -0.007875125 -0.016984345 -0.019758394 -0.020583393
0.036460664 -0.0034393151 0.017413944 -0.0026312878 -0.00053136615 0.009123316 0.015811345 0.0053910394
00000000: 9f1c f23a ee78 d63b 483f 893c 016a 3bbb
00000010: e8de 123a 4552 d1bc 829b 843b fbc6 58bc
00000020: 16f5 373c f6cf d1bc d510 79bc 86aa 913c
00000030: 5074 6f3c bb25 35ba 638a 563c 2cf0 89bd
00000040: 7238 a53d 3f82 9b3c 82d3 353b 391e 893c
00000050: 8e9d 35bb b2a7 a2bc 97a3 df3b 1113 393c
00000060: 3c94 b83a 1394 00bc 8b85 d7bb 4f37 e1bb
00000070: 547b fc3b 24db 853c 2379 26bc b353 743c
00000080: 471d 083c ea2b 63bc 9783 d5bb e2a3 103d
00000090: 81d2 c0bc da5e ab3c 9a17 21bd 8575 0ebc
000000a0: 7c3c 0cbc 4c8f 8b3c 5a6c 12ba d435 d7bb
000000b0: 8d58 413c 24d7 07bc 957f 593a ebac e5bc
000000c0: d698 cabb 4240 aa3b 2283 12b9 f687 00bd
000000d0: ab06 01bc c122 8bbc 5bdc a1bc 819e a8bc
000000e0: c757 153d 2266 61bb b0a7 8e3c af71 2cbb
000000f0: 614b 0bba f679 153c cb86 813c 51a7 b03b
