results/MyEnv/Intersection_MAPPO/mappo/check/run3/models/actor.pt (torch, 104785 bytes, 25 tensors)

base.feature_norm.weight f4 [104]
0	0x3f80fe2d	1.0077568
1	0x3f81add6	1.0131176
2	0x3f808ecd	1.0043579
3	0x3f7e9a34	0.99454045
4	0x3f7c66e3	0.9859449
5	0x3f7eaef6	0.9948572
6	0x3f794eec	0.9738605
7	0x3f82a643	1.0206989
8	0x3f7b6cce	0.982129
9	0x3f7fffa8	0.99999475
10	0x3f7fa751	0.9986468
11	0x3f832f92	1.0248892
12	0x3f7fa97c	0.9986799
13	0x3f805fd8	1.0029249
14	0x3f7fd4d1	0.9993411
15	0x3f80301f	1.0014685
16	0x3f822790	1.0168324
17	0x3f805325	1.0025374
18	0x3f7fe369	0.99956375
19	0x3f83137d	1.0240322
20	0x3f77dec5	0.96824294
21	0x3f7f490f	0.99720854
22	0x3f810f9a	1.0082886
23	0x3f7fd4d6	0.99934137
24	0x3f874fcc	1.0571227
25	0x3f80b368	1.005475
26	0x3f7c09be	0.98452365
27	0x3f7eff20	0.9960804
28	0x3f7e42a7	0.99320453
29	0x3f8110e9	1.0083286
30	0x3f7e468d	0.993264
31	0x3f83c012	1.029299
32	0x3f7f77f1	0.9979239
33	0x3f83cb80	1.0296478
34	0x3f816546	1.0109031
35	0x3f7fc1be	0.99905
36	0x3f79125d	0.97293645
37	0x3f809040	1.0044022
38	0x3f854cbf	1.0414046
39	0x3f83a363	1.0284237
40	0x3f81427a	1.0098412
41	0x3f7e70ee	0.9939107
42	0x3f7e27bb	0.99279374
43	0x3f774ab3	0.96598357
44	0x3f8255f7	1.0182484
45	0x3f817312	1.0113242
46	0x3f82580b	1.0183119
47	0x3f76a406	0.9634403
48	0x3f82aa25	1.0208174
49	0x3f858f93	1.043444
50	0x3f816379	1.0108482
51	0x3f80e8a1	1.0070993
52	0x3f8034ed	1.0016152
53	0x3f8323ce	1.0245302
54	0x3f823721	1.0173074
55	0x3f79eee0	0.9763012
56	0x3f854181	1.0410615
57	0x3f7c425a	0.98538744
58	0x3f78b7fd	0.97155744
59	0x3f857072	1.042494
60	0x3f7f14bf	0.9964103
61	0x3f813903	1.0095524
62	0x3f8629e2	1.0481532
63	0x3f72415a	0.9463097
64	0x3f841c53	1.0321144
65	0x3f751ab6	0.9574388
66	0x3f84357f	1.0328826
67	0x3f755a96	0.9584135
68	0x3f7da7d6	0.9908422
69	0x3f79e8e6	0.97621
70	0x3f7bbcad	0.9833477
71	0x3f80e29f	1.0069159
72	0x3f817108	1.0112619
73	0x3f75b264	0.9597533
74	0x3f7d6750	0.9898577
75	0x3f82f796	1.0231807
76	0x3f823150	1.0171299
77	0x3f7eea34	0.99576116
78	0x3f8114b4	1.0084443
79	0x3f76fcd6	0.9647955
80	0x3f804709	1.0021678
81	0x3f8111f6	1.0083606
82	0x3f7b5106	0.98170507
83	0x3f781328	0.9690423
84	0x3f7ec2c8	0.9951596
85	0x3f7e6dfb	0.99386567
86	0x3f80d6dc	1.006557
87	0x3f7c5695	0.98569614
88	0x3f7c54ac	0.985667
89	0x3f842356	1.0323284
90	0x3f824957	1.0178632
91	0x3f8020a4	1.0009961
92	0x3f764470	0.9619818
93	0x3f810bda	1.0081742
94	0x3f810b30	1.0081539
95	0x3f7c9ff0	0.98681545
96	0x3f7d8d07	0.99043316
97	0x3f7cbd71	0.98726565
98	0x3f81f7de	1.0153768
99	0x3f823f8d	1.0175644
100	0x3f767038	0.9626498
101	0x3f80350d	1.001619
102	0x3f859e21	1.0438882
103	0x3f82a374	1.0206132

base.feature_norm.bias f4 [104]
0	0xbca8ea3c	-0.020619504
1	0xbbd6f9c6	-0.006560537
2	0x3be4dcf6	0.0069843484
3	0xba762eba	-0.0009391118
4	0x3c350ffe	0.011051176
5	0xba980e22	-0.0011600892
6	0x3c42a0ee	0.011879189
7	0xbbb4d2fd	-0.005518316
8	0x3c015afe	0.007895229
9	0x3b4a03af	0.003082495
10	0xbb151212	-0.0022746366
11	0xbc37ba2c	-0.01121382
12	0x3b818d0d	0.003953582
13	0x3b2ab9f0	0.0026050769
14	0xbc1516e4	-0.009099696
15	0x3c411aff	0.0117862215
16	0xbbdba059	-0.0067024645
17	0x3c08eb56	0.00835689
18	0x3ac7437c	0.0015202607
19	0x3c21bc51	0.009871558
20	0x3ca8a8f6	0.02058838
21	0x3bcb779a	0.006209326
22	0xbb42e07c	-0.0029735854
23	0x3c86f2eb	0.016473254
24	0xbc54ab6b	-0.012980322
25	0x3b171dde	0.0023058574
26	0x3c33490c	0.010942709
27	0x3c28f927	0.010313309
28	0xba9eaf3a	-0.0012106665
29	0xbc13c287	-0.009018547
30	0xbaa5ecac	-0.0012659035
31	0xbbc8f5f2	-0.0061328346
32	0xbc852c1d	-0.016256386
33	0x3bfa03b3	0.0076298355
34	0xbbc57cc0	-0.0060268342
35	0x3c185d6f	0.00929962
36	0x3c7c5d18	0.015403055
37	0x3bd8fec3	0.006622167
38	0x3a7264a6	0.0009246565
39	0xbc3b9627	-0.011449373
40	0xbb9f96a5	-0.004870253
41	0x3b47b877	0.003047494
42	0x3c161385	0.009159927
43	0x3cff101e	0.031135615
44	0xbac1b1ca	-0.0014777717
45	0x3c447fe2	0.01199338
46	0xbc4a8a7e	-0.012362121
47	0x3ca58314	0.020204104
48	0x3c394a42	0.011309208
49	0x3b8d5ff9	0.0043144193
50	0xbba3d817	-0.005000125
51	0x3b9c5459	0.004770797
52	0xbca9671c	-0.02067905
53	0x3cb4ae3a	0.022055734
54	0x382eb717	4.165535e-05
55	0xbc95b23b	-0.018273463
56	0xbd09e21b	-0.033662897
57	0xbcdddb40	-0.027082086
58	0x3b63f385	0.00347826
59	0xbc4644c6	-0.012101358
60	0xbc5d2dff	-0.013499736
61	0xbc0c1bce	-0.008551551
62	0x3c841930	0.016125292
63	0xba32362a	-0.0006798232
64	0x3b971a4e	0.00461129
65	0x3c51b267	0.012798882
66	0xbc422fb8	-0.011852197
67	0x3c969669	0.018382268
68	0x3ce6736e	0.028131213
69	0x3c29599b	0.010336305
70	0x3ba0a184	0.0049020667
71	0x3c16046d	0.009156329
72	0x3c4b796f	0.012419089
73	0x3c3b615c	0.0114367865
74	0x3a6bc881	0.0008994416
75	0x3c52f094	0.012874741
76	0x3a98d1e6	0.0011659234
77	0xb8b580cb	-8.654742e-05
78	0xbb548772	-0.0032429365
79	0xbc2c20b3	-0.010505843
80	0xbba69054	-0.005083123
81	0xbbe9e1ac	-0.007137498
82	0x39f3952d	0.00046459716
83	0xbd003dfc	-0.031309113
84	0x3bc2e8b8	0.0059481524
85	0x3c1347d0	0.008989289
86	0xbb888fe9	-0.004167546
87	0xbbcd1f78	-0.006259855
88	0xbc48e99e	-0.01226273
89	0x3c21321a	0.009838605
90	0x3c3c4560	0.01149115
91	0x3b535b38	0.0032250416
92	0xbcac1fce	-0.02101126
93	0x3c03ff19	0.0080564255
94	0x3b83a11e	0.0040170094
95	0xbc7f027a	-0.015564555
96	0xbc57a8d4	-0.01316281
97	0xbb2cb09d	-0.0026350387
98	0x3c6b3433	0.014355707
99	0x3afb5857	0.0019176108
100	0xbc0166ae	-0.007898016
101	0xbc23ebfd	-0.010004994
102	0xbb2299a1	-0.0024810808
103	0x3bfa5dd0	0.007640578

base.mlp.fc1.0.weight f4 [64, 104]
0	0x3da34cbd	0.07973621
1	0xbe95c84f	-0.29254386
2	0xbd99d0a4	-0.07510498
3	0xbce949da	-0.028477598
4	0xbda6d0cb	-0.08145293
5	0xbe67eee6	-0.22649726
6	0x3cca2b79	0.024678933
7	0x3e4ddf1e	0.20104644
8	0xbe079bf9	-0.13243093
9	0x3e95b642	0.29240614
10	0xbdd2d4e1	-0.1029451
11	0xbdee8b69	-0.11647684
12	0xbe0799f2	-0.13242319
13	0x3c80d030	0.015724272
14	0x3e242074	0.16028005
15	0xbe99f698	-0.3007095
16	0x3d40927c	0.0470147
17	0xbdc653b8	-0.09683937
18	0xbdf85aca	-0.12126692
19	0x3dc6f323	0.097143434
20	0x3d362514	0.044468954
21	0xbd940622	-0.07227732
22	0x3e4ca9f1	0.19986703
23	0xbe3a862b	-0.18215244
24	0x3ecf02d9	0.4043186
25	0xbe0463b6	-0.12928662
26	0xbebca685	-0.36845794
27	0xbe055b32	-0.1302307
28	0xbe5efb56	-0.21775565
29	0x3e15ae43	0.14617257
30	0x3cd3e326	0.025865149
31	0xbde7af18	-0.11312693
32	0xbe2191c1	-0.15778257
33	0xbe4640ed	-0.19360705
34	0x3ed39ec6	0.41332072
35	0x3d91d108	0.07119948
36	0x3c407182	0.011745812
37	0x3e39cbbd	0.18144126
38	0xbe3db900	-0.18527603
39	0x3c283d5d	0.010268536
40	0x3d75b063	0.05998267
41	0xbe917078	-0.2840612
42	0xbbb1508d	-0.0054112137
43	0xbeb0969c	-0.34489906
44	0xbedf5b4b	-0.43624339
45	0x3e04552e	0.12923118
46	0xbdd92965	-0.106035985
47	0xbdac4a71	-0.08412636
48	0x3e17901d	0.14801069
49	0xbd05be58	-0.03265223
50	0xbd76ad6f	-0.060223993
51	0x3e999ecd	0.30003968
52	0x3db5c912	0.08876242
53	0xbde5199f	-0.111865275
54	0xbe4dd893	-0.20102148
55	0xbe09bcfc	-0.13450998
56	0xbed10cda	-0.40830117
57	0xbe6966b1	-0.2279308
58	0x3dce8e16	0.100856945
59	0x3dc65e6d	0.09685979
60	0x3d1f6564	0.038915053
61	0xbc5797f5	-0.013158788
62	0xbd264f5f	-0.040603038
63	0xbcfdad89	-0.030966537
64	0xbdab18bd	-0.08354328
65	0xbbbe6033	-0.0058098077
66	0x3d7c910c	0.061661765
67	0x3df24899	0.11830253
68	0xbd7ab9ad	-0.06121223
69	0x3d23192d	0.03981893
70	0x3db9b415	0.09067551
71	0x3d118fa4	0.035537377
72	0x3cba16ae	0.022715893
73	0x3e747ce8	0.23875773
74	0x3d8be1e1	0.06830192
75	0x3e58ab50	0.211591
76	0xbe11a544	-0.142232
77	0xbdbf227d	-0.0933275
78	0x3df3d790	0.1190635
79	0x3e26a383	0.16273312
80	0xbda487bc	-0.08033702
81	0xbde31e38	-0.11089748
82	0xbb5292c9	-0.0032130948
83	0xbe5f6c88	-0.21818745
84	0x3e92f260	0.28700542
85	0x3e3a306b	0.18182532
86	0xbdb3fb25	-0.087881364
87	0x3d8ec829	0.06971771
88	0xbda7b96b	-0.081896625
89	0xbd8ecede	-0.069730505
90	0x3e60a2f6	0.21937165
91	0x3ca22da1	0.019797148
92	0xbe19a598	-0.15004575
93	0xbd8192a8	-0.063268006
94	0x3d04fcd2	0.03246767
95	0xbdca760c	-0.09885797
96	0x3e3b09d1	0.18265463
97	0x3d6dc684	0.058050647
98	0x3e638055	0.22216924
99	0xbd558ca1	-0.052136067
100	0xbe3e52c7	-0.18586265
101	0xbd115127	-0.035477784
102	0x3d593996	0.053033434
103	0x3dbfa043	0.09356739
104	0xbc806b9f	-0.015676318
105	0x3d9b228a	0.07574947
106	0x3db922e3	0.09039857
107	0xbe2ecf95	-0.17071374
108	0xbc401a40	-0.0117250085
109	0x3d92877d	0.071547486
110	0xbe480d39	-0.19536294
111	0xbdbb3807	-0.09141546
112	0xbebe52a7	-0.37172434
113	0x3dcac03c	0.09899947
114	0x3e5b4b25	0.21415384
115	0xbe9b03b1	-0.30276254
116	0xbe230026	-0.15918025
117	0x3e0ea653	0.13930635
118	0xbd8f0aca	-0.0698448
119	0xbe0ccc57	-0.13749824
120	0xbe73715b	-0.2377371
121	0x3e16cdaf	0.147269
122	0xbd1abeb2	-0.037779517
123	0x3dcb5cff	0.09929847
124	0xbf03e271	-0.515174
125	0xbd221c4c	-0.039577767
126	0xbe24d3e3	-0.16096453
127	0x3e22a5da	0.1588358
128	0x3ebb7554	0.36612952
129	0xbe09929e	-0.13434836
130	0x3da101c6	0.078616664
131	0xbe891999	-0.26777342
132	0x3d603e41	0.05474687
133	0x3e87c108	0.2651446
134	0x3d41b359	0.04729018
135	0x3d7674d2	0.060170002
136	0x3e108c13	0.14115934
137	0x3dfcba2e	0.123401985
138	0xbd0b8a55	-0.03406747
139	0xbe73aa50	-0.23795438
140	0x3b4b9b76	0.0031068004
141	0x3db975fd	0.090557076
142	0x3daa87e7	0.083267026
143	0xbebd40da	-0.3696354
144	0xbc2e58ae	-0.01064126
145	0xbd9d0027	-0.07666045
146	0xbdf9a764	-0.1219013
147	0x3e3cbfae	0.18432495
148	0x3e7ae801	0.24502565
149	0xbd57bd67	-0.052670863
150	0x3de32e69	0.110928364
151	0xbd04ecfa	-0.03245256
152	0x3d78dd69	0.06075803
153	0x3e2cda16	0.16880068
154	0x3c196c43	0.0093641905
155	0xbe5810d7	-0.21100174
156	0x3e387163	0.18012004
157	0xbdf0c22f	-0.117557876
158	0xbd10e032	-0.03537006
159	0x3dd5243d	0.104073025
160	0x3caf3fc9	0.02139272
161	0xbe814f24	-0.25255692
162	0x3c9cce53	0.019141352
163	0xbd8644f3	-0.0655612
164	0xbb13edc8	-0.0022572149
165	0x3a3871df	0.0007036011
166	0x3bf0ec4e	0.0073523885
167	0x3dca761a	0.09885807
168	0xbdfd4bf7	-0.12368005
169	0x3df34948	0.11879212
170	0xbe8cdb62	-0.27511126
171	0x3e14960e	0.14510366
172	0xbd7c1222	-0.06154073
173	0x3dcc7998	0.0998413
174	0x3d292a60	0.041300178
175	0xbe328071	-0.17431809
176	0x3e931ccb	0.28732905
177	0xbe00add2	-0.12566307
178	0xbdec58a2	-0.11540343
179	0x3e43260a	0.1905748
180	0xbcd19c7b	-0.025587311
181	0x3d4db108	0.05021766
182	0xbdf08202	-0.11743547
183	0x3d2a84c1	0.04163051
184	0x3e614408	0.21998608
185	0xbe636eb3	-0.22210197
186	0xbd9a62b5	-0.07538358
187	0x3c621497	0.013798854
188	0x3da59e10	0.08086789
189	0xbe1f33cd	-0.15547104
190	0x3de6a7eb	0.112624966
191	0xbe9cbd00	-0.30612946
192	0xbec57c73	-0.3857151
193	0xbdba1cf5	-0.09087554
194	0x3e82c7d3	0.2554308
195	0xbe76a23c	-0.24085325
196	0xbe006909	-0.12540068
197	0xbc08168b	-0.008306156
198	0xbe5902d7	-0.2119249
199	0x3e1dda30	0.15415263
200	0x3e144a5d	0.14481492
201	0x3dc85cb3	0.09783306
202	0x3db136f9	0.08653063
203	0xbe16ac78	-0.14714229
204	0xbd34573a	-0.0440285
205	0xbd8f8196	-0.070071384
206	0x3e3357a7	0.17513905
207	0xbc8e652a	-0.017382223
208	0xbd1b91b6	-0.037980758
209	0x3e190858	0.14944589
210	0x3e991873	0.29901466
211	0xbda7af0c	-0.081876844
212	0x3d606c2f	0.054790672
213	0x3dbff55e	0.09372972
214	0x3e38b15a	0.18036404
215	0xbeaf2a60	-0.34212017
216	0x3da92978	0.08259863
217	0xbe2f171e	-0.17098662
218	0x3e96dbc8	0.29464555
219	0xbe25bbb5	-0.16184886
220	0x3e601a05	0.21884926
221	0x3d95f0b8	0.07321304
222	0xbd1966d1	-0.03745157
223	0x3e9e5f02	0.3093186
224	0x3bf86aac	0.0075810757
225	0x3e01830b	0.12647645
226	0x3ea018e3	0.31268987
227	0x3d8f5536	0.069986746
228	0x3c9b6945	0.018971095
229	0x3e439e4a	0.19103351
230	0x3e88f39b	0.26748356
231	0xbd8a7df2	-0.067623034
232	0xbe66b90b	-0.22531526
233	0x3cf7818d	0.030213142
234	0xbdb91097	-0.090363674
235	0xbd722ac6	-0.059122823
236	0xbddb516c	-0.10708889
237	0xbe30406f	-0.1721208
238	0xbc3632e1	-0.011120529
239	0xbdf03b89	-0.117301054
240	0xbd626674	-0.05527349
241	0xbe8be480	-0.2732277
242	0x3e22ed5e	0.15910861
243	0xbe2b502a	-0.16729799
244	0xbe59fede	-0.2128863
245	0xbd486197	-0.048921194
246	0x3da42831	0.080154784
247	0xbe539146	-0.20660886
248	0x3cd1c6c0	0.025607467
249	0xbeb6f276	-0.35731858
250	0xbda65a66	-0.08122711
251	0x3dce839f	0.100836985
252	0xbd3f06b8	-0.046637267
253	0xbdfc0ea3	-0.12307479
254	0xbe5e1b01	-0.21689989
255	0xbe9877ca	-0.29778892

base.mlp.fc1.0.bias f4 [64]
0	0x3c946740	0.01811564
1	0x3c03d3cf	0.008046105
2	0x3b131d21	0.0022447782
3	0xbb89b171	-0.004202061
4	0x3c041667	0.008061982
5	0xbc96f5d8	-0.018427774
6	0xbc287aed	-0.010283214
7	0x3a9e964e	0.0012099238
8	0xbc8ebe04	-0.01742459
9	0x3c20a6b7	0.009805373
10	0x3c1c593c	0.0095427595
11	0x3cce0bf7	0.02515219
12	0xbc6cf472	-0.014462577
13	0x3b3e2706	0.002901496
14	0xbcc7fad7	-0.024411602
15	0x3bc8855a	0.0061194124
16	0xbc789447	-0.015172071
17	0xbad9cce4	-0.0016616848
18	0x3bde5603	0.0067851557
19	0x3c83318e	0.01601484
20	0xbb7bb6f9	-0.003840862
21	0xbad2b71f	-0.0016076303
22	0x3b352cd5	0.002764513
23	0xbca2af53	-0.019858992
24	0x3c166643	0.0091796545
25	0xbbbb0025	-0.0057068043
26	0x3c17f1cb	0.0092739565
27	0xbbd45fa3	-0.0064811273
28	0x3c4dfb51	0.0125721255
29	0x3c2ed249	0.010670253
30	0xbc60b99f	-0.0137161305
31	0xbb849049	-0.0040455204
32	0xbc5a5441	-0.013325752
33	0xbc44b11b	-0.012005116
34	0x3b73cd3f	0.0037201194
35	0xbc32235d	-0.010872689
36	0xbd23fa78	-0.040033787
37	0x3ba4945e	0.0050225696
38	0x3b9e2d5a	0.0048271837
39	0xbc57f57f	-0.013181089
40	0x3c68a720	0.014200002
41	0x3c0aca4d	0.008471084
42	0x3cd87220	0.026421607
43	0xbc5b0672	-0.013368236
44	0x3bbf80cb	0.0058442107
45	0x3c0fc947	0.008776016
46	0x3cba19ed	0.02271744
47	0xbcdec0cc	-0.027191542
48	0x3cf59619	0.029978799
49	0xb8c6ff82	-9.488968e-05
50	0x3bd59ee2	0.0065191844
51	0x3ba61964	0.0050689448
52	0x3b4b952c	0.0031064255
53	0x3c82701b	0.015922597
54	0xbc6f931d	-0.014622477
55	0x3a97cb8a	0.0011581045
56	0xbbc90ccb	-0.0061355582
57	0xbbbbb12b	-0.005727907
58	0xbb180fe5	-0.0023202833
59	0x3b8d7c04	0.0043177623
60	0x3cc78bae	0.024358597
61	0x3be2cf3b	0.0069216765
62	0xbb48c692	-0.0030635935
63	0x3c73b4ea	0.014874676

base.mlp.fc1.2.weight f4 [64]
0	0x3f7d8477	0.9903025
1	0x3f7fb05c	0.9987848
2	0x3f815a83	1.0105747
3	0x3f826594	1.0187249
4	0x3f813a9a	1.0096009
5	0x3f83019f	1.023487
6	0x3f7ab4e4	0.9793227
7	0x3f813b8c	1.0096297
8	0x3f80c27a	1.005935
9	0x3f7dbd14	0.99116635
10	0x3f7bad24	0.98311067
11	0x3f7de00d	0.9917
12	0x3f80a38d	1.0049912
13	0x3f7fd8aa	0.9993998
14	0x3f7b1ff8	0.98095655
15	0x3f850598	1.0392332
16	0x3f824bf9	1.0179435
17	0x3f833ddc	1.0253253
18	0x3f79f6f5	0.9764245
19	0x3f80a5ce	1.00506
20	0x3f85fe6c	1.0468268
21	0x3f837c7c	1.0272365
22	0x3f7ddd7e	0.99166095
23	0x3f8466a0	1.0343819
24	0x3f7bc198	0.98342276
25	0x3f7fbd9a	0.99898684
26	0x3f81814d	1.0117584
27	0x3f782f31	0.9694701
28	0x3f7eb491	0.9949427
29	0x3f82c5b1	1.0216581
30	0x3f803603	1.0016483
31	0x3f7fcfce	0.9992646
32	0x3f81279d	1.0090214
33	0x3f837e95	1.0273005
34	0x3f7c7268	0.9861207
35	0x3f7bfb04	0.98429894
36	0x3f822c17	1.0169705
37	0x3f845b3f	1.0340346
38	0x3f822d92	1.0170157
39	0x3f762689	0.9615255
40	0x3f82fafe	1.0232847
41	0x3f82f7d5	1.0231882
42	0x3f7fe6c7	0.99961513
43	0x3f86abc0	1.0521164
44	0x3f7c7413	0.98614615
45	0x3f7d36f7	0.98911995
46	0x3f802677	1.0011739
47	0x3f84037c	1.0313563
48	0x3f7b904b	0.9826705
49	0x3f7ff575	0.9998391
50	0x3f7d2de1	0.9889813
51	0x3f7c5aae	0.98575866
52	0x3f7d8efb	0.99046296
53	0x3f786379	0.97026783
54	0x3f82a512	1.0206625
55	0x3f8373aa	1.0269673
56	0x3f816807	1.0109872
57	0x3f829978	1.0203085
58	0x3f7f837f	0.9981002
59	0x3f8384da	1.0274918
60	0x3f7c505c	0.9856012
61	0x3f77011d	0.96486074
62	0x3f7c10d2	0.98463166
63	0x3f845009	1.0336925

base.mlp.fc1.2.bias f4 [64]
0	0xbbf0f110	-0.0073529556
1	0x3c1aae79	0.009441012
2	0xbbe342f9	-0.006935474
3	0xbbb5eb6a	-0.005551745
4	0xbc1dd69a	-0.0096336845
5	0xbbb9663d	-0.0056579397
6	0x3c157a61	0.009123416
7	0x3c64d806	0.01396752
8	0x3b65826a	0.003502036
9	0x3c0aac6b	0.008463959
10	0x3cb078ef	0.02154204
11	0x3cc7c27e	0.024384733
12	0xbcc50a6e	-0.024052825
13	0x3bdc497d	0.0067226277
14	0xbca7ac45	-0.020467887
15	0xbc077260	-0.008267015
16	0xbbc02e10	-0.005864866
17	0xbc3ee3c3	-0.011650982
18	0x3c921e88	0.017836824
19	0x3bf2d93c	0.0074111503
20	0x3c031ab5	0.008001973
21	0xbcb90fa8	-0.022590473
22	0x3c09d181	0.008411766
23	0xbc3bf5a2	-0.011472138
24	0x3c942a55	0.018086592
25	0x3ba2c35d	0.004967137
26	0x3cabfbe6	0.020994138
27	0xbb2c82a5	-0.0026322987
28	0x3c689aba	0.014197046
29	0x3c7a7bae	0.015288277
30	0xbc64de9c	-0.01396909
31	0x3c453bb9	0.012038165
32	0xbc9a2e01	-0.018820764
33	0x3b0d313d	0.002154424
34	0x3c15d507	0.009145028
35	0x3c0c08cd	0.00854702
36	0x3b852179	0.004062828
37	0x3c1c73f8	0.0095491335
38	0x3aa626ed	0.0012676396
39	0x3c9864b2	0.018602703
40	0x3cb62a90	0.022237092
41	0xbcafbd54	-0.021452583
42	0xbb2bb30e	-0.0026199254
43	0xbc36cb3c	-0.011156853
44	0x3af6c318	0.0018826453
45	0x3c1cd69f	0.009572654
46	0x3c013c67	0.007887936
47	0x3c3f86ab	0.011689822
48	0xbc54d5f7	-0.012990466
49	0x3b22a434	0.002481711
50	0xbc3c1b1b	-0.011481072
51	0x3bcdbdee	0.006278745
52	0x3c14cca5	0.009081994
53	0xbca8316a	-0.020531375
54	0xbbe7d883	-0.0070753708
55	0xbc4e8004	-0.0126037635
56	0x3c0bb88b	0.008527885
57	0xba24fdba	-0.0006293912
58	0x3c750837	0.014955572
59	0x3c197a19	0.009367489
60	0xbc09aa34	-0.008402396
61	0x3c654b98	0.013995074
62	0x3c827a81	0.015927555
63	0xbc8322af	-0.01600775

base.mlp.fc_h.0.weight f4 [64, 64]
0	0x3d2053f5	0.039142568
1	0x3d1c8182	0.038209446
2	0xbd018ff6	-0.031631432
3	0x3d1c5efa	0.038176514
4	0xbdc71b5a	-0.09722014
5	0x3ec187cb	0.37798914
6	0xbda2f2f7	-0.07956498
7	0xbedf2759	-0.43584707
8	0x3da7c331	0.08191527
9	0xbdfa9d58	-0.12237042
10	0xbeebae29	-0.4603131
11	0xbdf33c02	-0.1187668
12	0x3d8b96a9	0.068158455
13	0x3e7f0b0e	0.24906561
14	0x3dcdc216	0.100467846
15	0xbd808b85	-0.06276611
16	0x3e8dfb55	0.27730814
17	0x3e48cea5	0.19610079
18	0xbe8ac9d8	-0.2710712
19	0xbe79cb26	-0.24393901
20	0xbe99fcc4	-0.30075657
21	0x3e74a540	0.23891163
22	0x3da7bcab	0.081902824
23	0x3dfc6436	0.12323801
24	0x3cb55302	0.022134308
25	0x3e3de9d1	0.18546225
26	0xbe41be1c	-0.18920177
27	0xbe7e0250	-0.2480557
28	0x3ea5ca0e	0.32380718
29	0x3ea99657	0.33122513
30	0xbe49aab4	-0.19694024
31	0x3e30a8be	0.1725187
32	0xbe018f57	-0.12652336
33	0x3d8dd7dc	0.069259375
34	0x3e5739f3	0.210182
35	0xbe4b90d9	-0.19879474
36	0x3dbcaf80	0.092131615
37	0xbdbb96e1	-0.09159637
38	0x3e4c4092	0.19946507
39	0x3d86dd8d	0.06585226
40	0x3ddac376	0.106818125
41	0xbe9aafb9	-0.3021219
42	0x3e41228c	0.18860835
43	0x3e15a1d8	0.1461252
44	0xbeba9a6d	-0.36445943
45	0xbea039f1	-0.31294206
46	0xbe831481	-0.2560158
47	0xbd089f12	-0.033354826
48	0x3e8d9b06	0.27657336
49	0x3a700715	0.0009156329
50	0xbec8540c	-0.39126623
51	0xbe28cc6a	-0.16484228
52	0xbe48575a	-0.19564572
53	0x3e0023f3	0.12513714
54	0xbc9b6992	-0.018971238
55	0x3d6e8dec	0.058240816
56	0x3e14c6bc	0.14528936
57	0xbe900752	-0.28130585
58	0x3c880550	0.016604096
59	0x3e0b5e70	0.13610244
60	0x3e91e6c9	0.28496388
61	0x3b3662f8	0.0027829986
62	0x3eb3f9b2	0.3515144
63	0xbd1a996e	-0.03774398
64	0x3e70b63b	0.23507015
65	0x3d16d76a	0.03682653
66	0xbe8ecede	-0.27892202
67	0x3e02101f	0.12701462
68	0xbd09496a	-0.03351728
69	0xbe42c80c	-0.19021624
70	0xbe41c583	-0.18923001
71	0x3e7127ec	0.23550385
72	0x3dc08d14	0.094019085
73	0xbdb72738	-0.08943027
74	0xbd50153d	-0.050801504
75	0x3e4e66da	0.20156422
76	0x3e327525	0.174275
77	0x3edff0cb	0.43738398
78	0x3e465505	0.1936837
79	0x3e3940c7	0.18091117
80	0xbe77a207	-0.24182902
81	0x3dd49a94	0.10381046
82	0x3e145de3	0.1448894
83	0x3d644669	0.05573121
84	0xbd975c18	-0.07390612
85	0x3e8b99c0	0.2726574
86	0x3cbeadee	0.023276296
87	0x3d4457b6	0.04793521
88	0x3e88270e	0.26592296
89	0xbd380125	-0.044922967
90	0xbe9e162d	-0.30876294
91	0x3cd5f387	0.0261171
92	0x3dceccb8	0.10097641
93	0x3ccf7885	0.025326023
94	0x3c1dbc7e	0.00962746
95	0xbcd03438	-0.025415525
96	0x3e183352	0.14863327
97	0x3e8e8d46	0.27842158
98	0xbd114b2e	-0.035472088
99	0xbeab3d03	-0.33444986
100	0xbe86517f	-0.26234052
101	0x3f00f2aa	0.50370276
102	0x3d987695	0.07444493
103	0xbd365907	-0.044518497
104	0x3e372a28	0.17887175
105	0xbe15cc7a	-0.14628783
106	0x3e5965ed	0.21230288
107	0xbec2f2fc	-0.38076007
108	0x3e3afb14	0.18259841
109	0x3e9317ce	0.287291
110	0x3e00650c	0.12538546
111	0x3e788fbd	0.24273582
112	0xbe65c72b	-0.22439258
113	0x3e5420da	0.20715657
114	0x3e5187c5	0.20461948
115	0xbe89d632	-0.2692123
116	0x3e3f52d9	0.18683948
117	0xbdc8e3bc	-0.09809062
118	0xbe3765ac	-0.17909878
119	0x3e47c6fb	0.19509499
120	0x3e84b6ea	0.25920802
121	0x3cbf8e6c	0.023383342
122	0xbde34f32	-0.1109909
123	0xbde23876	-0.11045925
124	0x3e103d1b	0.1408581
125	0x3e82564f	0.25456473
126	0x3ed195d7	0.4093463
127	0x3ec43732	0.3832336
128	0x3de86576	0.11347477
129	0x3e5d128d	0.21589108
130	0xbd69b2e0	-0.057055354
131	0x3dfb48d5	0.12269751
132	0x3dda0a19	0.10646457
133	0x3de21b0c	0.11040315
134	0x3e0b86e9	0.13625683
135	0x3f01b888	0.506722
136	0xbda82481	-0.082100876
137	0xbeacd137	-0.33753368
138	0xbe488586	-0.19582185
139	0xbebe92a1	-0.37221244
140	0x3de66347	0.112494044
141	0x3dbd2ca4	0.0923703
142	0x3da8c4b6	0.08240645
143	0x3b6bf256	0.0036002598
144	0xbd6df461	-0.058094386
145	0xbdb9b483	-0.09067633
146	0xbd29227b	-0.04129265
147	0xbe7c7662	-0.24654534
148	0xbc784022	-0.015152009
149	0xbe4db18a	-0.20087257
150	0xbc9ef09a	-0.019401837
151	0x3d2cbbd4	0.042171314
152	0x3f23d889	0.6400228
153	0x3e877d0c	0.2646259
154	0xbe316c0a	-0.1732637
155	0x3e6f86d4	0.23391277
156	0x3e02a657	0.12758766
157	0xbe91ea39	-0.2849901
158	0x3df25086	0.11831765
159	0x3c9440a9	0.018097239
160	0xbe32bf10	-0.17455697
161	0xbcd1c9a1	-0.02560884
162	0x3e414b18	0.18876302
163	0x3ea905c4	0.3301221
164	0x3e36d033	0.17852859
165	0xbe5d195f	-0.2159171
166	0xbead53ee	-0.33853096
167	0x3e0c5211	0.13703181
168	0x3e5225bc	0.20522207
169	0x3d0393b3	0.03212328
170	0x3dd7069a	0.10499306
171	0xbea5c972	-0.32380253
172	0xbde530bd	-0.11190937
173	0x3d80c5bf	0.06287717
174	0x3dfd9dfb	0.12383648
175	0xbec87b79	-0.39156702
176	0xbc68ceff	-0.014209508
177	0xbe70ec48	-0.23527634
178	0xbe211f01	-0.15734483
179	0xbe1aaff1	-0.15106179
180	0x3e145896	0.14486918
181	0x3c37eee0	0.011226386
182	0xbded9007	-0.11599737
183	0x3c8fe4d9	0.017565178
184	0xbd3b04a4	-0.045658723
185	0xbd9af905	-0.07567028
186	0x3d4e0c8f	0.050304946
187	0x3d111b0e	0.035426192
188	0xbe990a4d	-0.2989067
189	0xbf063c40	-0.52435684
190	0x3e35ac2b	0.17741458
191	0x3d9664c0	0.07343435
192	0x3e366bbb	0.17814533
193	0xbce29be5	-0.027662227
194	0xbda562d2	-0.08075489
195	0xbe7e8655	-0.24855931
196	0x3ccae0ff	0.02476549
197	0xbd5e68ac	-0.05429904
198	0x3e7cbfc3	0.24682526
199	0xbd393297	-0.04521426
200	0xbd196cf0	-0.037457407
201	0xbe19cce6	-0.15019569
202	0xbe5c5d2b	-0.21519916
203	0x3e35f00c	0.17767352
204	0xbe3a33b6	-0.18183789
205	0xbe8a18ad	-0.2697195
206	0x3e778cec	0.24174851
207	0x3e415728	0.18880904
208	0xbe2beae6	-0.16788825
209	0xbdf71f02	-0.12066461
210	0xbe926658	-0.28593707
211	0x3cd83559	0.026392626
212	0xbe7e80cb	-0.24853818
213	0xbd2f485e	-0.042793624
214	0x3eae3a4e	0.34028858
215	0xbd8f1d81	-0.06988049
216	0x3ddb3623	0.10703685
217	0x3cb0f1f0	0.02159974
218	0xbe5f8686	-0.2182866
219	0xbe22c88d	-0.15896817
220	0xbd44dea1	-0.048063878
221	0x3ea21e64	0.3166381
222	0xbe33cbce	-0.17558214
223	0xbf370b84	-0.71501946
224	0xbe94f717	-0.29094765
225	0x3ec08da3	0.3760806
226	0x3d32dee6	0.043669604
227	0x3d0cefec	0.034408495
228	0x3cf1ece4	0.029531904
229	0x3e593d0f	0.21214698
230	0xbe47f128	-0.19525588
231	0xb9f88810	-0.0004740362
232	0x3e20c5a4	0.15700394
233	0x3dcaf351	0.0990969
234	0x3df06430	0.11737859
235	0x3e20d0dd	0.15704675
236	0xbd96b0d9	-0.0735795
237	0xbe4c2c61	-0.19938804
238	0xbc75a9a9	-0.014994063
239	0x3e704662	0.23464349
240	0xbc61898a	-0.013765702
241	0xbe710276	-0.23536095
242	0x3ede4ea0	0.4341936
243	0x3e9c42a4	0.30519593
244	0xbe6600a1	-0.22461177
245	0x3e8c4b1c	0.27401054
246	0xbea03774	-0.31292307
247	0xbc91cb34	-0.01779709
248	0x3e0ece4a	0.1394588
249	0x3d6864f4	0.0567369
250	0x3dabcc51	0.0838858
251	0x3de3c351	0.11121238
252	0xbe8415fa	-0.25798017
253	0xbdee6dcb	-0.11642035
254	0xbe95430f	-0.29152724
255	0x3dfaafd7	0.1224057

base.mlp.fc_h.0.bias f4 [64]
0	0x00000000	0.0
1	0x00000000	0.0
2	0x00000000	0.0
3	0x00000000	0.0
4	0x00000000	0.0
5	0x00000000	0.0
6	0x00000000	0.0
7	0x00000000	0.0
8	0x00000000	0.0
9	0x00000000	0.0
10	0x00000000	0.0
11	0x00000000	0.0
12	0x00000000	0.0
13	0x00000000	0.0
14	0x00000000	0.0
15	0x00000000	0.0
16	0x00000000	0.0
17	0x00000000	0.0
18	0x00000000	0.0
19	0x00000000	0.0
20	0x00000000	0.0
21	0x00000000	0.0
22	0x00000000	0.0
23	0x00000000	0.0
24	0x00000000	0.0
25	0x00000000	0.0
26	0x00000000	0.0
27	0x00000000	0.0
28	0x00000000	0.0
29	0x00000000	0.0
30	0x00000000	0.0
31	0x00000000	0.0
32	0x00000000	0.0
33	0x00000000	0.0
34	0x00000000	0.0
35	0x00000000	0.0
36	0x00000000	0.0
37	0x00000000	0.0
38	0x00000000	0.0
39	0x00000000	0.0
40	0x00000000	0.0
41	0x00000000	0.0
42	0x00000000	0.0
43	0x00000000	0.0
44	0x00000000	0.0
45	0x00000000	0.0
46	0x00000000	0.0
47	0x00000000	0.0
48	0x00000000	0.0
49	0x00000000	0.0
50	0x00000000	0.0
51	0x00000000	0.0
52	0x00000000	0.0
53	0x00000000	0.0
54	0x00000000	0.0
55	0x00000000	0.0
56	0x00000000	0.0
57	0x00000000	0.0
58	0x00000000	0.0
59	0x00000000	0.0
60	0x00000000	0.0
61	0x00000000	0.0
62	0x00000000	0.0
63	0x00000000	0.0

base.mlp.fc_h.2.weight f4 [64]
0	0x3f800000	1.0
1	0x3f800000	1.0
2	0x3f800000	1.0
3	0x3f800000	1.0
4	0x3f800000	1.0
5	0x3f800000	1.0
6	0x3f800000	1.0
7	0x3f800000	1.0
8	0x3f800000	1.0
9	0x3f800000	1.0
10	0x3f800000	1.0
11	0x3f800000	1.0
12	0x3f800000	1.0
13	0x3f800000	1.0
14	0x3f800000	1.0
15	0x3f800000	1.0
16	0x3f800000	1.0
17	0x3f800000	1.0
18	0x3f800000	1.0
19	0x3f800000	1.0
20	0x3f800000	1.0
21	0x3f800000	1.0
22	0x3f800000	1.0
23	0x3f800000	1.0
24	0x3f800000	1.0
25	0x3f800000	1.0
26	0x3f800000	1.0
27	0x3f800000	1.0
28	0x3f800000	1.0
29	0x3f800000	1.0
30	0x3f800000	1.0
31	0x3f800000	1.0
32	0x3f800000	1.0
33	0x3f800000	1.0
34	0x3f800000	1.0
35	0x3f800000	1.0
36	0x3f800000	1.0
37	0x3f800000	1.0
38	0x3f800000	1.0
39	0x3f800000	1.0
40	0x3f800000	1.0
41	0x3f800000	1.0
42	0x3f800000	1.0
43	0x3f800000	1.0
44	0x3f800000	1.0
45	0x3f800000	1.0
46	0x3f800000	1.0
47	0x3f800000	1.0
48	0x3f800000	1.0
49	0x3f800000	1.0
50	0x3f800000	1.0
51	0x3f800000	1.0
52	0x3f800000	1.0
53	0x3f800000	1.0
54	0x3f800000	1.0
55	0x3f800000	1.0
56	0x3f800000	1.0
57	0x3f800000	1.0
58	0x3f800000	1.0
59	0x3f800000	1.0
60	0x3f800000	1.0
61	0x3f800000	1.0
62	0x3f800000	1.0
63	0x3f800000	1.0

base.mlp.fc_h.2.bias f4 [64]
0	0x00000000	0.0
1	0x00000000	0.0
2	0x00000000	0.0
3	0x00000000	0.0
4	0x00000000	0.0
5	0x00000000	0.0
6	0x00000000	0.0
7	0x00000000	0.0
8	0x00000000	0.0
9	0x00000000	0.0
10	0x00000000	0.0
11	0x00000000	0.0
12	0x00000000	0.0
13	0x00000000	0.0
14	0x00000000	0.0
15	0x00000000	0.0
16	0x00000000	0.0
17	0x00000000	0.0
18	0x00000000	0.0
19	0x00000000	0.0
20	0x00000000	0.0
21	0x00000000	0.0
22	0x00000000	0.0
23	0x00000000	0.0
24	0x00000000	0.0
25	0x00000000	0.0
26	0x00000000	0.0
27	0x00000000	0.0
28	0x00000000	0.0
29	0x00000000	0.0
30	0x00000000	0.0
31	0x00000000	0.0
32	0x00000000	0.0
33	0x00000000	0.0
34	0x00000000	0.0
35	0x00000000	0.0
36	0x00000000	0.0
37	0x00000000	0.0
38	0x00000000	0.0
39	0x00000000	0.0
40	0x00000000	0.0
41	0x00000000	0.0
42	0x00000000	0.0
43	0x00000000	0.0
44	0x00000000	0.0
45	0x00000000	0.0
46	0x00000000	0.0
47	0x00000000	0.0
48	0x00000000	0.0
49	0x00000000	0.0
50	0x00000000	0.0
51	0x00000000	0.0
52	0x00000000	0.0
53	0x00000000	0.0
54	0x00000000	0.0
55	0x00000000	0.0
56	0x00000000	0.0
57	0x00000000	0.0
58	0x00000000	0.0
59	0x00000000	0.0
60	0x00000000	0.0
61	0x00000000	0.0
62	0x00000000	0.0
63	0x00000000	0.0

base.mlp.fc2.0.0.weight f4 [64, 64]
0	0x3d16ec33	0.03684635
1	0x3d6c7800	0.05773163
2	0xbcaecd1f	-0.021338044
3	0x3da355c4	0.07975343
4	0xbdca5b1e	-0.098806605
5	0x3ec27603	0.3798066
6	0xbe0cb8e9	-0.13742413
7	0xbeddf53f	-0.4335117
8	0x3dc31af2	0.09526624
9	0xbdf0ef18	-0.117643535
10	0xbee8080c	-0.4531864
11	0xbe0f6e7e	-0.14006993
12	0x3dbba13d	0.09161613
13	0x3e80b1e4	0.2513572
14	0x3dc4a469	0.09601671
15	0xbdba0d93	-0.0908462
16	0x3e9f4db3	0.31113967
17	0x3e4e5114	0.20148116
18	0xbe88a68e	-0.2668957
19	0xbe82c8d5	-0.25543848
20	0xbeb2dcfc	-0.34934223
21	0x3e80a50b	0.25125918
22	0x3db391de	0.08768056
23	0x3dd510ed	0.10403619
24	0x3cceb6cc	0.025233649
25	0x3e38d25b	0.18048994
26	0xbe4661f1	-0.19373299
27	0xbe83f813	-0.25775203
28	0x3eac5917	0.3366172
29	0x3eaea9f1	0.3411403
30	0xbe4a6cb4	-0.1976803
31	0x3e2c6e4d	0.16838951
32	0xbdee8da5	-0.1164811
33	0x3d1e5ca5	0.03866257
34	0x3e545da8	0.20738852
35	0xbe5ad4c6	-0.21370229
36	0x3da6cfb3	0.08145084
37	0xbdcb4c9d	-0.09926722
38	0x3e443d9e	0.1916413
39	0x3d83b9a5	0.06431893
40	0x3de722b4	0.11285916
41	0xbe9ab004	-0.30212414
42	0x3e3afd59	0.18260707
43	0x3e39e646	0.18154249
44	0xbeafe2e3	-0.34352788
45	0xbe9e336f	-0.30898616
46	0xbe853d7a	-0.26023465
47	0xbc72004e	-0.01477058
48	0x3e8be9f9	0.27326944
49	0x36d6f9c2	6.4067726e-06
50	0xbecd1fa2	-0.40063196
51	0xbe0da147	-0.13831054
52	0xbdf8e288	-0.121525824
53	0x3df2452a	0.11829598
54	0x3c6a34a2	0.014294775
55	0x3d20f31a	0.03929434
56	0x3e585794	0.21127158
57	0xbe98f3ee	-0.29873604
58	0x3c86c3aa	0.016450722
59	0x3dcfebd6	0.10152404
60	0x3e74fad1	0.23923804
61	0x3bda0f0c	0.0066546258
62	0x3eb2e424	0.34939682
63	0xbd08e420	-0.033420682
64	0x3e7a5556	0.24446616
65	0x3cc8f8e7	0.024532748
66	0xbe914ec5	-0.2838041
67	0x3de6ecab	0.112756096
68	0xbd0e2679	-0.03470466
69	0xbe3d38ff	-0.18478774
70	0xbe3acb7c	-0.18241686
71	0x3e5b2673	0.21401386
72	0x3dbf88c9	0.093522616
73	0xbd84f186	-0.064913794
74	0xbda61712	-0.08109869
75	0x3e4125aa	0.18862024
76	0x3e247383	0.16059689
77	0x3edfd4ae	0.4371695
78	0x3e546357	0.2074102
79	0x3e274ffa	0.16339102
80	0xbe759578	-0.23982799
81	0x3dc59827	0.096481614
82	0x3e111ee3	0.14171939
83	0x3d77cc35	0.06049748
84	0xbd9ab45e	-0.075539336
85	0x3e78b42c	0.2428748
86	0x3cd6148c	0.026132844
87	0x3d82abbd	0.06380413
88	0x3e8a3e6b	0.27000746
89	0xbcf02e8d	-0.029319072
90	0xbe8ef891	-0.27924016
91	0x3d8dd859	0.06926031
92	0x3da90f39	0.082548566
93	0x3d21c2c5	0.039492387
94	0x3a10ade1	0.0005519074
95	0xbd12b7c3	-0.03581978
96	0x3e2b87fe	0.16751096
97	0x3e8ebb4d	0.27877274
98	0x389f8e29	7.60819e-05
99	0xbe9bef4a	-0.30456
100	0xbe8e0b6b	-0.27743086
101	0x3f02fe44	0.5116923
102	0x3d88c153	0.06677499
103	0xbd88bfc1	-0.06677199
104	0x3e546ea8	0.20745337
105	0xbe2b6a48	-0.16739762
106	0x3e6b59fc	0.22983545
107	0xbed41e68	-0.41429448
108	0x3e4c4b18	0.19950521
109	0x3e8a538d	0.2701687
110	0x3e0d0cb5	0.13774379
111	0x3e811445	0.25210777
112	0xbe5331ac	-0.20624417
113	0x3e5f947c	0.21833986
114	0x3e68ba2a	0.22727266
115	0xbea0276f	-0.31280085
116	0x3e578c15	0.21049531
117	0xbd9998f5	-0.07499877
118	0xbe4def45	-0.20110805
119	0x3e5c77cd	0.21530075
120	0x3e863a24	0.26216233
121	0xbbbc7c19	-0.0057520983
122	0xbde7997e	-0.11308573
123	0xbe04edf8	-0.12981403
124	0x3e0aab55	0.1354192
125	0x3e7b5e60	0.2454772
126	0x3ecb5d73	0.39719734
127	0x3eaa5b5b	0.33272824
128	0x3dfe4bd7	0.12416809
129	0x3e5926c5	0.21206196
130	0xbd0b5966	-0.034020804
131	0x3ddca271	0.10773171
132	0x3dd76005	0.10516361
133	0x3de0e23d	0.109806515
134	0x3dfba9e0	0.122882605
135	0x3ef5c248	0.47999787
136	0xbd572fff	-0.052536007
137	0xbeba3359	-0.363673
138	0xbe340249	-0.17578997
139	0xbebd4581	-0.3696709
140	0x3e012e56	0.12615332
141	0x3ddfee75	0.10934154
142	0x3d932aa2	0.07185866
143	0x3d2490a3	0.040177
144	0xbd820990	-0.0634948
145	0xbdc991dd	-0.09842274
146	0xbd879cd3	-0.06621709
147	0xbe755f54	-0.23962146
148	0x3cd6b26b	0.026208123
149	0xbe5073c3	-0.2035666
150	0xbcfee3c9	-0.031114476
151	0xbc0e8e97	-0.008700988
152	0x3f22863a	0.63486063
153	0x3e8a2b7e	0.26986307
154	0xbe475771	-0.1946695
155	0x3e438cd2	0.19096687
156	0x3de9d5d5	0.11417738
157	0xbea88d00	-0.32920074
158	0x3de13af0	0.109975696
159	0x3cac19a9	0.02100833
160	0xbe338646	-0.1753169
161	0xbd6f75ae	-0.058461837
162	0x3e3dfff3	0.18554668
163	0x3ea9ee33	0.33189544
164	0x3e2c20cf	0.1680939
165	0xbe3d4735	-0.18484195
166	0xbeac7d33	-0.3368927
167	0x3dd98460	0.10620952
168	0x3e64f24b	0.22358052
169	0x3cf695ea	0.030100781
170	0x3de8a100	0.11358833
171	0xbeaf6da9	-0.34263352
172	0xbe01e2e2	-0.12684205
173	0x3d2b4ba9	0.041820202
174	0x3e088871	0.13333298
175	0xbeab000b	-0.3339847
176	0xbb60b81e	-0.003428943
177	0xbe6519fc	-0.22373194
178	0xbe14c1c8	-0.14527047
179	0xbe5932cb	-0.21210782
180	0x3e338199	0.17529906
181	0x3cbf9614	0.023386993
182	0xbdb62a09	-0.08894736
183	0x3c991198	0.018685147
184	0xbd7a33b4	-0.061084464
185	0xbd630375	-0.05542322
186	0x3da86940	0.082232
187	0x3d916b89	0.07100589
188	0xbe997f96	-0.29980153
189	0xbf0174c8	-0.5056882
190	0x3e4067b1	0.18789555
191	0x3d66d9da	0.056360103
192	0x3e2aa1c6	0.16663274
193	0xbc262071	-0.010139571
194	0xbd8d9aac	-0.06914267
195	0xbe660d44	-0.22465998
196	0x3d0d67b7	0.03452274
197	0xbc0566b3	-0.008142161
198	0x3e7f0e59	0.24907817
199	0xbd5c8d9c	-0.053845987
200	0xbd1d9860	-0.038475394
201	0xbe443ba0	-0.1916337
202	0xbe505bc5	-0.20347507
203	0x3e4299f7	0.19004045
204	0xbe157be8	-0.14598048
205	0xbe78cc4e	-0.24296686
206	0x3e56b1a3	0.209662
207	0x3e6a8d9d	0.22905584
208	0xbe189f7e	-0.14904591
209	0xbde06a20	-0.10957742
210	0xbe879d9e	-0.2648744
211	0x3c2eaec4	0.010661785
212	0xbe8bf52a	-0.27335483
213	0xbc127552	-0.008939104
214	0x3eaf2bc2	0.34213072
215	0xbdf2d38c	-0.118567556
216	0x3defc711	0.11707891
217	0x3c810146	0.015747678
218	0xbe856c99	-0.26059416
219	0xbe3a6363	-0.18201976
220	0xbd1f4009	-0.038879428
221	0x3e9d23fe	0.30691522
222	0xbe44c5e0	-0.19216108
223	0xbf350ce4	-0.70722795
224	0xbe8280f2	-0.25489002
225	0x3ec2dbeb	0.3805841
226	0x3ced0de1	0.028937282
227	0x3d079e28	0.033109814
228	0x3d27612a	0.040864147
229	0x3e6bbbb8	0.23020828
230	0xbe5e6d42	-0.21721366
231	0x3c62e556	0.013848623
232	0x3e155cdb	0.14586203
233	0x3e099f6c	0.13439721
234	0x3dd06608	0.10175711
235	0x3e17d87a	0.14828673
236	0xbda43db8	-0.080195844
237	0xbe45911a	-0.19293633
238	0xbce71fc0	-0.028213382
239	0x3e72ac1c	0.23698467
240	0xbd01fb7f	-0.031733986
241	0xbe6e40f2	-0.23266962
242	0x3edb4242	0.42823988
243	0x3ea6e532	0.32596737
244	0xbe5ac688	-0.21364796
245	0x3e82a197	0.25513908
246	0xbe967921	-0.2938929
247	0xbd2a5161	-0.041581515
248	0x3e357425	0.17720087
249	0x3d2b8d50	0.041882813
250	0x3dde2ec0	0.108487606
251	0x3dc24b5a	0.094870284
252	0xbe99d309	-0.3004382
253	0xbe11e0a5	-0.14245851
254	0xbe9835a1	-0.29728416
255	0x3e065eec	0.13122147

base.mlp.fc2.0.0.bias f4 [64]
0	0xbbb2a1c5	-0.0054514133
1	0x3c67ca44	0.014147345
2	0x3be5e2ec	0.0070155766
3	0xbc80d339	-0.015725719
4	0xbb2bac09	-0.002619507
5	0x3c3112d0	0.010807708
6	0xbcac9b7b	-0.021070233
7	0x3b322d57	0.002718767
8	0x3bb06c4f	0.005384005
9	0x3c6f1693	0.014592784
10	0x3d0b72cc	0.034045026
11	0xbb2b3925	-0.002612659
12	0x3ae637aa	0.0017564197
13	0xbd310c7d	-0.0432248
14	0x3bd6ea20	0.0065586716
15	0x3b172093	0.0023060187
16	0x3baa46af	0.0051964144
17	0xbc9671ff	-0.018364904
18	0x3c229ba5	0.009924804
19	0xbc74e88e	-0.0149480235
20	0x3c94db45	0.018170962
21	0x3c0b8161	0.008514733
22	0x39415923	0.0001843912
23	0xbc6bd3a3	-0.01439372
24	0xbca3f8c9	-0.020016091
25	0xbc53e51a	-0.01293304
26	0x3be17a74	0.0068810526
27	0xbc81f307	-0.015862955
28	0x3c4381d6	0.011932811
29	0xbc135846	-0.008993214
30	0x3c8df64a	0.017329354
31	0x3c0d66c4	0.008630458
32	0xba85e000	-0.0010213852
33	0xbb9059b4	-0.0044052247
34	0x3ceda7c9	0.02901067
35	0x3c55f080	0.013057828
36	0xbc04a266	-0.008095359
37	0xbb2c9613	-0.0026334568
38	0xbc8d78b9	-0.01726948
39	0xbc8a1d27	-0.016859604
40	0xbcbbfce7	-0.022947742
41	0xbc999b54	-0.018750824
42	0x3c69c4b1	0.014268086
43	0xbbe24f7f	-0.0069064493
44	0x3af45cab	0.001864334
45	0xbb67cd09	-0.0035370013
46	0x3c08958e	0.008336438
47	0xbcc1d268	-0.0236599
48	0x3c345ab5	0.011007954
49	0xbc54a929	-0.012979784
50	0xbc7c01de	-0.015381305
51	0x3cbdd023	0.023170536
52	0x3d2af2f4	0.041735604
53	0xbb359035	-0.0027704362
54	0xba9d1104	-0.001198322
55	0x3beec762	0.007286952
56	0x3c0e1ab8	0.008673362
57	0xbcffa5f2	-0.031207059
58	0xbc37f906	-0.011228805
59	0x3ae6d560	0.0017611198
60	0x3b77b326	0.003779599
61	0x3cc0ecf5	0.02355049
62	0xbcb11cdd	-0.021620208
63	0xbb3abe6c	-0.0028494848

base.mlp.fc2.0.2.weight f4 [64]
0	0x3f8376a9	1.0270587
1	0x3f7d6e3d	0.98996335
2	0x3f7a987e	0.97888935
3	0x3f78594e	0.9701127
4	0x3f80581e	1.0026891
5	0x3f8033d7	1.001582
6	0x3f79e7cd	0.97619325
7	0x3f82b8ec	1.0212684
8	0x3f80cebb	1.0063089
9	0x3f883b28	1.0643053
10	0x3f82e2c2	1.0225451
11	0x3f7c205c	0.98486876
12	0x3f846d5c	1.0345874
13	0x3f82aa65	1.020825
14	0x3f801c5f	1.0008658
15	0x3f7fb679	0.99887806
16	0x3f843b86	1.0330665
17	0x3f80862d	1.0040947
18	0x3f832d71	1.0248243
19	0x3f77d48b	0.9680869
20	0x3f806b37	1.0032719
21	0x3f824c29	1.0179492
22	0x3f8163e5	1.010861
23	0x3f7fbab3	0.99894255
24	0x3f852c89	1.0404216
25	0x3f8147cf	1.0100039
26	0x3f83310b	1.0249342
27	0x3f81aa67	1.0130128
28	0x3f7c3185	0.9851306
29	0x3f8271c6	1.0190971
30	0x3f8335cb	1.0250791
31	0x3f79e15c	0.97609496
32	0x3f852d54	1.0404458
33	0x3f8090c8	1.0044184
34	0x3f836314	1.0264611
35	0x3f86355d	1.0485035
36	0x3f80cc32	1.0062315
37	0x3f874e50	1.0570774
38	0x3f7c0d4a	0.9845778
39	0x3f7fcdf0	0.9992361
40	0x3f781b6d	0.9691685
41	0x3f7fca4d	0.9991806
42	0x3f7ed3d5	0.9954198
43	0x3f843483	1.0328525
44	0x3f7d86cf	0.99033827
45	0x3f8042b5	1.0020357
46	0x3f7eaa46	0.99478567
47	0x3f81b804	1.0134282
48	0x3f7e0c9b	0.99237984
49	0x3f77fe89	0.96872765
50	0x3f834cb0	1.0257778
51	0x3f7fc943	0.99916476
52	0x3f7ce257	0.9878287
53	0x3f864515	1.0489832
54	0x3f809034	1.0044007
55	0x3f7fc016	0.99902475
56	0x3f7bdb30	0.9838133
57	0x3f83ae83	1.0287632
58	0x3f83fc3b	1.031135
59	0x3f809861	1.0046502
60	0x3f75db45	0.96037704
61	0x3f7ddea1	0.9916783
62	0x3f78af59	0.9714256
63	0x3f87fbb4	1.0623689

base.mlp.fc2.0.2.bias f4 [64]
0	0x3cbefecb	0.023314854
1	0x39a2de91	0.00031064873
2	0x3bd18aca	0.006394719
3	0xbcf1e28d	-0.029526973
4	0xbc8b44a0	-0.017000496
5	0x3b934020	0.0044937283
6	0xbcf99058	-0.030464336
7	0x3c3b3781	0.011426807
8	0x3ab409fa	0.0013735883
9	0x3b3699d1	0.0027862678
10	0x3cce360f	0.025172262
11	0xbc51b744	-0.012800042
12	0x3c81a27a	0.015824545
13	0xbc302fbd	-0.010753569
14	0xbc39dc01	-0.011343957
15	0xbbff1a45	-0.007785114
16	0x3c43cfe1	0.011951418
17	0xbba177b1	-0.0049275984
18	0x3b96b386	0.0045990376
19	0x3931d5e4	0.00016959716
20	0x3c907b68	0.01763697
21	0x3bed60a6	0.0072441874
22	0xbb8be670	-0.0042694137
23	0x3c31286d	0.010812861
24	0xbd02c97d	-0.031930435
25	0xbcbe545b	-0.023233583
26	0x3c9af5ca	0.01891603
27	0x3bea8d5a	0.0071579637
28	0x3cf6ed1e	0.030142363
29	0x39f55ba2	0.00046798313
30	0x3b8cd61e	0.0042979857
31	0x3b1ae736	0.0023636348
32	0xbc81ea6b	-0.01585885
33	0xbc487379	-0.012234562
34	0x3b2a3d03	0.0025976307
35	0x3bcb93ce	0.006212688
36	0x3bd4a965	0.00648992
37	0xbbbc2762	-0.0057419995
38	0xbc5512ac	-0.01300494
39	0xbb88680a	-0.004162793
40	0x3c9397cf	0.018016724
41	0xbc59afe3	-0.013286564
42	0x3a3f9915	0.0007308883
43	0xbcd361c9	-0.025803464
44	0x3c4b8fb6	0.0124244
45	0xbbe94a1f	-0.0071194316
46	0x3ca5bfea	0.020233113
47	0x3a72e3a9	0.00092654914
48	0x3b40c86f	0.0029416343
49	0xbca2e320	-0.019883692
50	0xbc455509	-0.0120442
51	0x3cd10cd8	0.02551882
52	0xbbba8d8e	-0.005693144
53	0xbbc8fcb3	-0.0061336397
54	0xbc082e7a	-0.008311862
55	0x3918129d	0.00014502784
56	0x3c1a6b2b	0.009424965
57	0xbc76dd5d	-0.015067426
58	0xbbcc8a6d	-0.0062420876
59	0x3c53fb26	0.012938296
60	0xbc888b83	-0.016668087
61	0x3bc6e77d	0.006070076
62	0x3cc6bcc4	0.024259932
63	0xbbd1a8a6	-0.0063982783

base.mlp.fc2.1.0.weight f4 [64, 64]
0	0x3c8c990a	0.017162818
1	0x3cece280	0.028916597
2	0xbd65f5aa	-0.056142487
3	0x3c489e9b	0.012244846
4	0xbdb4c1a3	-0.08825996
5	0x3ea5e961	0.32404616
6	0xbdaad223	-0.08340862
7	0xbed1de27	-0.409898
8	0x3d742871	0.05960888
9	0xbdfe6ad1	-0.12422717
10	0xbee530cf	-0.447638
11	0xbe2efe1a	-0.1708912
12	0x3d80b7dd	0.06285069
13	0x3e84a511	0.25907186
14	0x3dad2084	0.084534675
15	0xbd90a898	-0.07063407
16	0x3e9fba00	0.31196594
17	0x3e5aa536	0.21352085
18	0xbe926f54	-0.28600562
19	0xbe578808	-0.21047986
20	0xbe942947	-0.28937742
21	0x3e6a17af	0.22860597
22	0x3dd63bde	0.104606375
23	0x3dfdff55	0.12402216
24	0x3d2724ff	0.040806767
25	0x3e1de410	0.1541903
26	0xbe130e27	-0.14360867
27	0xbe7ee4aa	-0.24891916
28	0x3e9901fc	0.29884326
29	0x3eb95cac	0.36203516
30	0xbe56aebd	-0.20965095
31	0x3dec7335	0.115454115
32	0xbe16e767	-0.1473671
33	0x3c8faa46	0.017537247
34	0x3e7041e1	0.23462631
35	0xbe4dbf0a	-0.20092407
36	0x3db25311	0.0870725
37	0xbe15cb02	-0.14628223
38	0x3e5a2ad0	0.21305394
39	0x3da408d0	0.08009493
40	0x3df67f0a	0.120359495
41	0xbe9287c6	-0.28619212
42	0x3e55313e	0.20819566
43	0x3e1f71d9	0.15570773
44	0xbecaa08d	-0.39575616
45	0xbeb1ce1f	-0.3472757
46	0xbe52904e	-0.2056286
47	0xbc36e6cc	-0.011163425
48	0x3e838d64	0.2569381
49	0xbd1c5081	-0.038162712
50	0xbec72cd8	-0.389014
51	0xbe2f9c17	-0.17149387
52	0xbe4b8870	-0.19876266
53	0x3e27a93a	0.16373149
54	0x3b77b5ac	0.0037797494
55	0x3d68c0e1	0.05682457
56	0x3e082eb6	0.13299069
57	0xbe8c78ce	-0.27435917
58	0x3be8b5e7	0.0071017626
59	0x3e19d306	0.15021905
60	0x3e90b62e	0.28263992
61	0x3ccb1225	0.024788925
62	0x3ebd53c6	0.36977977
63	0xbccafb42	-0.024778012
64	0x3e711977	0.2354487
65	0x3d2b0510	0.041752875
66	0xbe8ec0dd	-0.27881518
67	0x3df50548	0.11963898
68	0xbdb39ecc	-0.087705225
69	0xbe2469bc	-0.1605596
70	0xbe385cfc	-0.1800422
71	0x3e75f7fc	0.2402038
72	0x3dbe897b	0.09303566
73	0xbda40f4d	-0.08010731
74	0xbd251c9d	-0.04031049
75	0x3e55d437	0.20881735
76	0x3e31a222	0.17347005
77	0x3ee5802b	0.44824347
78	0x3e4407f6	0.19143662
79	0x3e2f4efb	0.17119972
80	0xbe7bdd3b	-0.24596111
81	0x3de050cf	0.10952913
82	0x3e05a145	0.130498
83	0x3d4d4f9d	0.050124753
84	0xbd9993ba	-0.0749888
85	0x3e83bf27	0.25731775
86	0x3b4c781b	0.0031199518
87	0x3d3a9ef5	0.04556175
88	0x3e8fc2ee	0.28078407
89	0xbd4e6f2e	-0.050398998
90	0xbea24127	-0.31690332
91	0x3d024fcc	0.03181438
92	0x3ddc6dcb	0.10763129
93	0x3cba0ff7	0.02271269
94	0x3bc187cc	0.005906081
95	0xbcbab519	-0.022791432
96	0x3e1450a2	0.14483884
97	0x3e90ccde	0.282813
98	0xbcb84916	-0.022495788
99	0xbeb081a2	-0.34473902
100	0xbe85804e	-0.2607445
101	0x3efb4228	0.4907391
102	0x3da38c43	0.07985737
103	0xbd891e01	-0.06695176
104	0x3e41d0c3	0.18927293
105	0xbe19580c	-0.14974993
106	0x3e74c06f	0.23901533
107	0xbeb8cbd0	-0.36092997
108	0x3e376a66	0.17911682
109	0x3e912ee6	0.28356093
110	0x3df85bba	0.121268705
111	0x3e8000d2	0.25000626
112	0xbe57fa8a	-0.21091667
113	0x3e4ebd41	0.20189382
114	0x3e751a83	0.23935895
115	0xbe8722cf	-0.26393744
116	0x3e3a64b1	0.18202473
117	0xbdf52559	-0.11970014
118	0xbe4fb02e	-0.20282051
119	0x3e4b641d	0.19862409
120	0x3e803d03	0.25046548
121	0x3c91eccc	0.017813109
122	0xbdd92551	-0.10602821
123	0xbdd521f6	-0.10406868
124	0x3dd1db62	0.10246922
125	0x3e82cecf	0.25548407
126	0x3ed1bfc3	0.40966615
127	0x3ebc2c37	0.36752483
128	0x3dbe87ec	0.09303269
129	0x3e4a751d	0.19771238
130	0xbda81131	-0.08206404
131	0x3de39f93	0.11114421
132	0x3e11b204	0.14228064
133	0x3dcfdcda	0.10149546
134	0x3e09daa1	0.13462307
135	0x3ef79fae	0.48364013
136	0xbda94c7f	-0.082665436
137	0xbead7ede	-0.33885854
138	0xbe5cadfd	-0.21550746
139	0xbebd4d57	-0.36973068
140	0x3dbdf91e	0.09276031
141	0x3df63b41	0.120230205
142	0x3d906df0	0.07052219
143	0xbce90e88	-0.028449312
144	0xbc7fa781	-0.015603901
145	0xbda305af	-0.079600684
146	0xbcb4ddc2	-0.022078399
147	0xbe5ffb89	-0.21873297
148	0xbd01a41d	-0.03165065
149	0xbe582e23	-0.2111135
150	0xbd37284a	-0.044716157
151	0x3d666fe1	0.05625904
152	0x3f255965	0.6458953
153	0x3e7898fb	0.24277107
154	0xbe296dab	-0.16545741
155	0x3e7b0578	0.24513805
156	0x3e0bcd05	0.13652427
157	0xbe9038d8	-0.28168368
158	0x3dd3aab5	0.10335294
159	0x3cc285a1	0.02374536
160	0xbe49ee59	-0.19719829
161	0xbcdab7bf	-0.026698945
162	0x3e3a5af1	0.18198754
163	0x3eb26002	0.34838873
164	0x3e4051db	0.18781225
165	0xbe742833	-0.2384346
166	0xbeaede3f	-0.34153935
167	0x3e270863	0.16311793
168	0x3e473ad5	0.19456036
169	0x3d6ac67f	0.057318207
170	0x3df74fe8	0.12075788
171	0xbeafba8e	-0.34322017
172	0xbe05d39f	-0.13069008
173	0x3d9ef511	0.077615865
174	0x3e1fa279	0.15589322
175	0xbec84c2c	-0.39120615
176	0xbc04365a	-0.008069599
177	0xbe5d2439	-0.21595849
178	0xbe1a3a22	-0.15061238
179	0xbe2e87b6	-0.17043957
180	0x3e13bd96	0.1442779
181	0xbb0caf57	-0.0021466815
182	0xbdb70a9d	-0.08937571
183	0x3ccaf2dc	0.024774007
184	0xbd00524c	-0.031328484
185	0xbdc0af3d	-0.09408424
186	0x3db690e5	0.08914355
187	0x3d1b76d9	0.03795514
188	0xbe9e4adf	-0.30916497
189	0xbf080dd0	-0.53146076
190	0x3e2c967a	0.16854277
191	0x3dabfea3	0.083981775
192	0x3e16793d	0.14694686
193	0xbc33e5c5	-0.010980074
194	0xbe0fc992	-0.14041737
195	0xbe8919b6	-0.26777428
196	0x3a3f62ce	0.0007300795
197	0xbd8fe2e0	-0.07025695
198	0x3e7956c5	0.24349506
199	0xbd171196	-0.036882006
200	0xbce72c1d	-0.028219277
201	0xbe1cf9f7	-0.15329729
202	0xbe4c8c0e	-0.19975302
203	0x3e2aa68d	0.16665097
204	0xbe3ecd47	-0.18632995
205	0xbe8229cd	-0.25422516
206	0x3e802686	0.2502939
207	0x3e3c5a78	0.18393886
208	0xbe082764	-0.13296276
209	0xbde49663	-0.111614965
210	0xbe9f074c	-0.31060255
211	0x3cadd4cb	0.021219632
212	0xbe599667	-0.2124878
213	0xbce5d035	-0.028053382
214	0x3eaa2cf2	0.33237416
215	0xbd84aec8	-0.064786494
216	0x3df27932	0.118395224
217	0x3d2d0f58	0.04225096
218	0xbe825540	-0.25455666
219	0xbe045f4e	-0.12926981
220	0xbd1d196d	-0.038354326
221	0x3ea78985	0.32722107
222	0xbe5da075	-0.21643241
223	0xbf35ac73	-0.7096626
224	0xbe8602d1	-0.26174024
225	0x3eb11978	0.34589744
226	0x3d436d11	0.047711436
227	0x3d2b714f	0.041856106
228	0x3c132363	0.008980605
229	0x3e619a4c	0.22031516
230	0xbe5fdfe5	-0.21862753
231	0x3c9789c1	0.018498303
232	0x3e2d158f	0.16902755
233	0x3da485df	0.080333464
234	0x3e05130e	0.1299555
235	0x3e2f70f9	0.1713294
236	0xbd8db362	-0.0691898
237	0xbe5418d5	-0.20712598
238	0xbd4f33ef	-0.050586637
239	0x3e7de4b8	0.2479428
240	0xbd586b79	-0.05283687
241	0xbe5f2358	-0.21790826
242	0x3edf1cc2	0.43576628
243	0x3ea6d8d0	0.3258729
244	0xbe70d182	-0.23517421
245	0x3e916f17	0.28405067
246	0xbe9cbc88	-0.30612588
247	0xbb828b80	-0.003983915
248	0x3de0214c	0.10943851
249	0x3d84fb21	0.064932115
250	0x3db52f82	0.08846952
251	0x3dc54388	0.09632021
252	0xbe8f8efd	-0.2803878
253	0xbdd6db45	-0.10491041
254	0xbe93ecec	-0.28891695
255	0x3dfd97e7	0.12382489

base.mlp.fc2.1.0.bias f4 [64]
0	0xbc7da4f2	-0.015481221
1	0xbba6ef5d	-0.0050944523
2	0x3b2f619e	0.0026761065
3	0xbc0289f1	-0.007967458
4	0xbcd2d63d	-0.025736922
5	0x3b093e77	0.0020941773
6	0x3cd11e40	0.02552712
7	0xbb5de2e2	-0.0033857157
8	0x3cdb0fd4	0.026740946
9	0x3c2a4f51	0.010394887
10	0x3ca5e4c0	0.020250678
11	0xbc89c212	-0.016816173
12	0xbd2268cd	-0.039650727
13	0xbc77ca74	-0.015123952
14	0xb994cbbb	-0.0002838055
15	0x3b60a928	0.0034280512
16	0xbbe6dbc7	-0.0070452425
17	0xbc28eb45	-0.010309999
18	0xbc3cab92	-0.011515515
19	0xbbc12b5c	-0.0058950614
20	0x3b85078d	0.004059738
21	0xbc1a5d02	-0.009421589
22	0xb8dcfa5b	-0.0001053705
23	0x3a980ac3	0.0011599887
24	0x3c3a1fd6	0.011360129
25	0xbc3d8069	-0.01156626
26	0xbcb06bbb	-0.021535745
27	0x3cb7acc7	0.022421254
28	0x3b5b281e	0.003344066
29	0x3c555f57	0.013023219
30	0x3cdc5b2a	0.02689894
31	0xbcacbf8d	-0.021087432
32	0x3b70b2be	0.0036727632
33	0xbc5f083e	-0.013612805
34	0x3bedc17c	0.007255731
35	0xbc943b10	-0.01809457
36	0xbc580625	-0.013185059
37	0x3a7a55a6	0.0009549506
38	0x3ba296f5	0.004961843
39	0x3c67552c	0.014119428
40	0x3c4542a9	0.012039819
41	0x3c4f264d	0.012643409
42	0x3ca0a9bf	0.019612191
43	0xbbe17285	-0.006880107
44	0xbc161534	-0.009160329
45	0x3c96b08e	0.018394735
46	0x3ca2654f	0.019823698
47	0xbca5fc82	-0.020262007
48	0x3c8b2bc9	0.016988652
49	0xbbb973aa	-0.00565954
50	0x3b93f516	0.0045153005
51	0xb91b97ba	-0.00014838474
52	0x3c6b5ba2	0.014365109
53	0x3bc76b5d	0.0060857967
54	0x3c2c4a33	0.010515737
55	0xbc926ced	-0.017874205
56	0x3c5b113c	0.013370808
57	0x3cd9abdb	0.026571205
58	0x38d7c91c	0.000102894584
59	0xbc9e201e	-0.019302424
60	0x3ca0c446	0.01962484
61	0x3af6a9c2	0.0018818902
62	0x3ac4758e	0.0014988647
63	0x3b61cb65	0.0034453508

base.mlp.fc2.1.2.weight f4 [64]
0	0x3f7cf81e	0.98816097
1	0x3f7fb493	0.9988491
2	0x3f83fdd5	1.0311838
3	0x3f808b6e	1.004255
4	0x3f7e8c13	0.99432486
5	0x3f8197ab	1.012441
6	0x3f7ec842	0.9952432
7	0x3f79bd3c	0.97554374
8	0x3f7f14fa	0.9964138
9	0x3f7f77d6	0.9979223
10	0x3f7c9ffa	0.98681605
11	0x3f849e74	1.0360856
12	0x3f8478ea	1.03494
13	0x3f80d70a	1.0065625
14	0x3f81656e	1.0109079
15	0x3f80076d	1.0002266
16	0x3f80fed7	1.0077771
17	0x3f85c870	1.0451794
18	0x3f7b1922	0.98085225
19	0x3f84e867	1.0383424
20	0x3f829662	1.0202143
21	0x3f84fed5	1.0390269
22	0x3f7eba14	0.9950268
23	0x3f819f31	1.0126706
24	0x3f82205d	1.0166126
25	0x3f81fe22	1.015568
26	0x3f7a6d1c	0.9782274
27	0x3f847623	1.0348552
28	0x3f87ed03	1.0619205
29	0x3f7d178d	0.9886406
30	0x3f80934a	1.0044949
31	0x3f835f2b	1.0263418
32	0x3f82ee81	1.0229036
33	0x3f7e9955	0.99452716
34	0x3f834b41	1.0257341
35	0x3f817b40	1.0115738
36	0x3f7ed3eb	0.9954211
37	0x3f77c080	0.96778107
38	0x3f83bbc8	1.0291681
39	0x3f7ea09a	0.9946381
40	0x3f837625	1.027043
41	0x3f7f0477	0.9961619
42	0x3f78e9e5	0.97231895
43	0x3f810c4a	1.0081875
44	0x3f7ce8fc	0.98793006
45	0x3f8222fa	1.0166924
46	0x3f804598	1.0021238
47	0x3f82b493	1.0211357
48	0x3f7b29c1	0.98110586
49	0x3f794db6	0.973842
50	0x3f82127c	1.0161891
51	0x3f8184aa	1.0118611
52	0x3f857a04	1.0427861
53	0x3f7fed94	0.9997189
54	0x3f82524a	1.0181363
55	0x3f7ffa5f	0.9999141
56	0x3f7ed856	0.9954885
57	0x3f809567	1.0045594
58	0x3f8414a7	1.0318803
59	0x3f7c8240	0.98636246
60	0x3f83b4eb	1.0289587
61	0x3f839d6e	1.0282419
62	0x3f87a677	1.0597676
63	0x3f7a5d33	0.9779846
