results/MyEnv/Intersection_MAPPO/mappo/check/run3/models/critic.pt (torch, 626030 bytes, 23 tensors)

base.feature_norm.weight f4 [2080]
00000000: e505 813f 9135 7e3f d973 7f3f 8c58 803f
00000010: 40cb 813f 776e 803f 78de 803f 4724 7e3f
00000020: 970c 813f f909 803f ba19 7d3f 9bef 7f3f
00000030: b0b8 7e3f bfa0 803f 2b06 7f3f 7ef2 7f3f
00000040: fa18 803f 7287 813f 2333 803f e832 7f3f
00000050: 931a 803f 4f4b 7e3f 1016 7e3f f639 803f
00000060: 7383 813f 115a 7f3f a648 7e3f 2cf8 7e3f
00000070: 8f3d 813f 7567 803f 0706 7f3f c150 803f
00000080: a3c8 7e3f 21aa 7d3f 0dba 803f 8560 803f
00000090: dba3 7f3f 3517 803f f31f 7e3f 94a1 7f3f
000000a0: 16a9 7e3f 50d3 7e3f 4795 803f f03b 813f
000000b0: 613f 803f 867c 813f 016d 7f3f bc34 803f
000000c0: 0b32 803f 2c11 7f3f 2ea3 7e3f 038a 803f
000000d0: 0ecf 7d3f 2bd0 803f 8501 803f 2135 803f
000000e0: c72f 803f ff72 803f 34c2 803f 629d 7f3f
000000f0: f1a5 7f3f 3118 7e3f 6937 813f fbc6 803f
00000100: 0a2a 803f 5301 803f d074 7f3f 51ff 803f
00000110: 04ab 7d3f 7585 7d3f 73f2 803f ba9a 803f
00000120: 57ea 7f3f c8d3 7f3f 89fc 7f3f 7f31 803f
00000130: 3122 7b3f 6e8d 7d3f 43d5 7d3f 0896 7f3f
00000140: adda 7d3f 6277 7f3f 9a90 803f 2bd4 803f
00000150: 280b 803f 80fa 7f3f 9674 813f 3b6c 7d3f
00000160: 1c5c 7d3f bbd7 7c3f dbff 803f 0a8d 813f
00000170: d357 803f 2f8c 7e3f a4d7 7e3f f3bb 7f3f
00000180: 1a80 803f 8259 7f3f 5418 803f 7ffe 7d3f
00000190: 8fc6 7d3f 4a81 7f3f 465e 803f 4327 803f
000001a0: 2358 7e3f 60be 803f afdd 803f f887 803f
000001b0: 42b0 7e3f d2a1 7f3f c1ae 803f 6cce 7e3f
000001c0: a53a 7d3f a0da 7f3f 1d3b 7e3f 289b 7f3f
000001d0: b547 7d3f 3393 813f 324e 803f 02cc 813f
000001e0: f9b2 803f 35a4 803f 0498 803f 0b98 7f3f
000001f0: f834 803f 4f8a 7f3f 3c1d 803f a163 823f
00000200: a5de 803f 976f 7e3f 3a5e 7f3f 3f37 7f3f
00000210: fec8 7e3f 7f0e 7f3f 2045 803f 220b 7e3f
00000220: b483 803f 2436 803f 8fcd 7d3f 922e 803f
00000230: 93f3 803f 618e 803f c4a7 7e3f 111f 803f
00000240: c2e2 7e3f 06b0 7d3f 32cc 7e3f 1b19 803f
00000250: cbe7 7f3f 76a1 7f3f 8790 7e3f 96e7 803f
00000260: 5a62 803f 3f00 803f d2fe 803f 4f7c 813f
00000270: 7b55 813f fabe 7e3f f9cf 803f d9fb 803f
00000280: 97bc 803f d0c6 803f db74 7d3f 2f0b 813f
00000290: 8279 803f 410c 803f 7e2b 803f f744 803f
000002a0: 8f1b 803f f6f4 7d3f a3c3 7f3f 182e 7f3f
000002b0: f107 813f 66e4 7d3f 3990 803f 0b51 7f3f
000002c0: 8708 7d3f 2802 7e3f 0d2c 7f3f b430 803f
000002d0: 7017 7c3f aeb0 7f3f 7ded 803f 17c5 813f
000002e0: 670d 813f 9334 813f d192 803f 61a6 7d3f
000002f0: 24a5 7c3f fc96 803f f58d 7e3f b8fb 7c3f
00000300: 3468 803f b85f 7c3f ecf1 7e3f c605 7f3f
00000310: 8224 803f 9357 813f 31b1 7e3f 48fd 7f3f
00000320: 625a 803f fc6f 803f 4791 813f 1140 7e3f
00000330: 6469 7f3f f844 7e3f 27d3 7f3f f774 803f
00000340: ce22 803f ea4c 7f3f 2f8c 7d3f c02e 803f
00000350: 7d8b 803f 8ed5 7f3f 1db5 7d3f 0de4 7d3f
00000360: 9b91 7d3f d46f 7f3f bb34 7e3f 2885 7f3f
00000370: 1d3d 803f 52ba 7f3f 4742 7f3f 6cbb 803f
00000380: 85ec 803f b21f 813f a0bb 7f3f 922f 803f
00000390: d946 813f 842a 803f 146f 7f3f ebf3 7f3f
000003a0: 3de1 7f3f b78d 7f3f 3a84 803f 0920 7f3f
000003b0: 9f18 803f 9759 7b3f 6dc1 7d3f 4150 803f
000003c0: 79d6 7e3f 036a 803f 10e0 7e3f ee5f 7f3f
000003d0: 40c2 803f 2c7d 7e3f df3d 803f c02a 803f
000003e0: b178 7e3f 0a00 803f 6b24 803f e1f9 803f
000003f0: 2392 7f3f 6de7 7e3f 9eb9 7e3f 3de5 7d3f
1.0079924 0.99300486 0.99786144 1.0027022 1.0140152 1.0033711 1.0067892 0.99274105
1.0081967 1.0003043 0.9886738 0.99974984 0.9950056 1.0049056 0.99618787 0.9997939
1.0007622 1.011946 1.0015606 0.9968705 1.000811 0.9933366 0.99252415 1.0017688
1.011824 0.99746805 0.993296 0.9959743 1.0096911 1.0031573 0.9961857 1.0024644
0.995249 0.9908772 1.0056778 1.0029455 0.998594 1.0007082 0.992675 0.99855924
0.99476755 0.9954119 1.0045556 1.0096416 1.0019342 1.0116127 0.997757 1.0016093
1.0015272 0.9963558 0.9946774 1.0042118 0.99144065 1.0063528 1.0000464 1.0016214
1.001458 1.0035094 1.0059266 0.9984952 0.9986258 0.99255663 1.0095035 1.0060724
1.0012829 1.0000404 0.99787617 1.0077916 0.99089074 0.99031764 1.007399 1.0047219
0.9996695 0.9993253 0.99994713 1.0015105 0.98099047 0.9904393 0.99153537 0.99838305
0.991618 0.9979154 1.0044129 1.0064749 1.0003405 0.9999161 1.0113704 0.9899327
0.9896867 0.9876668 1.0078081 1.0121167 1.0026802 0.99432653 0.9954779 0.9989616
1.0039093 0.99745953 1.0007424 0.99216455 0.991311 0.99806654 1.002877 1.0011982
0.99353236 1.0058098 1.0067652 1.0041494 0.994877 0.99856293 1.0053331 0.99533725
0.9891761 0.9994297 0.9930895 0.99846125 0.9893754 1.0123047 1.0023863 1.0140383
1.0054618 1.0050112 1.0046391 0.99841374 1.0016165 0.9982042 1.0008922 1.0186654
1.0067946 0.9938902 0.99753153 0.99693674 0.9952544 0.99631494 1.0021095 0.9923574
1.0040193 1.0016522 0.9914178 1.0014212 1.0074333 1.004345 0.9947474 1.0009481
0.99564755 0.99096715 0.9953033 1.0007662 0.99963063 0.99855745 0.9943928 1.0070674
1.0030015 1.0000075 1.0077765 1.0116061 1.0104212 0.9951016 1.0063468 1.0076858
1.0057553 1.0060673 0.9900643 1.0081538 1.0037081 1.000374 1.0013273 1.0021046
1.000841 0.99201906 0.9990789 0.9967971 1.0080549 0.99176633 1.0044013 0.99733037
0.98841137 0.9922204 0.9967659 1.0014863 0.9847326 0.99878967 1.0072476 1.0138272
1.0082215 1.0094169 1.0044805 0.99082 0.98689485 1.0046077 0.9943536 0.9882159
1.00318 0.98583555 0.99587893 0.99618185 1.0011141 1.010485 0.9948912 0.9999585
1.0027583 1.0034175 1.012246 0.9931651 0.9977019 0.9932399 0.9993157 1.0035695
1.0010622 0.99726737 0.9904203 1.0014267 1.0042568 0.99935234 0.9910448 0.991761
0.990503 0.9978001 0.9929921 0.99812555 1.001865 0.9989368 0.99710506 1.0057197
1.007218 1.0087798 0.9989567 1.0014517 1.0099746 1.0012975 0.99778867 0.99981564
0.9995306 0.99825615 1.0040352 0.99658257 1.0007514 0.9818358 0.9912327 1.0024492
0.9954601 1.0032352 0.9956064 0.9975575 1.005928 0.9940975 1.0018882 1.0013046
0.9940291 1.0000012 1.0011114 1.0076257 0.9983236 0.9957188 0.9950198 0.99177915

base.feature_norm.bias f4 [2080]
00000000: 15b9 03bc 2321 e03b b919 163b e251 25bb
00000010: e419 67bc 95d2 67bb 5847 febb b404 953b
00000020: c9be f63b dc75 bb39 b898 3c3c dd3d a439
00000030: 1600 a03b 1182 b0bb af98 8f3b 0c15 e239
00000040: 6ffe ffb9 8256 1abc 3423 b8ba 0bba 353b
00000050: 981f b7ba 5926 70bb d038 d7bb c23e d0bb
00000060: 70d7 28bc 2d58 bf3a 544a e93b f59d 8b3b
00000070: 64ed 1ebc 77ec 43bb df1a b43b e2b0 21bb
00000080: c70f c53b 662f a1bb fe99 c73b d04d 4ebb
00000090: 42ad d03a 5e1a 47ba 4d26 d13b 725c 59b9
000000a0: 399e be3b 3ee5 a33b 6c58 94bb aec8 17bc
000000b0: 7ab6 94bb 5c3a 423c f7e5 493a 8563 a0ba
000000c0: aa18 1c3b 1a9f e7ba 2aaa 9f3b 4ba7 a1bb
000000d0: a12a 0ebc c6ac d43b a1e8 a5bb 0008 85ba
000000e0: 5296 083a 6e6d f43b 2e70 333b fbb2 30bb
000000f0: 73f9 3eba 9a9b ccbb 3a1a 01ba f911 34bb
00000100: 245e 5fba 6680 dc39 b21b a7bb 7f39 db3a
00000110: f2e3 1c3c 8338 a4bb a6bf 21bc c40c 05bb
00000120: ac7a 8439 eca0 0b3b e514 44b9 faf8 123b
00000130: f16e 8ebc 904a 25bc e5aa 28bc 2f34 8cba
00000140: c414 24bc c381 a0ba 140b 063c 0823 0c3c
00000150: c811 d43a 6432 4fba 9d6a 433c 17f7 11bc
00000160: 4d41 08bc 8d87 50bc 88db 0b3c 275b 443c
00000170: f7dd ce3b 9383 aabb fdc4 a1bb b383 9cba
00000180: 4d87 823b 76ef 26bb 94e9 cb3a ee8d efbb
00000190: a969 0bbc 4d2e afba e827 793b 5d36 f23a
000001a0: ce61 d83b 49d6 bfbb d28a cdbb 92ff 8dbb
000001b0: 8c4a ab3b d751 c73a 0528 11bb b4f1 2f3b
000001c0: 2411 5ebc 0535 8f3a bd9d f63b 84da 8c3a
000001d0: 08a3 303c 6dab 66bc 1e46 a9ba f45a 42bc
000001e0: 4ecd b5bb 8df0 91bb 0e21 a6bb 7483 e13a
000001f0: a3b6 18bb 158f 063b 58ba 473b e3a2 19bc
00000200: 8cb9 26bc fad0 003c 2fce 173b ad37 4e3b
00000210: 4374 953b 38b4 6b3b 6f76 2439 3404 163c
00000220: 4fcb a2bb 295a 33ba 5f4f 27bc 2a41 90bb
00000230: 5a80 ecbb a40f 96bb 6182 b03b 094d e43a
00000240: 6675 bd3b dd20 1f3c 3b3e 9c3b 640e e43a
00000250: f124 86b9 bc91 11bb 021a d43b 2b3a d1bb
00000260: 69bf 5b3b 67cd 9d3a 540f 37bc 88b4 49bc
00000270: 9995 2e3c d500 97bb 9e61 123c ee8b 92bb
00000280: b3ae b7ba 0ceb df3b a6e5 8b3a 3566 413a
00000290: 585a 5fbb 0c45 45ba f826 d938 848b f2ba
000002a0: 61c0 a938 bfb0 f5bb dcac 93bb 35ef b7bb
000002b0: 5b29 ffbb f91b a5bb 60e9 a73b 1d69 d13a
000002c0: 9002 483c 70d9 e43b 2bdc a2bb 5ae9 363b
000002d0: f0c1 4ebc 4cf9 1bbb 3d87 003c 3459 623c
000002e0: f34e 003c 3996 1e3c 527f 973b 6009 21bc
000002f0: 9f3b 5ebc 3c9b 8c3b 3515 a5bb 04ca 29bc
00000300: ecd9 1d3b 3551 6cbc 2ee8 85bb ba75 5fbb
00000310: 3bcb c63a c716 283c 582a a2bb 173c 02ba
00000320: a1e2 373b 762a 443b 53c2 493c b592 10bc
00000330: 4c25 b3bb bbff 06bc 7608 083a 16a4 9a3b
00000340: 444e 8aba cb18 353b 3116 193c 02c7 a3ba
00000350: 2b79 9abb 9730 17ba 90ea c83b 2c4a 5fba
00000360: fb92 8b3b bfe1 063b dae7 f43b d139 de3a
00000370: f6d5 03bb db99 303a cda3 303b bdfb ecbb
00000380: 18fb e5bb 3e23 0cbc 8ca8 803a 6c87 e3ba
00000390: a2f0 3bbc 463a 453b 69d7 07bb 2f3e b3bb
000003a0: bec4 df3b 7fad 633b 7772 86bb c0aa 673b
000003b0: 9d96 d9b9 a40a 933c 62ea 21bb 5f60 0fba
000003c0: bdee 1a3c 665b 01bb e772 cab9 78ae 9b3a
000003d0: d5a9 abbb 5562 b63b eb80 d5ba 39c5 7739
000003e0: 89dc ce3b c5b2 e8ba bd1c 88ba e8e9 f7bb
000003f0: 0acf 4fba 0a6d bdbb 76a6 803b 1c6b 033c
-0.008039732 0.0068398877 0.0022903515 -0.0025225808 -0.014105294 -0.003537332 -0.0077599697 0.00454768
0.0075300676 0.00035755232 0.01151102 0.0003132661 0.0048828227 -0.005386599 0.004382215 0.0004312176
-0.00048826958 -0.009420039 -0.0014048577 0.0027729298 -0.0013971208 -0.003664395 -0.006568052 -0.0063551376
-0.010305271 0.0014598422 0.0071194563 0.0042607733 -0.009700153 -0.0029895583 0.0054963673 -0.002467208
0.0060138437 -0.0049189804 0.0060913553 -0.0031479485 0.0015920775 -0.00075951766 0.0063827396 -0.00020729171
0.0058172015 0.005001693 -0.0045271423 -0.009264154 -0.0045383545 0.011854734 0.0007701809 -0.001223669
0.0023818412 -0.0017671317 0.00487258 -0.004933273 -0.008677156 0.0064903228 -0.005063132 -0.0010149479
0.0005210388 0.007459334 0.0027380097 -0.002696215 -0.00072850956 -0.006244135 -0.00049248675 -0.0027476533
-0.0008520803 0.00042057334 -0.005099737 0.0016725509 0.009575831 -0.0050116195 -0.009872353 -0.0020301798
0.000252684 0.0021305634 -0.000186998 0.0022426234 -0.017386885 -0.010088578 -0.010294651 -0.0010696704
-0.010014717 -0.0012245703 0.008181352 0.008553274 0.0016179616 -0.0007903932 0.011927274 -0.0089090085
-0.00831635 -0.01272763 0.008536227 0.011984623 0.0063130814 -0.005203673 -0.004936813 -0.0011941105
0.0039834143 -0.002547232 0.0015557283 -0.0073106205 -0.008509078 -0.0013365239 0.003801817 0.0018479336
0.006603456 -0.005854402 -0.006272652 -0.004333445 0.0052273925 0.0015206885 -0.0022149098 0.0026846947
-0.013553891 0.0010925835 0.007526128 0.0010746275 0.010781057 -0.014078957 -0.0012914573 -0.011862505
-0.005548156 -0.0044537247 -0.0050698584 0.0017205314 -0.002330222 0.002053206 0.003047606 -0.009377214
-0.010176074 0.007862324 0.0023163666 0.003146629 0.0045609786 0.0035965573 0.00015684379 0.009156276
-0.004968084 -0.0006841743 -0.010211795 -0.0044022994 -0.007217449 -0.004579501 0.005386636 0.0017417978
0.0057818172 0.009712425 0.0047681606 0.0017399308 -0.00025585995 -0.0022212109 0.006472827 -0.006385108
0.0033530837 0.0012039364 -0.011173088 -0.012311108 0.010655784 -0.0046082535 0.008934407 -0.0044722473
-0.0014013856 0.0068334397 0.0010673299 0.0007377596 -0.0034080949 -0.00075252424 0.00010354625 -0.0018504714
8.094381e-05 -0.0074978764 -0.0045066904 -0.0056132325 -0.0077869124 -0.005038735 0.005124256 0.0015976761
0.012207642 0.0069839284 -0.0049700937 0.0027910084 -0.0126194805 -0.0023799716 0.007844743 0.013815213
0.007831323 0.009679371 0.004623332 -0.009828895 -0.013564019 0.0042909663 -0.0050379285 -0.010363106
0.002408619 -0.014423658 -0.004086516 -0.003409727 0.0015166769 0.010259337 -0.0049488954 -0.00049680605
0.0028058665 0.0029932535 0.012314397 -0.00882404 -0.0054670926 -0.008239682 0.0005189249 0.0047192676
-0.001055189 0.0027633186 0.00934367 -0.0012495222 -0.0047141514 -0.00057674333 0.0061314777 -0.00085178274
0.004259465 0.0020581333 0.007473928 0.0016954486 -0.0020116544 0.00067367934 0.0026953102 -0.007232158
-0.007018458 -0.008553324 0.0009815856 -0.0017359084 -0.011470946 0.0030094548 -0.002072776 -0.0054700593
0.0068288734 0.0034740863 -0.0041030007 0.0035349578 -0.0004150168 0.01794941 -0.0024706353 -0.00054693775
0.009456334 -0.0019738316 -0.0003861405 0.0011877557 -0.0052387514 0.0055659213 -0.0016289031 0.00023629227
0.006312911 -0.0017753473 -0.0010384541 -0.0075657256 -0.00079272746 -0.0057808207 0.0039260937 0.008021142

base.mlp.fc1.0.weight f4 [64, 2080]
00000000: a8f4 333d 5e5c 78bd d9f9 813c d868 58bd
00000010: e2b2 68bd a01f fcbc ff30 fcbb d49f 5d3b
00000020: 6b26 593d e9a8 253c e8d3 95bb d655 423c
00000030: 8cab 18bd 62af 56bc d7ec f1bc 0c75 e7bc
00000040: 7dbb 97bc 18fc 7dbc 36e0 223d 029f 6abc
00000050: 8ee2 81bc 366e a23d 3fc6 d8bb b6c5 f539
00000060: b52f 0dbd 35cf 1c3d a739 59bd 0988 c83c
00000070: 24ab 0dbd 437a 483c 20ab 98bc 169f 9e3c
00000080: 5c27 c43c a92d 4c3d bbb8 c73c 0a28 993b
00000090: 525a e73c 3442 b6bb 808d 28bd c34c c23c
000000a0: 1b0c 10ba d75f 9ebc 8f2f cbbc ff63 d73b
000000b0: f64b 423d 39ff fcbb 5fcc 9fbc 517e eebc
000000c0: f785 2fbc 7a1f 78ba f40e 85bd 9377 e5bb
000000d0: 0bdb 133d 7f90 0a3c 4e66 6ebd 7e90 bc3c
000000e0: 0f1c af3c 2175 d23d 7bdc 37bc 7f8b e93c
000000f0: 9bc7 1abc cd6b a63a 33ff 7a3c 0baa b13c
00000100: 9790 4f3d 5b62 bbbc 5ae7 023d ca52 913c
00000110: 9f0e 58bc ee50 0b3b c700 e8bc 2ab7 01bd
00000120: 302d 86bc 9542 8ebc 1551 94bc 288f 16bd
00000130: 12aa ee3c 8a36 af3c 648e 7eba a13f b9bc
00000140: edaf 0f3d fbe8 c03c f8f3 ce3c f36a c4bb
00000150: b069 973b 34b7 62bc aa77 2b3d a64b 243d
00000160: 6f8e 203d 4a6f eabc 36e6 f13c 4067 363d
00000170: 456a 51bd f6ff 0bbd b386 8bbc 7f84 b23c
00000180: 7fb3 a4bc 4ce9 fa3c 7d48 893d 730b de3c
00000190: 7db4 aeb9 2f9d 73bd 5e0b 05bd a9c1 ef3c
000001a0: 10e3 54bd 7e48 03bc 451f 363c 04df 30bc
000001b0: 87e1 8abc 4302 a73c e087 91bd c91b 333d
000001c0: 3fa4 54bc 5340 a43b cb39 2cbb 420f d8bc
000001d0: 89fc 483c bf00 cdbc 91a6 9cbc 3a8a 613a
000001e0: cb48 adbb 32f6 acbc 4809 44bd 02c8 22bc
000001f0: 3c5e dcbc b97e cb3c af98 113d c652 05bb
00000200: b29a 36bc b738 733c 4985 91bc c17e a8bc
00000210: 4585 51bd 57ad 55bc 2c3b 31bc e011 963d
00000220: f11f 6d3c 0a43 0bbd 7c6a e13c 322a aabc
00000230: 0b59 10bd e21a e7bc a211 153c 054a ce3b
00000240: c3c3 babc ce0a 4e3c f19d 0c3c b2a9 cdbc
00000250: 9b45 8bbd 9fbd 973c f1be 5cbd f2a8 583d
00000260: d189 7abc 990b 203c f9a1 93bd 016b 43bd
00000270: a7f7 e63b 04e0 d4bb aa6d 2fbd d9a1 39bd
00000280: f2db 253d dc22 8b3d 099a 983c 7ce6 81bc
00000290: e92d 3fbc 47f2 193d 2138 783c 8fa1 cbba
000002a0: 60e4 f63a af2c a33c af19 a13c c377 1b3c
000002b0: e87e 483b 4f12 043d 6c54 383d 62b9 37bd
000002c0: 0c8e efbb 0640 ffbb 82c0 7a3d f417 b2bb
000002d0: 1c1f 5cbd 7b3b 33bc 975e 903d 11dc 6fbb
000002e0: 04ae e0bc a17e bc3c 66d0 53bd f398 bf3c
000002f0: 2783 76bc 6612 a2bd 8954 aebd 58c9 89bd
00000300: 7905 2fbd 2241 77bc a7b7 91bb 9081 313c
00000310: 1447 9dbc 953a cc3b 5e20 e2bb 59f3 3b3c
00000320: c72a 2d3c 6b8d 833c 98ae 333c 8183 b83c
00000330: 3905 79bd 34ac e6bb b0f4 453d 97d2 293b
00000340: 9e39 263d 90f7 803d a985 1f3d c473 08bc
00000350: 1005 cbbb 9ca7 233d 032f 283a 8071 5bbd
00000360: 31c1 ed3c 4b29 0a3d 1faa 383a 14e3 58bd
00000370: 462f d83c 67e6 323c 243a 6ebc 1015 003d
00000380: d155 e13c 98e2 db3b ab35 113d 49dc c83b
00000390: 701d dabc 7610 7e3c ab7b d63c b5b6 9f39
000003a0: 039d 063c 384e 2c3d 9d1c 13bd 5e3c 50bd
000003b0: d034 253d c088 d03c 6aaf 34bd 285f 123d
000003c0: b9f0 cc3b f792 25bd 3ca6 dc3c f25e 9b3b
000003d0: 81f3 92bd f3da fd38 385a 543c 9533 83bd
000003e0: 6f97 f5bc ef2d 773d 7fb1 293c c6a2 813d
000003f0: 0740 263d 6d8c 22bd afd9 05bd 0000 efbc
0.043934494 -0.060634963 0.015866207 -0.05283436 -0.05681122 -0.030776799 -0.0076962705 0.0033817189
0.053015154 0.010111072 -0.0045723803 0.011861285 -0.037272975 -0.013103338 -0.02953188 -0.028254054
-0.018522019 -0.015501998 0.039764605 -0.014320137 -0.0158551 0.07931177 -0.0066154297 0.00046877348
-0.034469325 0.038283546 -0.053033497 0.02447893 -0.03458704 0.012236181 -0.018636286 0.019362967
0.02394455 0.049848232 0.024380079 0.0046739625 0.02824131 -0.0055620912 -0.04115057 0.023718243
-0.0005494968 -0.01933281 -0.024802951 0.0065731998 0.047435723 -0.0077208546 -0.019506631 -0.029112967
-0.010713092 -0.00094651396 -0.06496993 -0.0070027797 0.036097568 0.008457302 -0.058203034 0.023018118
0.021375684 0.10276247 -0.011222 0.0285089 -0.009447004 0.0012696922 0.015319633 0.021687528
0.050675 -0.022874048 0.031958915 0.017739672 -0.01318708 0.0021257955 -0.028320683 -0.03166882
-0.016378969 -0.017365733 -0.01810507 -0.03675762 0.02913383 0.021388311 -0.0009710549 -0.022613348
0.035079885 0.023548594 0.025262818 -0.0059941947 0.004620753 -0.013837624 0.041862167 0.040111206
0.039198335 -0.02861752 0.029528718 0.04453206 -0.051126737 -0.03417965 -0.017032003 0.021791695
-0.020105122 0.030628823 0.06703279 0.027105069 -0.0003332234 -0.059476074 -0.032481544 0.029267149
-0.051974356 -0.008012889 0.011115854 -0.010795359 -0.016953243 0.02038682 -0.07105994 0.04372767
-0.012978612 0.005012551 -0.0026279564 -0.026374463 0.01226724 -0.02502477 -0.019122394 0.0008603666
-0.0052882186 -0.021113489 -0.047860414 -0.009935381 -0.026900403 0.0248407 0.035546 -0.0020343526
-0.011145281 0.014845065 -0.01776375 -0.020568253 -0.051152486 -0.013041816 -0.01081733 0.07327628
0.014472947 -0.03399948 0.027516596 -0.020772073 -0.035241168 -0.02821106 0.009098442 0.006295445
-0.022798425 0.012575818 0.008582578 -0.025105331 -0.068003856 0.018523036 -0.053893033 0.052895494
-0.015291647 0.00976839 -0.07208628 -0.04770947 0.0070485654 -0.0064964313 -0.042829193 -0.045320366
0.04049296 0.06793758 0.018628137 -0.015856974 -0.011668661 0.03758457 0.015150101 -0.0015535819
0.0018836372 0.019918768 0.019665567 0.009489003 0.003059322 0.032244023 0.045002386 -0.04485453
-0.0073106345 -0.0077896146 0.061218746 -0.0054349843 -0.053740606 -0.010939474 0.070492916 -0.0036599676
-0.027426727 0.0230096 -0.051712416 0.023388362 -0.015045918 -0.079136655 -0.085122176 -0.067278564
-0.04272983 -0.0150912125 -0.004446942 0.010834113 -0.019198932 0.0062325695 -0.006900831 0.011471593
0.010569281 0.016058644 0.010966919 0.022523643 -0.060795996 -0.007039571 0.048329055 0.0025912875
0.04058229 0.06297219 0.038945828 -0.008328382 -0.006195672 0.039954767 0.00064156967 -0.05357504
0.029022785 0.033730786 0.0007044393 -0.052950934 0.02638973 0.01091919 -0.014540229 0.031270087
0.02750674 0.0067103617 0.035451572 0.0061297757 -0.026625365 0.015506854 0.026182016 0.0003046297
0.008216145 0.042066783 -0.03591596 -0.05083882 0.04033357 0.025455832 -0.0441126 0.03573528
0.0062542823 -0.04042336 0.026934735 0.004741543 -0.07175351 0.000121047626 0.012960963 -0.06406323
-0.029979436 0.06034654 0.01035726 0.06329875 0.040588405 -0.0396847 -0.032678302 -0.029174805

base.mlp.fc1.0.bias f4 [64]
00000000: a564 b63b edd7 113c 353a 8e3a 97dc cebb
00000010: 79d9 03bc d84e 80bb cf1d 083c 5407 09bc
00000020: e159 e53b 5e28 033c b80b f2bb 16f0 c8bb
00000030: 7964 413b 0be9 d2bb 07c3 a23b 76fc 9cbb
00000040: 6967 a53b ab5a 08bc ec53 fc3b 519c cabb
00000050: 99bd ff3b 018c f9bb f7fc 19bc 094f e2bb
00000060: 836a b53a 9675 bcbb 222a 86bb 8f0b 19bc
00000070: 5f77 64bb 732d cd3b 68a6 c93b 610a d13b
00000080: faf9 a23b 298b abbb 142d f93b 288e 903b
00000090: e23d 98bb a6d8 ff3b d035 303c 3010 e23b
000000a0: 1c80 fcbb f956 afbb 562b 01bc cea4 06bc
000000b0: 0541 b9bb e1ae 083c 1425 7e3b ef24 fe3b
000000c0: 0920 f0bb 0fb6 d4bb f0d1 fe3b b077 e4bb
000000d0: 9f7e 07bc fd29 97bb d6c7 acbb f0c2 e7bb
000000e0: cacd d4bb c4f2 033c cd64 963b 9a93 b03b
000000f0: cd42 fd3b 14e6 99bb a138 85bb 3cc0 023c
0.005566197 0.008901578 0.0010851087 -0.0063129175 -0.008047455 -0.003915649 0.008307888 -0.008363564
0.00699924 0.00800523 -0.007386651 -0.006132136 0.002950935 -0.0064364723 0.0049670967 -0.004790838
0.005047728 -0.008322398 0.007700434 -0.006183185 0.007804584 -0.0076155667 -0.00939869 -0.0069063944
0.0013840947 -0.005751322 -0.004094378 -0.009341135 -0.003486119 0.0062615215 0.0061538704 0.006379411
0.004973647 -0.005235095 0.0076042507 0.0044114776 -0.004646049 0.007807809 0.010755017 0.0068989024
-0.0077057015 -0.005350944 -0.007883867 -0.008218003 -0.005653503 0.008342476 0.0038779425 0.0077558677
-0.0073280376 -0.0064914296 0.0077764913 -0.0069722757 -0.008269935 -0.0046131597 -0.0052728457 -0.007072799
-0.0064942585 0.008053485 0.004589653 0.005388689 0.0077289105 -0.004696617 -0.0040655886 0.007980403

base.mlp.fc1.2.weight f4 [64]
00000000: f395 803f 721a 803f eafb 7e3f 83eb 7b3f
00000010: 4277 7f3f 7660 7f3f 548a 7f3f f4d9 7e3f
00000020: 9035 7f3f 6c7d 7f3f b8f6 803f 2f4b 7e3f
00000030: 08bc 7f3f a7b5 803f 606f 813f 0862 7f3f
00000040: 5669 7d3f a232 803f 4718 7f3f 9f92 7d3f
00000050: 2bcb 7e3f 5653 803f 5c19 803f fc83 813f
00000060: 5bb4 7c3f 013d 803f 1a1d 803f 8e02 7f3f
00000070: 0c97 7f3f 4d12 7f3f fc9b 813f bf93 803f
00000080: cc31 7f3f 6e19 7b3f 3bcc 7f3f 650c 813f
00000090: 0f39 803f b688 813f c956 7e3f 7732 813f
000000a0: e59c 803f 3043 7f3f 419a 7f3f 46c9 803f
000000b0: d748 7f3f 10e4 813f c09d 7f3f c797 803f
000000c0: 5d03 813f d2c7 803f d1e5 7f3f b5d7 7f3f
000000d0: dc21 813f 8100 7e3f a378 7f3f 5e9f 803f
000000e0: 5412 803f 17db 7f3f 2ea5 7f3f 473c 7f3f
000000f0: 04e9 803f 6406 803f d1ab 7e3f 9225 803f
1.0045761 1.000807 0.9960314 0.9840624 0.9979135 0.9975656 0.99820447 0.9955132
0.99691105 0.99800754 1.0075293 0.9933347 0.9989629 1.0055436 1.0112114 0.9975896
0.98988855 1.0015452 0.9964642 0.9905185 0.9952876 1.0025432 1.0007739 1.0118403
0.987127 1.0018617 1.0008881 0.99613273 0.99839854 0.996373 1.0125728 1.0045089
0.9968536 0.9808568 0.99921006 1.0081908 1.0017413 1.0119846 0.99351174 1.0093526
1.004788 0.99711895 0.9984475 1.0061424 0.9972052 1.0147724 0.9985008 1.0046319
1.0079151 1.006098 0.99960047 0.9993852 1.0088458 0.9921952 0.9979345 1.0048635
1.0005593 0.9994368 0.9986142 0.9970135 1.0071111 1.000195 0.9948092 1.0011466

base.mlp.fc1.2.bias f4 [64]
00000000: 3dcc a93b 6047 c53a a06e 263a 08ff 2d3c
00000010: f47e 193b f563 283b 4a40 073c 2ee4 5a3b
00000020: 76d6 b6b9 8f0a 8bba 31d5 59bc 3407 91ba
00000030: c2d6 353a f52d b6bb 298a 3d3c aba7 283b
00000040: ea83 24bc d257 d5bb a958 463b 5b14 933b
00000050: 3d0d 243b 0073 53bb f625 18bc 5380 44bc
00000060: 0f15 1bba c2c9 faba 0049 73ba bad6 4abb
00000070: 46bc 60bb 214a 873b 5cbb 533c 0544 963b
00000080: 35c4 18bb 5661 fbba 633b 853b 494f 083c
00000090: eb95 92ba 8c91 423c 2cf1 6239 bb78 173c
000000a0: 59d0 94bb 1bc0 003b 845e cb39 7fe9 24bc
000000b0: 20c3 d539 9ebb 773c 7cb4 bbba 92ee 8f3b
000000c0: 3236 05bc 6527 20bc a031 30ba cf94 8b39
000000d0: 71d1 65bc a076 e63b 355a e43a 3f1e a3bb
000000e0: abf0 ceb9 8da6 d03b 7d49 93ba 289c 4f3a
000000f0: a5c1 f23b 0af3 83ba a20c d0ba 738d a03b
0.005181818 0.0015051179 0.0006348882 0.010619886 0.0023421617 0.0025694345 0.008255074 0.0033400166
-0.0003487353 -0.0010608005 -0.013295458 -0.0011064769 0.00069366035 -0.0055596777 0.0115685845 0.0025734704
-0.010041216 -0.006510713 0.0030265248 0.0044885105 0.0025032305 -0.003226459 -0.009286394 -0.0119934855
-0.0005915919 -0.0019133615 -0.0009280592 -0.003095074 -0.0034291907 0.00412871 0.012923088 0.0045857453
-0.0023310308 -0.0019178789 0.0040659173 0.008319684 -0.0011183595 0.011875521 0.00021642883 0.009245093
-0.0045414385 0.0019645754 0.00038789597 -0.010065435 0.00040771905 0.015120415 -0.0014320756 0.0043924535
-0.008130597 -0.009775017 -0.0006721262 0.00026623017 -0.0140269855 0.007033184 0.0017421903 -0.004977971
-0.00039470693 0.0063675107 -0.0011237111 0.00079196924 0.007408338 -0.0010066938 -0.0015872905 0.0048996746

base.mlp.fc_h.0.weight f4 [64, 64]
00000000: 1588 b0bd 008c 3439 5666 07bd 11f6 41be
00000010: 4c72 f53c dbe2 bb3e 6a42 60bc 64e5 833c
00000020: c495 123e f521 5cbd 48d1 393e e7b5 1f3e
00000030: 5e58 99bd 7ea5 79bc 6ab7 3bbd ff05 853e
00000040: edcc 9b3e 50a9 dd3d 425f ef3e 8011 23be
00000050: 0a4d 413d 4dee 30be f680 22be f501 773b
00000060: b787 873e 1c50 e83d 92b5 b33b 4e6c 9b3d
00000070: d786 87be e28c 94be a070 32be 2f14 09bf
00000080: ddda ddbd d881 3c3e a72c 4dbe 865a 31be
00000090: abdb adbd ea31 8abe c552 243e f902 603e
000000a0: b307 b63e 6aba 00be 5ffc 96be 15ed cb3b
000000b0: 96fa f33d b286 1fbd 9b27 773e e798 033f
000000c0: 6b56 ffbd 10c1 18be a944 8ebe f92a a2bc
000000d0: 9830 25be ef13 ab3e a69c a63e 2181 32be
000000e0: 54e9 153e aeb5 bebd 35c7 ce3d 4824 b63e
000000f0: 77c4 5dbe a838 95bd d2a4 323e 00ae 9739
00000100: 126d 97be 55f9 d1bc 31af 833e cf20 153e
00000110: 3594 973e 8891 d13e b2b3 4cbd fdf1 bdbe
00000120: b843 a23e 5ad5 733e 7445 163e 8122 5e3e
00000130: 3153 4b3e bde3 c93d 4278 aabe f4c4 7fbd
00000140: b6de 93be f3ba 5bbe 24b2 98be 4e5d 86be
00000150: 8040 c2bc 0e97 20be 5616 dc3d 2834 6e3e
00000160: 360a 203d b3e1 b23c d798 39be 197c 4abe
00000170: 5171 313e 95f0 743d a97e 8bbd 9798 f2bd
00000180: c8ec 9fbc 849e 50be cbc9 29be 199c 1ebe
00000190: d751 073e 235b 073e 1d77 16be 7107 023e
000001a0: 2d6b 08be 2b75 263e 51fc c6be de67 16bb
000001b0: 7e16 a83e d71d 2b3e 2b67 b9bd 7e85 1d3e
000001c0: 028b e53d a7b7 803e 5cd6 1cbe 9bcd 70bd
000001d0: c8f3 453e a64c 24bd 587e 28be 1984 9f3e
000001e0: a05a 11be b27b 913e 26a4 fe3c b129 89be
000001f0: f76f 8dbe 77a6 cebd 9357 f93e d3e6 143e
00000200: cb3e 433c 8f7b 9c3e 2a9b ef3c c7c0 d3bd
00000210: c46e 383e cf72 20be bb20 043e f704 43be
00000220: 91bd bfbd 8c2b 3c3e 4420 f8be 0554 8dbc
00000230: db42 3fbc f796 1fbf 7061 94be cc9b f13e
00000240: 82a6 e6bc 7a04 81bd 7bde 0d3e 6538 e7bd
00000250: 0793 933e 1499 d53a ac3c 47be 6bff 373e
00000260: 464e 5abe ec43 133d a6d1 993e 5ff0 423e
00000270: 5e79 3a3e 1d8d 013d 5f58 913e 0b9e 473e
00000280: e94a 79bd c662 253c e056 703e 37e2 c8be
00000290: bf9c c4bd 6111 b3bd 7985 5dbe 41e0 4f3d
000002a0: 65d9 023f 1494 313e 8a92 b93c 15a8 043e
000002b0: 034d f03d fcca 26be 8a9b d43c 8889 d0bd
000002c0: 2f4e d73e 6e78 66bd f38c 053e 9ef6 043e
000002d0: d93e 623e 5bae 073e 7871 f3bd 4ec2 673d
000002e0: 36cd e03d ce6f 3abd a9fb 963d ae7b 063d
000002f0: 49b1 a2be 62fb 673d f708 ebbc 4a96 db3d
00000300: 5d39 423e 82f6 a0be 6f41 773d a55d 11be
00000310: 9e7e 9b3e 7c43 4a3e 6a63 2e3e 9b9b 643e
00000320: ad99 31be 9d61 ddbd b2d4 b6be 7232 7c3d
00000330: 9424 ca3d 2477 dfbd ecfb b63d 1f17 3c3e
00000340: bfec 30be 94dc 45be b14b b83e 7991 c5bd
00000350: 7bb5 9d3e 4540 103e 3c5c df3e 9b1f cd3e
00000360: 8c69 1d3e 59dc f7bc 4452 98be 063b 2f3d
00000370: e4a9 a7bd 3ebb 3c3d c4c6 0ebf cbad cbbd
00000380: ca81 973d 4ab8 1abe 0d1c a03e a9d4 f23d
00000390: fb66 87be 576d a53e b304 3f3e f1bf 00bd
000003a0: 328e 08be fe50 073d c1a3 eabd c990 f53d
000003b0: aafe a23d d8a7 d7bd aad9 10be 9aba a6bc
000003c0: 7ed5 843e d0e6 b2be 44c3 3ebe 2d58 31be
000003d0: 118e 2cbe bf03 0e3e ae7d 8dbe 597a 3c3d
000003e0: dcf9 c4be 0bfe c13b 6956 aabd 98bf 643d
000003f0: 6ffa 793e eba4 8b3d ffac 0bbe 312c dfbc
-0.086197056 0.00017218292 -0.03305658 -0.18941523 0.029961728 0.36696514 -0.013687709 0.016100593
0.14314944 -0.05374332 0.1814624 0.15596734 -0.07487558 -0.01523721 -0.045829214 0.25981137
0.30429783 0.108233094 0.46752363 -0.15924644 0.04719261 -0.17278405 -0.15869507 0.0037690375
0.2647073 0.11343405 0.0054842914 0.07589017 -0.26470062 -0.29013735 -0.17425776 -0.5354642
-0.108327605 0.18408906 -0.20036565 -0.17319688 -0.08489164 -0.26991206 0.16047199 0.21876134
0.3555275 -0.12571111 -0.2948942 0.0062233307 0.1191303 -0.038946815 0.24136202 0.51405185
-0.12467655 -0.14917397 -0.2778676 -0.019795882 -0.16131818 0.33413646 0.32541388 -0.17432071
0.14639789 -0.093119964 0.100965895 0.35574555 -0.21656977 -0.07286197 0.17445686 0.00028930604
-0.29575402 -0.025631586 0.25719598 0.14563297 0.2960526 0.40931344 -0.04997606 -0.37098685
0.3169229 0.23811856 0.14674932 0.2169285 0.19855954 0.09857891 -0.33294874 -0.06244369
-0.28880852 -0.21458034 -0.2982341 -0.2624306 -0.023712397 -0.15682623 0.10746448 0.23262084
0.039072238 0.021836137 -0.1812471 -0.19773902 0.17328383 0.05979975 -0.06811268 -0.118455105
-0.019522086 -0.20372969 -0.16580884 -0.15489234 0.13214813 0.1321836 -0.14693876 0.12698151
-0.13322134 0.16255634 -0.38864377 -0.0022950093 0.3282966 0.16710602 -0.09052881 0.15382954
0.11208154 0.25140116 -0.15316147 -0.05878983 0.19331276 -0.04011216 -0.16454446 0.3115547
-0.14194727 0.28414685 0.031084131 -0.2678962 -0.27624485 -0.100903444 0.48699626 0.14541177
0.0119168265 0.30563018 0.029248793 -0.10339504 0.18011004 -0.15668796 0.1290311 -0.19044863
-0.09362329 0.18375987 -0.48462117 -0.017251978 -0.011673654 -0.6233973 -0.2898059 0.47189176
-0.028155569 -0.06299682 0.13854401 -0.11290053 0.2882311 0.0016296231 -0.19456738 0.17968528
-0.21318921 0.035953447 0.30042762 0.19037007 0.1821036 0.031628717 0.28387734 0.19493882
-0.060862456 0.01009435 0.2347064 -0.39235088 -0.096002094 -0.08743549 -0.21632947 0.050750975
0.5111297 0.17341644 0.022652883 0.12954743 0.11733439 -0.1628837 0.025953073 -0.10182482
0.42051837 -0.056267194 0.13042049 0.12984702 0.22094287 0.13250105 -0.11886877 0.056581788
0.10976641 -0.04551678 0.07372219 0.032832794 -0.31775883 0.05663622 -0.028690798 0.10722025
0.18967195 -0.3143807 0.060365137 -0.14195879 0.3037004 0.19752306 0.17030111 0.22324984
-0.17343779 -0.10809634 -0.3570915 0.061571546 0.09870258 -0.10911396 0.08934769 0.18368195
-0.17277811 -0.19322425 0.35995248 -0.09646887 0.3080252 0.14087017 0.43625057 0.40063176
0.15372294 -0.030256437 -0.29750264 0.0427809 -0.08186701 0.046077006 -0.5577204 -0.09945258
0.07397802 -0.15109363 0.312714 0.11856968 -0.26445755 0.32309982 0.18654136 -0.03143305
-0.13335493 0.033036225 -0.11457015 0.11990506 0.079587296 -0.105300605 -0.14145532 -0.02035265
0.25944132 -0.3494172 -0.18629175 -0.17318793 -0.16851069 0.13868617 -0.27634948 0.046015117
-0.38471878 0.005920177 -0.08317263 0.05584678 0.24411939 0.06818565 -0.13640212 -0.027242752

base.mlp.fc_h.0.bias f4 [64]
00000000: 0000 0000 0000 0000 0000 0000 0000 0000
00000010: 0000 0000 0000 0000 0000 0000 0000 0000
00000020: 0000 0000 0000 0000 0000 0000 0000 0000
00000030: 0000 0000 0000 0000 0000 0000 0000 0000
00000040: 0000 0000 0000 0000 0000 0000 0000 0000
00000050: 0000 0000 0000 0000 0000 0000 0000 0000
00000060: 0000 0000 0000 0000 0000 0000 0000 0000
00000070: 0000 0000 0000 0000 0000 0000 0000 0000
00000080: 0000 0000 0000 0000 0000 0000 0000 0000
00000090: 0000 0000 0000 0000 0000 0000 0000 0000
000000a0: 0000 0000 0000 0000 0000 0000 0000 0000
000000b0: 0000 0000 0000 0000 0000 0000 0000 0000
000000c0: 0000 0000 0000 0000 0000 0000 0000 0000
000000d0: 0000 0000 0000 0000 0000 0000 0000 0000
000000e0: 0000 0000 0000 0000 0000 0000 0000 0000
000000f0: 0000 0000 0000 0000 0000 0000 0000 0000
0.0 0.0 0.0 0.0 0.0 0.0 0.0 0.0
0.0 0.0 0.0 0.0 0.0 0.0 0.0 0.0
0.0 0.0 0.0 0.0 0.0 0.0 0.0 0.0
0.0 0.0 0.0 0.0 0.0 0.0 0.0 0.0
0.0 0.0 0.0 0.0 0.0 0.0 0.0 0.0
0.0 0.0 0.0 0.0 0.0 0.0 0.0 0.0
0.0 0.0 0.0 0.0 0.0 0.0 0.0 0.0
0.0 0.0 0.0 0.0 0.0 0.0 0.0 0.0

base.mlp.fc_h.2.weight f4 [64]
00000000: 0000 803f 0000 803f 0000 803f 0000 803f
00000010: 0000 803f 0000 803f 0000 803f 0000 803f
00000020: 0000 803f 0000 803f 0000 803f 0000 803f
00000030: 0000 803f 0000 803f 0000 803f 0000 803f
00000040: 0000 803f 0000 803f 0000 803f 0000 803f
00000050: 0000 803f 0000 803f 0000 803f 0000 803f
00000060: 0000 803f 0000 803f 0000 803f 0000 803f
00000070: 0000 803f 0000 803f 0000 803f 0000 803f
00000080: 0000 803f 0000 803f 0000 803f 0000 803f
00000090: 0000 803f 0000 803f 0000 803f 0000 803f
000000a0: 0000 803f 0000 803f 0000 803f 0000 803f
000000b0: 0000 803f 0000 803f 0000 803f 0000 803f
000000c0: 0000 803f 0000 803f 0000 803f 0000 803f
000000d0: 0000 803f 0000 803f 0000 803f 0000 803f
000000e0: 0000 803f 0000 803f 0000 803f 0000 803f
000000f0: 0000 803f 0000 803f 0000 803f 0000 803f
1.0 1.0 1.0 1.0 1.0 1.0 1.0 1.0
1.0 1.0 1.0 1.0 1.0 1.0 1.0 1.0
1.0 1.0 1.0 1.0 1.0 1.0 1.0 1.0
1.0 1.0 1.0 1.0 1.0 1.0 1.0 1.0
1.0 1.0 1.0 1.0 1.0 1.0 1.0 1.0
1.0 1.0 1.0 1.0 1.0 1.0 1.0 1.0
1.0 1.0 1.0 1.0 1.0 1.0 1.0 1.0
1.0 1.0 1.0 1.0 1.0 1.0 1.0 1.0

base.mlp.fc_h.2.bias f4 [64]
00000000: 0000 0000 0000 0000 0000 0000 0000 0000
00000010: 0000 0000 0000 0000 0000 0000 0000 0000
00000020: 0000 0000 0000 0000 0000 0000 0000 0000
00000030: 0000 0000 0000 0000 0000 0000 0000 0000
00000040: 0000 0000 0000 0000 0000 0000 0000 0000
00000050: 0000 0000 0000 0000 0000 0000 0000 0000
00000060: 0000 0000 0000 0000 0000 0000 0000 0000
00000070: 0000 0000 0000 0000 0000 0000 0000 0000
00000080: 0000 0000 0000 0000 0000 0000 0000 0000
00000090: 0000 0000 0000 0000 0000 0000 0000 0000
000000a0: 0000 0000 0000 0000 0000 0000 0000 0000
000000b0: 0000 0000 0000 0000 0000 0000 0000 0000
000000c0: 0000 0000 0000 0000 0000 0000 0000 0000
000000d0: 0000 0000 0000 0000 0000 0000 0000 0000
000000e0: 0000 0000 0000 0000 0000 0000 0000 0000
000000f0: 0000 0000 0000 0000 0000 0000 0000 0000
0.0 0.0 0.0 0.0 0.0 0.0 0.0 0.0
0.0 0.0 0.0 0.0 0.0 0.0 0.0 0.0
0.0 0.0 0.0 0.0 0.0 0.0 0.0 0.0
0.0 0.0 0.0 0.0 0.0 0.0 0.0 0.0
0.0 0.0 0.0 0.0 0.0 0.0 0.0 0.0
0.0 0.0 0.0 0.0 0.0 0.0 0.0 0.0
0.0 0.0 0.0 0.0 0.0 0.0 0.0 0.0
0.0 0.0 0.0 0.0 0.0 0.0 0.0 0.0

base.mlp.fc2.0.0.weight f4 [64, 64]
00000000: efd5 b3bd 3a40 0eba f6d2 dfbc f996 42be
00000010: 023b 003d 6487 bc3e 7f6c 56bc 62de 8f3c
00000020: bcce 113e 5749 5abd 02af 3a3e 7ad2 1f3e
00000030: b952 9dbd 06a3 64bc f390 47bd 0a95 843e
00000040: ad30 9b3e c6ba e33d 41b9 ee3e 3433 20be
00000050: 6092 363d ae8c 31be 0097 1fbe fc31 a53b
00000060: 4099 823e c0bf e53d 4f07 dd3b 5dea 993d
00000070: df12 85be 320d 96be 2096 33be 70c1 08bf
00000080: f959 dabd f0fb 263e cecb 4ebe cf06 30be
00000090: 55ae afbd 22a3 89be 82e1 1f3e 3e48 613e
000000a0: a6b1 b53e b8a2 fdbd 2c32 96be fb01 073c
000000b0: 2b10 fc3d 6eb0 1abd 8956 763e d1df 033f
000000c0: 4576 00be 163c 19be 8dab 8ebe b94f a8bc
000000d0: 62c4 22be cf39 ab3e db4a a63e 7c52 33be
000000e0: 09cd 173e 9113 babd 055b d13d 8130 b53e
000000f0: 4826 5dbe 1ac8 91bd afd3 353e 82e1 793a
00000100: 65fe 99be 828b e9bc f7a0 803e 74fd 1a3e
00000110: 9c94 9a3e 5d8f d43e b4af 52bd 47fd babe
00000120: 9334 a03e 1585 6f3e 0eb7 173e bc20 5d3e
00000130: 8a14 463e 7d91 d13d a9cd acbe 2ede 67bd
00000140: e8ad 96be 6684 5bbe 817b 9abe ecea 86be
00000150: 7155 c9bc 5813 1dbe 4cac d63d 5a5c 733e
00000160: 9d59 1b3d e537 e43c f20c 35be 1598 4dbe
00000170: 8cbe 353e 0a08 7a3d 1a27 98bd ad4b ffbd
00000180: c984 d5bc 6b48 47be dc4c 2dbe 62f0 24be
00000190: 7bdc 0d3e c22b 013e af4c 13be db1e f73d
000001a0: 7f34 02be 51a8 293e 751c c5be c6f2 dc39
000001b0: 3a75 aa3e 6fbf 243e 0e8f c1bd 470d 173e
000001c0: 4cc8 f13d 0be1 833e 9b89 20be f475 58bd
000001d0: 31b0 483e 1240 f5bc f32b 22be dd8e a23e
000001e0: 23e4 0dbe 161d 913e 64a4 cb3c 1efd 8bbe
000001f0: c1ac 91be 4b14 c9bd 7bec f73e e6f7 103e
00000200: 0c7d b13b 53cf 973e 3c62 823c eb75 c0bd
00000210: ab1f 423e c6aa 16be adef f73d 4199 39be
00000220: 880d d3bd a3d4 353e c936 f3be ef39 22bc
00000230: eded 9ebc c829 1dbf 0582 9abe 538d f63e
00000240: 8864 0dbd fc56 5cbd c94d 083e 93b1 ddbd
00000250: 56b8 8e3e c950 303c 4603 40be ec97 413e
00000260: cb38 57be fb5b 3a3d 9eb1 9e3e d99c 483e
00000270: 8dac 433e 3bdd d23c c0b3 8c3e 30d8 3d3e
00000280: bc02 91bd 5bf7 923c cff1 693e 4dbf cdbe
00000290: e933 b8bd d335 c6bd 234e 62be 5bfb 283d
000002a0: c481 043f e04c 373e b01c ea3c 8b5c 0a3e
000002b0: 0496 e93d 1f8a 30be 0076 a43c e9b8 e3bd
000002c0: 4438 dc3e f65a 4fbd c920 f83d 65c1 0e3e
000002d0: 419d 673e 1556 123e a756 e5bd f693 873d
000002e0: 41db f33d 1f2a 38bd ce6f 833d 36f2 eb3c
000002f0: d463 a7be b3d5 863d dd61 cbbc 5f73 d03d
00000300: 66e4 4c3e ae75 9bbe 0fde 7d3d 0c7f 1fbe
00000310: d6f4 953e 5510 3f3e 8ba3 2f3e e78a 593e
00000320: d259 26be f332 c1bd a847 bbbe 4a36 5a3d
00000330: 42da dd3d 4fee f5bd 9411 c93d 5dc7 303e
00000340: 718c 25be c146 4ebe dc82 be3e cd43 dfbd
00000350: dec6 a23e c05e 023e c232 da3e fb96 c73e
00000360: f671 1c3e 8326 28bd aff8 9dbe a2fa 423d
00000370: 1c85 b8bd e4f1 5b3d 4d4d 0bbf 84e6 b4bd
00000380: 24eb af3d 9b4a 1bbe c704 a73e 2801 053e
00000390: 4256 8dbe 5b25 ab3e ea26 4a3e 9000 a6bc
000003a0: 08cd 13be 966d a13c 4984 00be 3cd0 d93d
000003b0: ce6f 993d e301 c1bd 4f53 05be c62a 13bc
000003c0: de81 7e3e 8ff7 b9be 6581 33be 1e75 3cbe
000003d0: 73d1 37be ff65 013e 7c4d 93be a8f5 0f3d
000003e0: d5be cabe 368a 13ba 73aa 93bd 73ba 8c3d
000003f0: 3e9d 823e fe96 693d 9f48 01be c989 5ebc
-0.08781039 -0.00054264406 -0.027322274 -0.19002904 0.031306274 0.36822045 -0.013087391 0.017562095
0.14239019 -0.0532926 0.18230823 0.15607634 -0.07681794 -0.013954883 -0.04872222 0.25894958
0.30310574 0.111196086 0.46625713 -0.15644532 0.044573188 -0.17338821 -0.15584946 0.005041359
0.25507545 0.11218214 0.006745256 0.075154044 -0.2599096 -0.29306942 -0.17537737 -0.5342016
-0.10661692 0.16307044 -0.20194933 -0.17190097 -0.08578173 -0.26882273 0.15613368 0.22000214
0.35487098 -0.12384552 -0.29335153 0.008240218 0.12307771 -0.037765913 0.24056448 0.5151339
-0.12545116 -0.14964327 -0.27865258 -0.020545827 -0.15895227 0.33442542 0.32478985 -0.17511934
0.14824308 -0.09085763 0.10222439 0.35388568 -0.21596634 -0.071182445 0.17756532 0.00095321995
-0.300769 -0.028508905 0.25122806 0.15135747 0.30191505 0.41515628 -0.051437095 -0.3652136
0.3129011 0.2339061 0.14815924 0.21594518 0.19343773 0.10232828 -0.33750656 -0.05660837
-0.29429555 -0.21437225 -0.3017235 -0.26351106 -0.024576874 -0.1533941 0.10482082 0.23765698
0.03792726 0.027858684 -0.1768072 -0.20077546 0.17748469 0.061042823 -0.07429333 -0.12465606
-0.026064293 -0.19461219 -0.16923851 -0.16107324 0.13853638 0.12614349 -0.14384721 0.12066432
-0.12715338 0.16568114 -0.38498273 0.0004214255 0.33292562 0.16088651 -0.09451114 0.14751159
0.11805782 0.25757632 -0.15677492 -0.052846864 0.19598462 -0.029937778 -0.15837078 0.3174962
-0.13856559 0.28342503 0.024858661 -0.2734155 -0.28452113 -0.09818324 0.48422608 0.14157066
0.005416518 0.29650363 0.015915982 -0.09397491 0.18957393 -0.14713582 0.121062614 -0.18124868
-0.10305315 0.17756896 -0.47502735 -0.009901508 -0.019400561 -0.6139188 -0.30177322 0.48154697
-0.034519702 -0.053793892 0.13310923 -0.10824885 0.27875012 0.010761448 -0.18751249 0.1890561
-0.21017759 0.045497876 0.30994886 0.19591083 0.19108792 0.025740257 0.27480888 0.185395
-0.070806 0.017940214 0.22846149 -0.40185013 -0.08994276 -0.09678235 -0.2210012 0.041255336
0.51760507 0.17900419 0.028578132 0.13511865 0.11405566 -0.17240189 0.020075798 -0.11119253
0.43011677 -0.050623856 0.12115628 0.13940962 0.22618581 0.1429065 -0.11198168 0.06620018
0.11907054 -0.044962045 0.064178094 0.028802019 -0.3269335 0.06583729 -0.024826938 0.10178255
0.20009002 -0.3036322 0.06197935 -0.15575808 0.29288357 0.18658574 0.1715223 0.21244393
-0.16245201 -0.09433546 -0.36578107 0.05327443 0.10832645 -0.120083444 0.09817806 0.17263551
-0.16166855 -0.20144178 0.37209213 -0.10901604 0.3179235 0.12731457 0.4261685 0.38982376
0.15277848 -0.041052353 -0.30853793 0.047602303 -0.090097636 0.05369748 -0.54414827 -0.0883303
0.085897714 -0.15165178 0.32620832 0.12988722 -0.27604872 0.33426937 0.19741407 -0.02026394
-0.14433682 0.019705575 -0.12550463 0.10635421 0.07492028 -0.09424188 -0.13020061 -0.008982366
0.24854228 -0.36321685 -0.17529829 -0.18404052 -0.17950992 0.12636565 -0.28770053 0.035146385
-0.39598718 -0.00056282 -0.07210245 0.068715 0.2551059 0.057028763 -0.12625359 -0.013582655

base.mlp.fc2.0.0.bias f4 [64]
00000000: 7947 843a c11b cfbb 2660 1cbc f409 363c
00000010: 68d7 69bb 04f4 a03b 31fa e93b ca78 2bbc
00000020: f500 1e3c c2ea 423c 4cbc 9839 2bdc 4e3b
00000030: efd8 263a 4b4f 35bb 332a 2c3c 8f41 adb9
00000040: 79e6 803b d2fe 8dbb 64cd ce3b b744 4ebc
00000050: 2c7c 103c 61cf 263b 9f5a 273b 84c2 8cbb
00000060: 1a7c 4b3c 000c 8c3b d203 54bc ed2c edbb
00000070: 8c29 e13b 6933 babb 5683 b13a ab1d 3ebc
00000080: d57a b83b 5296 853a d8d7 fb3a ac89 f7b9
00000090: 3ba7 86b8 0a46 303a 870a 48b9 8fec 45bc
000000a0: 6569 113c 00df 2ebc bea9 d93b e337 9e3b
000000b0: 646e 833b c828 053c 8062 25bc d6e3 cfbb
000000c0: 9377 be3a 8fa4 34bc 4f46 b5bb 2c28 30bb
000000d0: 6b41 6e3b a1a7 65ba 70f9 133c 5395 dcba
000000e0: 7976 30ba 3094 73bb 0179 423c 5912 ce3b
000000f0: deaf 1b3b 5e3b 3dba 91bb 0f3c bc4c d13a
0.0010092101 -0.006320447 -0.009544408 0.011110771 -0.003568137 0.0049119014 0.007140421 -0.01046581
0.009643783 0.011896791 0.0002913199 0.0031564336 0.0006364723 -0.002766567 0.010508108 -0.00033045976
0.0039337245 -0.0043333555 0.0063111056 -0.012589625 0.008818667 0.0025453197 0.0025536192 -0.004295649
0.012419725 0.0042738914 -0.012940364 -0.0072380216 0.006871408 -0.005682398 0.001354317 -0.011603753
0.005629877 0.0010191894 0.0019214107 -0.00047214085 -6.420767e-05 0.0006724304 -0.00019077408 -0.012080326
0.008875226 -0.0106732845 0.0066425493 0.0048284396 0.0040109623 0.008127399 -0.010094285 -0.006344299
0.0014531486 -0.011025562 -0.005532063 -0.0026879413 0.003635491 -0.00087606354 0.0090316385 -0.001682917
-0.0006731521 -0.0037167184 0.01186967 0.0062888083 0.0023755948 -0.0007218624 0.008772747 0.0015968303

base.mlp.fc2.0.2.weight f4 [64]
00000000: 12c0 7c3f 6a8e 813f 5cd5 803f 1c3c 813f
00000010: 626b 803f e68e 803f c7b6 7a3f e757 813f
00000020: 390a 7e3f 6fc4 803f fae0 803f f252 7e3f
00000030: 5a23 7e3f 2e48 803f acab 803f 0d9d 803f
00000040: 534c 803f 378c 803f c6f2 7d3f 33ec 803f
00000050: 52d4 803f 6e30 7f3f 7a8a 7e3f 4c07 813f
00000060: 6a8d 7c3f 3789 803f 61ef 803f 19f1 7e3f
00000070: 1c8f 803f 68b3 7e3f e838 7e3f 70b0 803f
00000080: c4ae 7f3f b183 7d3f b214 803f bc12 7f3f
00000090: 7422 813f ebae 7f3f 8b15 803f fa78 803f
000000a0: bf14 813f f5a3 803f 73f7 7f3f 145c 803f
000000b0: ff12 7f3f e58c 803f 9fa0 803f c508 803f
000000c0: 175a 803f 7b4a 813f 9503 823f 93e1 7f3f
000000d0: 1606 7e3f 5011 7d3f b7eb 7f3f ef80 7e3f
000000e0: c3be 7e3f 8a67 803f 3dd1 803f 7c71 7e3f
000000f0: 505d 803f 1eb2 7c3f b67d 803f 783b 7f3f
0.98730576 1.0121586 1.0065112 1.0096469 1.0032771 1.0043609 0.97935146 1.0104951
0.9923435 1.0059947 1.0068657 0.99345315 0.9927269 1.0022027 1.005239 1.0047928
1.0023292 1.004279 0.9919857 1.0072082 1.0064795 0.9968327 0.9943005 1.0080352
0.9865328 1.0041875 1.0073053 0.99586636 1.0043674 0.994925 0.9930558 1.0053844
0.99876046 0.9902907 1.0006316 0.9963796 1.0088639 0.9987628 1.0006574 1.0036919
1.0084456 1.0050036 0.9998695 1.00281 0.9963836 1.0042998 1.0049018 1.0002676
1.0027493 1.0100855 1.0157343 0.99953574 0.99228036 0.9885454 0.9996905 0.9941549
0.9950983 1.0031598 1.0063854 0.99391913 1.0028477 0.98709285 1.0038364 0.9970012

base.mlp.fc2.0.2.bias f4 [64]
00000000: 5c5a 943a ff12 66bc 18cf 04bc 2c97 503c
00000010: d050 6bbb ed4d f93b 4692 6f3b e300 28bc
00000020: 7446 033c b6c0 ec3b 69c6 ce3b d2cc 2c3a
00000030: a689 48bb 7599 d8ba cb0f 123c 4050 6dbb
00000040: a3af 873b 1072 b8ba 634d 9c3a 36d2 0dbc
00000050: 9c63 2a3c f73a 05bb 62db f3bb c763 9abb
00000060: d679 743c 4a74 a43b 6c63 2cbc 4e0b df3a
00000070: 4eaa 0e3c d7d3 b8bb 83d8 cf3b 64ba dcbb
00000080: cc4b 22bb 26ef 79ba 1d91 67ba ab59 c0bb
00000090: b2a8 0a3c db77 ba3a e18e 2ebb 4e25 bcbb
000000a0: e4a4 3a3c ef58 3dbc 83e3 a73b 7375 ac3b
000000b0: 2a2c 80bb 2e00 ad3b aec3 2cbc 5bd8 18bc
000000c0: 7b94 163b dd05 36bc e3d1 7bbc d41b ff3a
000000d0: 4106 663a c275 963b cca1 ee39 0850 0b3b
000000e0: 18d0 2bbb d919 4cbb c158 2e3c 83d2 22bb
000000f0: eac5 09bb c506 d13a 976c 863b 668b a7ba
0.0011318433 -0.014042615 -0.008106016 0.012731355 -0.0035906322 0.0076081664 0.0036555692 -0.010254118
0.008012403 0.0072251214 0.0063102734 0.00065918 -0.0030599623 -0.0016525226 0.008914898 -0.0036211163
0.0041408106 -0.0014072079 0.0011924919 -0.008656075 0.010399725 -0.0020329335 -0.007441924 -0.0047116014
0.014921626 0.0050187455 -0.010521751 0.0017016919 0.008707596 -0.0056404877 0.006342949 -0.0067360867
-0.0024764417 -0.0009534232 -0.0008833574 -0.0058700643 0.008463072 0.0014226394 -0.0026635455 -0.0057417518
0.011391852 -0.011556848 0.005123557 0.0052630245 -0.0039115148 0.0052795624 -0.010544701 -0.009328927
0.0022976685 -0.011109796 -0.015369865 0.001946325 0.00087747356 0.0045916745 0.00045515446 0.002125742
-0.0026216563 -0.0031143336 0.010641278 -0.0024844713 -0.0021022507 0.0015947452 0.0041023004 -0.0012782633

base.mlp.fc2.1.0.weight f4 [64, 64]
00000000: c932 bcbd 3956 d8ba e69e 19bd 9a75 40be
00000010: 541d d33c fe7e bc3e b0d0 94bb c145 233c
00000020: 33a4 053e 5618 4cbd cee7 3c3e 82e0 1f3e
00000030: c329 92bd 58cb c1bc 5e69 31bd 910d 843e
00000040: 4a28 9d3e 6bdd ce3d 1e53 ef3e 0f19 27be
00000050: 4a34 583d b7e6 27be 7d81 20be eb5b 48bb
00000060: e27a 853e 685a ee3d c665 313b d0b5 8a3d
00000070: f110 83be 8ee0 92be 5d0a 39be c90e 0abf
00000080: d299 d7bd bf4a 363e 3ecf 50be 55f2 2bbe
00000090: c136 a6bd 755f 8bbe 4b2c 2b3e 70a5 5b3e
000000a0: 965e b93e a1f5 02be 7187 94be fbee 343c
000000b0: 1b9d fc3d 9d34 0cbd 512c 6e3e adca 023f
000000c0: 94d6 f7bd b07f 1bbe cf41 91be 691e 81bc
000000d0: d716 1fbe 658f a93e 2310 a93e 2e41 3bbe
000000e0: f3f9 1f3e 71c0 c7bd 5b20 e33d cf7d b73e
000000f0: 476e 61be 0e5d 87bd 6d76 363e 9ae8 7d3b
00000100: e56a 94be ea76 19bd 0ba6 7e3e db1d 1e3e
00000110: b360 943e 29de d53e 85a6 4ebd 6a2a c0be
00000120: 1c23 a43e f0d3 7b3e 5cf7 1e3e cd03 613e
00000130: 12bb 4a3e f80c b83d 9e5f a5be 497d 84bd
00000140: f64f 90be f210 55be f835 97be 2c93 89be
00000150: ef40 82bc a104 1bbe c86e e73d ffe1 6a3e
00000160: 61f7 fb3c c943 f63c 2fac 40be c4fa 50be
00000170: 3fae 393e 9f74 8c3d 4e52 9bbd 0b52 02be
00000180: a020 42bc c0a7 5abe f880 31be 6d46 17be
00000190: 6243 0f3e 8fd2 003e 92d0 1bbe 20b5 f23d
000001a0: 963f 01be ed0e 1d3e 0c13 c3be de76 a73b
000001b0: 31a3 ac3e 620b 313e 1036 cabd 39e2 153e
000001c0: f586 f53d 846b 783e b227 25be 98d2 5bbd
000001d0: 6dc5 473e 115b 3dbd 5203 21be 7da2 9c3e
000001e0: 3b15 09be f15b 8d3e 1558 013d fe20 84be
000001f0: 52a8 91be e473 d8bd 5dca fd3e a71e 1b3e
00000200: 14b5 d03c 2567 9b3e e639 f33c b08f dabd
00000210: 2153 393e d051 1ebe 551d f43d 5ad7 40be
00000220: e98b bebd 8547 3a3e 644c f9be 2745 43bc
00000230: ce9e a9bc c44a 1fbf e427 94be 8319 f63e
00000240: 8a64 e7bc 80ab 7bbd e122 0d3e 8f13 e6bd
00000250: 016b 913e f209 21bb 048a 4abe 96f9 413e
00000260: de78 59be 3186 103d 527c 9a3e 3dfb 453e
00000270: c076 363e 5523 073d 4db4 923e 3280 473e
00000280: 6911 7abd 9a10 b23a c509 713e 0813 cabe
00000290: 7002 c8bd 77dd afbd a2ab 5ebe 7823 4e3d
000002a0: df13 033f 71c6 2e3e 544f ac3c abcb 013e
000002b0: 5293 ec3d 592a 28be 88d3 f73c 2d2a d1bd
000002c0: bc96 d63e a64f 58bd 0db4 073e 6feb 023e
000002d0: 8c9e 593e d19a 063e b577 f9bd d5a4 7b3d
000002e0: 98aa db3d a416 30bd 35ce 883d 32ed 083d
000002f0: 41c7 a1be 95a6 733d c515 02bd a103 dc3d
00000300: 90e8 3a3e 4afd a4be 90e1 6c3d 6721 0dbe
00000310: aac6 983e 8034 523e 1424 2f3e 3e80 5f3e
00000320: 244b 32be f90e d7bd 4a2c b3be 96cc 533d
00000330: 1fed e53d fecb e6bd 8f24 b73d 2e87 313e
00000340: f374 2abe 3310 4ebe ed3f b73e 23ca d0bd
00000350: 6a2d 9f3e ced0 163e 8189 e43e 46d1 c93e
00000360: ad56 1c3e cf31 dfbc 28f9 9bbe a8a5 1c3d
00000370: 61d3 a2bd 3cd2 423d 0987 10bf 454c d1bd
00000380: 4fdb aa3d 5ec9 0abe 10fa 9e3e 56ad 013e
00000390: 34ca 85be 71d0 a43e 39b1 383e 7815 15bd
000003a0: 97dc 00be 8b4f e73c 9dd1 dbbd e36a 013e
000003b0: 2044 ad3d 20e9 c9bd a583 14be 95d9 fcbc
000003c0: 8959 863e f4d2 b5be f47a 42be b57a 29be
000003d0: 17f7 1fbe f1f6 063e 4c13 8bbe ce74 2e3d
000003e0: 55b1 c3be 2337 1f3b 846b 99bd a940 6f3d
000003f0: 8780 753e 2ba9 763d 4078 09be 0aee a8bc
-0.09189374 -0.0016505189 -0.037505053 -0.18794861 0.02577082 0.36815637 -0.004541479 0.009965361
0.13050918 -0.049827896 0.18447801 0.15612987 -0.07136872 -0.023656532 -0.043313377 0.257916
0.306948 0.10100826 0.467431 -0.16318153 0.05278424 -0.16396604 -0.15674396 -0.0030572366
0.26070315 0.116383374 0.0027068718 0.06772959 -0.25598863 -0.28686947 -0.1807036 -0.5392881
-0.10527386 0.17801951 -0.20391557 -0.16791661 -0.08115912 -0.27221265 0.16716115 0.21449828
0.36204976 -0.12789012 -0.29009584 0.0110433055 0.12334653 -0.034229863 0.23259093 0.5109051
-0.121014744 -0.15185428 -0.2837052 -0.015761571 -0.15536056 0.33117214 0.33020124 -0.18286583
0.15622692 -0.09753502 0.11090156 0.35838172 -0.22014724 -0.06609546 0.17818613 0.0038743378
-0.28987804 -0.03746692 0.24868028 0.15441076 0.28980026 0.41771057 -0.050451774 -0.3753236
0.32058036 0.24592566 0.15524048 0.21974106 0.19797924 0.089868486 -0.32299513 -0.06469209
-0.28186005 -0.20807245 -0.29533362 -0.26870096 -0.015900103 -0.15138485 0.11300427 0.22937773
0.030757608 0.03006162 -0.18815683 -0.2040816 0.18132876 0.06858181 -0.07584058 -0.1272661
-0.011848599 -0.21353054 -0.17334354 -0.14772959 0.13990548 0.12580322 -0.15216282 0.11850953
-0.12621912 0.15337725 -0.3810047 0.0051106056 0.33718255 0.17289498 -0.09873593 0.14637078
0.11988632 0.24259764 -0.16128424 -0.053667635 0.19508906 -0.046229426 -0.15723923 0.3059272
-0.13387005 0.27609208 0.031578142 -0.2580642 -0.2844873 -0.105689794 0.49568453 0.15148412
0.02547697 0.3035213 0.029690694 -0.106719375 0.18098117 -0.15460896 0.11919657 -0.1883215
-0.093040295 0.18191345 -0.48691094 -0.011918343 -0.020705607 -0.6222346 -0.28936684 0.4806634
-0.028246183 -0.061442852 0.13782836 -0.11234199 0.2840195 -0.0024572578 -0.19779211 0.18942866
-0.21237513 0.035284225 0.30172974 0.19334121 0.17818737 0.03299268 0.28653184 0.19482496
-0.06105176 0.001358527 0.23538883 -0.39467645 -0.0976609 -0.08587163 -0.2174516 0.050326794
0.51202196 0.17067887 0.02103392 0.1267535 0.115515366 -0.16422404 0.030252233 -0.102131225
0.41911876 -0.052810334 0.13252278 0.12785123 0.21251887 0.13144995 -0.121810354 0.061436493
0.107258976 -0.04299034 0.06679956 0.033429332 -0.3159733 0.059485037 -0.031759042 0.1074288
0.18252778 -0.32224494 0.0578323 -0.13782273 0.2983907 0.2052784 0.17103606 0.21826264
-0.17411476 -0.10500903 -0.34994727 0.05170878 0.11226868 -0.11269377 0.0894252 0.17336723
-0.16646175 -0.20123367 0.3579096 -0.101948045 0.31089336 0.1472809 0.44636157 0.39417475
0.15267439 -0.02724543 -0.3046353 0.03824392 -0.079504736 0.047563776 -0.5645605 -0.102196254
0.08342611 -0.13553378 0.31050158 0.12663779 -0.2613083 0.32190278 0.18036355 -0.036397427
-0.12584148 0.028236171 -0.1073334 0.1263843 0.084602594 -0.09858918 -0.14503343 -0.03086547
0.26240185 -0.35512507 -0.18992215 -0.16550715 -0.15621601 0.13180138 -0.2716316 0.042591862
-0.3822123 0.0024294339 -0.0749121 0.058411274 0.2397481 0.060219925 -0.13424778 -0.020621318
