results/MyEnv/Intersection_MAPPO/mappo/check/run2/models/critic.pt (torch, 626030 bytes, 23 tensors)

base.feature_norm.weight f4 [2080]
1.0047207 0.9843902 1.0030999 1.0022566 0.99714625 1.0054324 0.99841154 1.0033051
1.0107945 1.0069779 1.0081469 0.98873407 0.980679 1.012817 1.0024387 0.9978116
0.99867547 0.9846554 1.0004272 1.0107003 1.0099069 1.0370244 1.0494567 1.0373343
1.0011895 1.0002398 0.9896329 0.99324524 1.0121747 0.99419075 0.98957866 1.0097688
1.0745263 0.9776607 0.9624814 0.99834216 0.9983332 1.0000306 0.9846632 0.9726983
1.0074311 0.9992365 0.98781264 1.0068024 1.0012215 1.0023925 0.9867688 0.9861068
1.0255078 1.0706446 1.0074089 0.9639474 0.9765884 1.0067403 1.0083225 0.99933285
1.0009263 1.0060797 0.99195844 0.9830405 0.95718795 1.0116746 0.97427475 1.0011572
0.98518085 0.9775744 1.0056078 0.9775907 0.9854199 0.99868286 0.97267294 0.9867151
0.99297154 1.0069565 1.0150149 1.0080587 0.9792195 0.99859756 1.0083573 1.0024179
0.993654 0.991449 1.0059798 0.99038917 1.0077306 0.9995819 1.0002747 1.0013932
0.9919512 1.0023301 0.9976392 0.9955528 1.004126 1.0093292 0.99636775 0.9926157
1.0019238 0.993824 0.9995452 0.98896354 1.0074017 0.9881373 0.99821496 0.98402554
1.0090036 1.004655 0.99618435 1.012645 0.9991896 1.0083886 0.99454397 0.9967556
1.0118016 1.0003978 0.9934293 0.9997128 0.9960669 1.0054953 0.98933226 1.0107337
1.0037199 0.9898571 0.99543273 0.9880361 0.9941464 1.0224298 1.1079916 1.0754509
1.000404 0.9950092 1.0010138 1.0146728 0.9885423 1.0004925 0.9979377 1.0078901
1.0493057 0.97166336 0.97435635 1.0010966 0.9961276 1.0006744 0.99003893 1.0054554
0.9806486 0.9967789 1.0049905 0.990929 0.9860578 0.99015117 0.96667874 1.001413
1.0203594 1.0398217 0.9963517 0.99856025 1.0266875 0.9928059 0.96530735 0.9907469
0.9999923 1.0007263 0.9960223 1.0096776 1.0104706 0.97982883 0.9853358 1.0049273
0.98868376 0.9788141 1.0090752 0.9907814 0.98785734 1.0337257 1.0054548 0.99040514
0.995305 1.0203532 1.0082527 0.9842583 1.0006623 1.001287 0.9932041 1.008161
1.0007422 0.9827596 0.9977469 0.98858184 1.0070113 1.0002369 1.0020071 1.001992
1.0061193 0.9934294 0.9950985 0.99218565 0.9832598 1.0130551 0.9888223 1.0012487
1.0116141 0.9877269 1.0016737 0.99009585 0.9991664 1.0055171 1.0047126 1.0125325
1.001875 0.9906118 1.0050198 1.0113821 0.99142236 0.99237573 0.9962177 1.0033076
1.0014777 1.0007421 1.0006685 0.9907666 1.0019442 0.99234754 1.0005573 1.0001508
0.99016076 0.9877818 0.982323 1.0069143 1.0036068 1.0326648 1.0409805 1.0079083
0.9874347 0.9892032 1.0044197 0.984348 1.000091 0.99351513 0.99819905 1.0049785
1.0240661 0.9610944 0.96813136 0.99226546 1.0003626 1.0054939 1.010494 1.0000314
0.998996 0.99194413 1.003945 1.000653 0.98704064 0.98495346 0.999207 0.992426
00000000: b09a 803f ff00 7c3f 9465 803f f249 803f
00000010: fa44 7f3f 02b2 803f e697 7f3f 4d6c 803f
00000020: b761 813f a7e4 803f f50a 813f ad1d 7d3f
00000030: c70d 7b3f fda3 813f e94f 803f 9570 7f3f
00000040: 32a9 7f3f 6012 7c3f 000e 803f a15e 813f
00000050: a144 813f 37bd 843f 9954 863f 5fc7 843f
00000060: fa26 803f dc07 803f 9558 7d3f 5245 7e3f
00000070: f18e 813f 4983 7e3f 0755 7d3f 1b40 813f
00000080: 148a 893f f947 7a3f 2e65 763f 5a93 7f3f
00000090: c492 7f3f 0101 803f e312 7c3f c102 793f
000000a0: 81f3 803f f7cd 7f3f 4ae1 7c3f e7de 803f
000000b0: 0728 803f 664e 803f e19c 7c3f 7f71 7c3f
000000c0: d743 833f e20a 893f c6f2 803f 42c5 763f
000000d0: b301 7a3f dedc 803f b610 813f 47d4 7f3f
000000e0: 5a1e 803f 38c7 803f fdf0 7d3f 8ba8 7b3f
000000f0: 450a 753f 8e7e 813f 126a 793f eb25 803f
00000100: d034 7c3f 5142 7a3f c2b7 803f 6243 7a3f
00000110: 7b44 7c3f aea9 7f3f 1801 793f 5c99 7c3f
00000120: 6233 7e3f f3e3 803f 02ec 813f 1108 813f
00000130: 21ae 7a3f 17a4 7f3f da11 813f 3b4f 803f
00000140: 1c60 7e3f 9acf 7d3f f2c3 803f 258a 7d3f
00000150: 51fd 803f 99e4 7f3f 0009 803f a72d 803f
00000160: 84f0 7d3f 5a4c 803f 4865 7f3f 8cdc 7e3f
00000170: 3387 803f b331 813f f511 7f3f 101c 7e3f
00000180: 0a3f 803f 406b 7e3f 32e2 7f3f b72c 7d3f
00000190: 8af2 803f 91f6 7c3f 048b 7f3f 19e9 7b3f
000001a0: 0827 813f 8998 803f f005 7f3f 5a9e 813f
000001b0: e4ca 7f3f e112 813f 6f9a 7e3f 602b 7f3f
000001c0: b782 813f 090d 803f 6251 7e3f 2eed 7f3f
000001d0: 3efe 7e3f 12b4 803f e144 7d3f b95f 813f
000001e0: e579 803f 4667 7d3f aed4 7e3f efef 7c3f
000001f0: 6180 7e3f fbde 823f abd2 8d3f 60a8 893f
00000200: 3d0d 803f ecb8 7e3f 3821 803f cce0 813f
00000210: 1c11 7d3f 2310 803f d878 7f3f 8b02 813f
00000220: a64f 863f eebe 783f 6b6f 793f ef23 803f
00000230: 3802 7f3f 1916 803f 3173 7d3f c3b2 803f
00000240: c90b 7b3f e72c 7f3f 87a3 803f 86ad 7d3f
00000250: 496e 7c3f 8c7a 7d3f 4278 773f 4d2e 803f
00000260: 239b 823f e118 853f e810 7f3f a5a1 7f3f
00000270: 7f6a 833f 8728 7e3f 621e 773f 97a1 7d3f
00000280: 7fff 7f3f cd17 803f 51fb 7e3f 1e3d 813f
00000290: 1a57 813f 10d6 7a3f f83e 7c3f 75a1 803f
000002a0: 611a 7d3f 9093 7a3f 6029 813f daa3 7d3f
000002b0: 38e4 7c3f 2051 843f beb2 803f 318b 7d3f
000002c0: 4fcc 7e3f ef9a 823f 6d0e 813f 5af8 7b3f
000002d0: b415 803f 2c2a 803f a042 7e3f 6b0b 813f
000002e0: 5218 803f 2296 7b3f 576c 7f3f b313 7d3f
000002f0: bfe5 803f c307 803f c541 803f 4641 803f
00000300: 84c8 803f 6451 7e3f c6be 7e3f e1ff 7d3f
00000310: eab6 7b3f caab 813f 7523 7d3f eb28 803f
00000320: 927c 813f acdb 7c3f d836 803f ec76 7d3f
00000330: 5fc9 7f3f c9b4 803f 6c9a 803f aa9a 813f
00000340: 713d 803f bc98 7d3f 7da4 803f f874 813f
00000350: dbcd 7d3f 560c 7e3f 2008 7f3f 626c 803f
00000360: 6c30 803f 5118 803f e815 803f e1a2 7d3f
00000370: b53f 803f 7d0a 7e3f 4312 803f f104 803f
00000380: 2d7b 7d3f 45df 7c3f 8579 7b3f 91e2 803f
00000390: 3076 803f 5c2e 843f d93e 853f 2403 813f
000003a0: 85c8 7c3f 6c3c 7d3f d390 803f 3bfe 7b3f
000003b0: fb02 803f 0257 7e3f f989 7f3f 23a3 803f
000003c0: 9914 833f 480a 763f 75d7 773f 1c05 7e3f
000003d0: e20b 803f 06b4 803f de57 813f 0701 803f
000003e0: 34be 7f3f 0df0 7d3f 4581 803f 6615 803f
000003f0: b2ae 7c3f e925 7c3f 08cc 7f3f a10f 7e3f

base.feature_norm.bias f4 [2080]
0.0005247448 0.009806258 -0.0058477935 -0.0025351322 0.00027491213 -0.0109301265 -0.0032974663 0.007543798
0.017996168 -0.010380932 -0.013446134 0.008235973 0.0063808393 -0.016474837 -0.00038153803 0.0017580008
0.0028550278 0.021129223 0.0009241787 -0.011433064 -0.013231199 0.008577179 0.023901964 0.014993535
0.008067585 -0.0006112061 0.0062600635 0.0021301233 -0.016457068 0.00670229 -0.007286268 -0.016327454
0.021419873 -0.011836926 -0.017307 -0.0078468565 -0.00041224345 -0.0029464508 -0.00027200815 -0.008993015
-0.013245367 0.008103598 0.006769671 -0.0019480414 -0.0074854125 0.009063074 0.0029614605 0.011303847
0.0052919863 0.06780355 -0.0044000987 0.011545302 0.0038224598 -0.008258576 0.017246634 -0.0051337816
-0.002858999 0.0100905625 -0.0017263908 -0.0070666117 0.01546622 -0.015535097 -0.0005544311 0.0032070165
0.012405174 -0.010142374 -0.0047425916 0.00489403 0.0012930905 -0.018617317 0.0029480848 -0.015206466
0.0040046982 -0.0041057393 0.004104958 0.008315653 -0.0094827 0.0030444255 0.009124835 0.02329485
0.00039324578 0.0075988425 0.0061603333 -0.0066011213 0.007795356 0.013999657 0.0006663284 0.012354912
-0.0032998875 0.009696676 0.005226854 -0.0040960493 0.0047504245 0.013033574 -0.0014783276 -0.009375068
0.005596044 -0.0050268937 -0.0030406646 -0.012991686 0.015195027 -0.00537913 -0.0018079809 -0.016755288
-0.013038153 -0.0050502 0.0041460614 -0.011570205 0.0020050101 -0.009474654 0.0069417143 -0.0022125128
0.013923053 -0.016569946 0.0043175505 -0.0010072994 0.005052853 -0.00072581175 0.014539339 0.00015357195
0.0005427005 0.022824282 0.0045855627 0.004817189 -0.00039803865 0.0149020795 0.0070625753 0.025365042
0.025716221 0.015470717 -0.0026736236 -0.015516181 0.0017064643 0.0033370485 0.0025993125 -0.0052846298
0.010185291 -0.004518527 -0.010031855 -0.00074034475 0.005979269 -0.0028708088 0.005443738 0.014846118
-0.00612797 -0.0037252347 0.0030320198 0.01182416 0.014013906 -0.0024044348 0.002393381 0.0036644822
-0.01850793 0.011162506 0.008407529 0.017126983 0.00045656727 0.0065993196 0.0018423648 0.009648045
0.019096514 -0.0042601437 -0.00030058582 0.018959923 0.02892062 -0.0034940508 -0.016927782 -0.00896528
-0.002232669 -0.016120464 -0.007806342 -0.0029300123 0.01665091 -0.027118584 -0.0068602036 -0.012276823
0.0025810117 -0.010955303 0.00085315696 -0.010911092 -0.0007250421 0.008536434 -0.0030331602 0.009299845
0.0011398994 -0.008240835 0.0024128992 -0.0034381314 0.013587444 0.009503017 0.0045271665 0.01347084
0.004200889 0.0057628565 -0.0026607614 -0.0078095607 -0.014315536 0.013201097 -0.01106599 0.0029474262
0.008534 -0.016160311 -0.0045228265 -0.010261349 -0.006982562 0.0075262007 -0.009415937 0.007948061
0.0011212035 0.0016982958 -0.025258899 -0.012365092 0.008427997 0.0016495062 -0.008478642 0.006314818
0.010272757 0.010655005 -0.004426558 0.007103505 -0.003574673 -0.018700916 0.0037119791 0.010006368
0.00917246 0.0098054195 0.016535258 -0.008277205 -0.008045795 0.013929795 0.024181588 0.0127641
0.011029338 0.0106542185 -0.0077724624 0.013891481 0.0069402326 -0.0023403675 -0.0044717044 -0.0033501969
0.0088898055 -0.005859615 -0.015123091 0.0074448865 0.0022266195 -0.0065782424 -0.0043618088 0.013752834
-0.0019382582 0.002984233 -0.00086427515 0.0013745591 0.022620799 -0.007817388 -0.0032669592 0.001339903
00000000: 078f 093a 6daa 203c d99e bfbb 7624 26bb
00000010: 1522 9039 4614 33bc 4e1a 58bb f731 f73b
00000020: b36c 933c c914 2abc 2c4d 5cbc 2df0 063c
00000030: 5c16 d13b 3df6 86bc 2b09 c8b9 b86c e63a
00000040: 6b1b 3b3b 3117 ad3c 9544 723a bf51 3bbc
00000050: acc7 58bc 4c87 0c3c 0dce c33c 72a7 753c
00000060: e72d 043c 5939 20ba 3821 cd3b 8a99 0b3b
00000070: f9d0 86bc e29e db3b a5c1 eebb 27c1 85bc
00000080: bb78 af3c abef 41bc 69c7 8dbc 1a90 00bc
00000090: 6122 d8b9 3e19 41bb 519c 8eb9 7057 13bc
000000a0: 1903 59bc f4c4 043c 1ed4 dd3b 6c55 ffba
000000b0: 3148 f5bb 4a7d 143c 1015 423b c533 393c
000000c0: 6668 ad3b 96dc 8a3d b42e 90bb 8228 3d3c
000000d0: 3c82 7a3b fa4e 07bc d048 8d3c 4839 a8bb
000000e0: 0b5e 3bbb e352 253c 1048 e2ba 098f e7bb
000000f0: 0766 7d3c eb86 7ebc 3e57 11ba cf2c 523b
00000100: 123f 4b3c 332c 26bc be67 9bbb 195e a03b
00000110: eb7c a93a 5883 98bc a834 413b 8b24 79bc
00000120: d839 833b 7089 86bb e282 863b 603e 083c
00000130: 545d 1bbc fc84 473b 5580 153c d7d4 be3c
00000140: 8e2c ce39 b6ff f83b 9fdc c93b 384e d8bb
00000150: 3070 ff3b d15e 653c 8bac 2e3a 426c 4a3c
00000160: ed42 58bb cfde 1e3c 0746 ab3b 2738 86bb
00000170: 73a9 9b3b c68a 553c 71c4 c1ba e399 19bc
00000180: 055f b73b a4b8 a4bb e345 47bb 15db 54bc
00000190: 90f4 783c 6a43 b0bb c6f9 ecba 6342 89bc
000001a0: fa9d 55bc 267c a5bb afdb 873b f590 3dbc
000001b0: 7d66 033b 943b 1bbc 5277 e33b ceff 10bb
000001c0: 841d 643c b2bd 87bc 3d7a 8d3b 5c07 84ba
000001d0: 6792 a53b 6744 3eba 6836 6e3c 2808 2139
000001e0: 0444 0e3a fdf9 ba3c 7d42 963b 83d9 9d3b
000001f0: d8af d0b9 da27 743c 2d6d e73b 59ca cf3c
00000200: d3aa d23c e478 7d3c f637 2fbb 9437 7ebc
00000210: 71ab df3a 62b2 5a3b 3a59 2a3b b02a adbb
00000220: 35e0 263c 2710 94bb a65c 24bc b213 42ba
00000230: beed c33b 2e24 3cbb 6261 b23b 223d 733c
00000240: 23cd c8bb 1123 74bb dab4 463b 1fba 413c
00000250: 959a 653c b993 1dbb 45da 1c3b cf27 703b
00000260: f19d 97bc f2e2 363c bcbf 093c e34d 8c3c
00000270: 6c5f ef39 1b3f d83b 817b f13a d512 1e3c
00000280: 4b70 9c3c ad98 8bbb f297 9db9 d751 9b3c
00000290: f0ea ec3c 72fc 64bb 22ac 8abc 1ce3 12bc
000002a0: f851 12bb 100f 84bc 58cc ffbb 7305 40bb
000002b0: 7d67 883c cb27 debc 8fcb e0bb ba24 49bc
000002c0: 3126 293b df7d 33bc 65a6 5f3a 70c4 32bc
000002d0: c010 3eba 66dc 0b3c fcc7 46bb 615e 183c
000002e0: ad68 953a 9104 07bc bb21 1e3b 4652 61bb
000002f0: df9d 5e3c 8bb2 1b3c a058 943b ccb4 5c3c
00000300: 9ca7 893b 58d6 bc3b 2b60 2ebb 58e7 ffbb
00000310: b68b 6abc 6a49 583c 204e 35bc 9b29 413b
00000320: 31d2 0b3c a162 84bc 3834 94bb 381f 28bc
00000330: facd e4bb 599e f63b 4d45 1abc 9638 023c
00000340: 59f5 923a 5a99 de3a c0eb cebc f496 4abc
00000350: 9515 0a3c 3e34 d83a 01ea 0abc 88ec ce3b
00000360: 114f 283c 5592 2e3c a90c 91bb 85c4 e83b
00000370: 1045 6abb aa32 99bc ad44 733b c0f1 233c
00000380: 1648 163c e9a6 203c f374 873c 1d9d 07bc
00000390: 83d2 03bc cb39 643c 7718 c63c 8420 513c
000003a0: 66b4 343c 088f 2e3c 24b0 febb 1899 633c
000003b0: e46a e33b da60 19bb 6087 92bb fa8e 5bbb
000003c0: 8ca6 113c 0302 c0bb d7c6 77bc 3cf4 f33b
000003d0: 7aec 113b 4c8e d7bb 81ed 8ebb 9153 613c
000003e0: 270d feba 1f93 433b 8690 62ba 8d2a b43a
000003f0: 414f b93c 8014 00bc 7b1a 56bb af9f af3a

base.mlp.fc1.0.weight f4 [64, 2080]
0.056946307 -0.04757255 0.028893247 -0.039785095 -0.04379398 -0.017886639 0.0035412172 -0.00028240122
0.05273673 0.021004818 0.010702302 0.027145699 -0.021816282 0.00243272 -0.013655923 -0.011869719
-0.0022747004 0.0001530397 0.055195864 -0.001581691 -0.0019257126 0.09501213 -0.018621678 0.01937852
-0.019810617 0.048606224 -0.04013102 0.037507273 -0.021581309 0.025269497 0.0021541023 0.034418676
0.021866806 0.041542783 0.024231108 0.018068675 0.04120654 0.0074140667 -0.028572671 0.0105372425
0.013583074 -0.004759671 -0.011713991 0.02019568 0.054144457 -0.019659024 -0.007208654 -0.016106717
-0.024607105 -0.006736571 -0.05087523 -0.01528853 0.021558596 -0.007031739 -0.04174221 0.039688658
0.0033970983 0.088485114 -0.007044702 0.010014164 -0.014575257 -0.011902143 0.035460506 0.0064906552
0.0452608 -0.03184128 0.04909509 0.021070227 -0.0025581846 0.0049401745 -0.01775267 -0.02504423
-0.005666238 -0.013559601 -0.031607512 -0.04891038 0.0141761 0.0072022676 -0.0155701 -0.037232246
0.022671258 0.011087152 0.013139472 -0.017905442 -0.007040609 -0.02602382 0.02970234 0.02859031
0.024643 -0.042618416 0.013409447 0.03034397 -0.065326236 -0.047948465 -0.029816227 0.009046167
-0.03338587 0.01725482 0.053461406 0.013752321 -0.013684589 -0.07467789 -0.04871615 0.015458959
-0.036734484 0.00713358 0.026188772 0.0043522427 -0.0017326943 0.03571248 -0.058805216 0.047215693
-0.033107486 0.011610107 0.010862914 -0.012977978 0.025468498 -0.009717376 -0.003669984 0.016615978
0.010387341 -0.008016392 -0.035175953 0.0028086335 -0.01412904 0.03764949 0.038839344 -0.0036282102
-0.0004040947 0.030000519 -0.0031482712 -0.0055799205 -0.036322344 0.0021688761 -0.011409034 0.08872001
0.014196691 -0.017865352 0.016978007 -0.0076486 -0.01983475 -0.013217544 0.024940792 -0.0051221196
-0.008621003 0.025937423 0.02430321 -0.011675629 -0.054111347 0.006854063 -0.038764477 0.06786833
-0.027741503 0.008396271 -0.05907298 -0.053819206 -0.007873912 -0.021374812 -0.03765231 -0.029210461
0.03049912 0.05265218 0.016361881 -0.022689117 -0.01536158 0.018661333 0.035179697 -0.0032305424
-0.002839231 0.00940995 0.027044224 0.014259138 0.019558052 0.05121139 0.056834668 -0.031640396
0.009454278 0.004873502 0.04657309 -0.016118344 -0.06721535 -0.025824932 0.057059195 -0.016469179
-0.03812205 0.012196234 -0.06273427 0.010280903 -0.026240017 -0.09288752 -0.10101337 -0.08335017
-0.0565641 -0.031726588 -0.016161278 -0.0046702577 -0.034353126 -0.009255639 -0.021810563 -0.0034915064
-0.004379483 0.0011475232 -0.0041004987 0.0072027454 -0.07368474 -0.021904567 0.035293996 -0.012223454
0.05594967 0.07839575 0.05438914 0.007188082 0.009434024 0.05524698 0.012734595 -0.049565084
0.027636042 0.04282909 0.013423949 -0.03823102 0.04114611 0.025795594 0.00026357686 0.045974903
0.04243662 0.019192688 0.04761691 0.018329438 -0.015384297 0.024014393 0.015386538 0.0039122095
0.026245419 0.05797835 -0.020286202 -0.035427738 0.05371748 0.03894926 -0.034551147 0.048615623
0.005636696 -0.036678612 0.019425454 0.019349929 -0.056867853 0.015575259 0.026669612 -0.07808225
-0.018090716 0.07535281 0.023111345 0.075795524 0.051312104 -0.05218051 -0.017224122 -0.016061153
00000000: 8840 693d 6fdb 42bd 88b1 ec3c b2f5 22bd
00000010: 5161 33bd 0087 92bc c413 683b 400f 94b9
00000020: 7802 583d 4c12 ac3c b558 2f3c a860 de3c
00000030: 0fb8 b2bc 456e 1f3b 18bd 5fbc 3679 42bc
00000040: 2413 15bb 4879 2039 0f15 623d be50 cfba
00000050: 3168 fcba b895 c23d 7d8c 98bc b4bf 9e3c
00000060: e049 a2bc 5217 473d 6d60 24bd 3aa1 193d
00000070: 49cb b0bc fa01 cf3c d72b 0d3b 99fa 0c3d
00000080: 0422 b33c c428 2a3d 5180 c63c c204 943c
00000090: 30c8 283d b3f1 f23b 3c11 eabc 66a4 2c3c
000000a0: 8b8b 5e3c 04f7 9bbb 0aec 3fbc 6971 a53c
000000b0: 94c6 5d3d f60b a1bc 9336 ecbb 3cf2 83bc
000000c0: d794 c9bc 74be dcbb 8c62 50bd be7c 7abc
000000d0: a79b b03c 816a e6bb e1f9 2abd 9390 223d
000000e0: daa1 5e3b af37 b53d 3ed7 e6bb 7312 243c
000000f0: 0fcd 6ebc 3501 43bc 093f 113d 90af d43b
00000100: 6363 393d 016c 02bd ef17 493d 789b ac3c
00000110: 37a7 27bb 30e1 a13b 0c6e 91bc 8f29 cdbc
00000120: d9ab b9bb 1729 5ebc e176 01bd 4056 48bd
00000130: df42 683c 0001 ec3b bc19 7fbc d780 18bd
00000140: 13b9 b93c e3a6 353c f146 573c 6fae 92bc
00000150: e9b4 e6bb e82f d5bc 5252 f33c 3a36 ea3c
00000160: 1ee0 c93c a690 2ebd 4cb3 5b3c eb93 f83c
00000170: c3c9 85bd 9c65 44bd 2941 f4bc 6036 143c
00000180: 9fbf 08bd fb59 8d3c 59fa 5a3d 6a51 613c
00000190: 5435 60bc b9f0 98bd 968a 47bd 9347 7d3c
000001a0: e676 16bd cec0 e93b d689 d63c 429d 8e3b
000001b0: 931b e3ba 4047 123d bddd 70bd 3e65 413d
000001c0: b79b 07bd 5138 3e3c 5dfa 313c 96a1 54bc
000001d0: 50a3 d03c a135 1fbc 1d84 70bb 3b1e 883c
000001e0: aa2f 2a3c 2f57 03bc a914 10bd 0d11 383b
000001f0: 7d7d 67bc 5a36 1a3d 0116 1f3d 44c7 6dbb
00000200: acdc d3b9 a6c3 f53c 3a53 4ebb c4d7 b6bb
00000210: bdc6 14bd b423 0e3b f5ec 3abc d6b2 b53d
00000220: 3d99 683c 5c5a 92bc 7615 8b3c 1ba1 fabb
00000230: 7c7c a2bc 668e 58bc a250 cc3c 74d7 a7bb
00000240: 1b3f 0dbc b87a d43c 8717 c73c 234b 3fbc
00000250: dca3 5dbd 0c98 e03b 80c7 1ebd 8dfe 8a3d
00000260: 2642 e3bc 8390 093c 82f6 71bd 8771 5cbd
00000270: 9501 01bc 3b1a afbc 4f39 1abd c74a efbc
00000280: 4ad9 f93c d0a9 573d 5a09 863c 87de b9bc
00000290: 23af 7bbc a7df 983c 9618 103d 82b7 53bb
000002a0: 6412 3abb 312c 1a3c d98b dd3c 299f 693c
000002b0: 3538 a03c 09c3 513d 78cb 683d 5c99 01bd
000002c0: 1ee6 1a3c e6b1 9f3b 6dc3 3e3d 9e0a 84bc
000002d0: 34a8 89bd cf8e d3bc e7b6 693d 5fea 86bc
000002e0: de25 1cbd b7d2 473c d37a 80bd 3c71 283c
000002f0: 4ef5 d6bc d03b bebd 19e0 cebd 7eb3 aabd
00000300: c2af 67bd bdf3 01bd a864 84bc f608 99bb
00000310: ddb5 0cbd f7a4 17bc 11ac b2bc c2d1 64bb
00000320: c481 8fbb 7d68 963a 7a5d 86bb 0205 ec3b
00000330: 06e8 96bd 3571 b3bc 7090 103d e244 48bc
00000340: 7b2b 653d f38d a03d 26c7 5e3d 018a eb3b
00000350: 2a91 1a3c a84a 623d c3a4 503c c204 4bbd
00000360: fb64 e23c 8e6d 2f3d 1ff0 5b3c 2198 1cbd
00000370: d388 283d 4851 d33c b030 8a39 2e50 3c3d
00000380: 05d2 2d3d fc39 9d3c f309 433d 9e27 963c
00000390: 6b0e 7cbc d5b9 c43c d117 7c3c fe31 803b
000003a0: a200 d73c b57a 6d3d 402f a6bc ad1c 11bd
000003b0: dc06 5c3d 4289 1f3d 8185 0dbd 2d21 473d
000003c0: 08b4 b83b 503c 16bd 2122 9f3c be83 9e3c
000003d0: 44ee 68bd 5f2f 7f3c 3b7a da3c 96e9 9fbd
000003e0: fb32 94bc 9352 9a3d 0154 bd3c af3a 9b3d
000003f0: a42c 523d 3bbb 55bd 9a19 8dbc ae92 83bc

base.mlp.fc1.0.bias f4 [64]
-0.009600816 0.004047637 0.004471456 0.0026827678 0.0052179303 0.005846434 0.008346964 -0.0077715414
-0.008470715 0.00927546 -0.0026921707 0.011591995 0.0072174035 0.008489605 -0.009152137 -0.0051007457
-0.010269081 0.008491235 -0.0052275527 -0.007592943 -0.047096785 0.009032018 0.009253322 -0.007601859
-0.004424662 -0.0056846444 -0.0064475858 0.009448744 -0.0053835656 -0.002782433 0.0041023493 0.005363517
0.009953003 0.0067855977 -0.0081327995 0.004955393 -0.0029810967 -0.0051342538 -0.0073252935 0.007636525
0.008259234 0.010410471 0.004241929 -0.00782228 0.008319776 0.0054340316 0.0072600795 -0.007306516
-0.00850871 -0.0031426228 -0.006304876 0.008046887 -0.0066886116 -0.008929213 -0.0026711174 -0.0051413737
-0.0074791634 -0.0053318692 0.0046729944 -0.0059915786 0.019872358 0.0029184462 -0.007075393 -0.0011416128
00000000: be4c 1dbc 0aa2 843b 4b85 923b 60d1 2f3b
00000010: 2cfb aa3b 7193 bf3b b4c1 083c 6aa8 febb
00000020: c1c8 0abc 19f8 173c 216f 30bb 5aec 3d3c
00000030: f87f ec3b fc17 0b3c d8f2 15bc 2824 a7bb
00000040: a63f 28bc d21e 0b3c e44b abbb 39ce f8bb
00000050: 8fe8 40bd 07fb 133c 3f9b 173c 0419 f9bb
00000060: c1fc 90bb 4146 babb 4546 d3bb e8ce 1a3c
00000070: 9f68 b0bb 7b59 36bb 006d 863b 71c0 af3b
00000080: ec11 233c b859 de3b 6f3f 05bc d960 a23b
00000090: 815e 43bb 3e3d a8bb 0409 f0bb d13b fa3b
000000a0: bd51 073c ae90 2a3c e1ff 8a3b 0529 00bc
000000b0: ab4f 083c f60f b23b f6e5 ed3b 806b efbb
000000c0: 1e68 0bbc 76f4 4dbb 2299 cebb 17d7 033c
000000d0: 242c dbbb d54b 12bc ea0d 2fbb f878 a8bb
000000e0: c513 f5bb f6b6 aebb eb1f 993b 0155 c4bb
000000f0: 5bcb a23c 6743 3f3b b3d8 e7bb 2ba2 95ba

base.mlp.fc1.2.weight f4 [64]
0.984838 0.989624 1.0117444 0.9899539 0.9930868 1.0080271 0.9955466 1.0086328
0.9965142 1.0081373 0.990627 1.0117135 1.0086972 1.0011728 1.0113752 0.9884942
1.0143776 1.0005544 1.0045441 0.9945035 1.1405071 1.0114038 1.0123004 1.0103666
0.9960719 0.9951684 1.0023578 0.9945812 0.9977426 1.0038489 0.98864603 0.99803877
1.0167828 1.0091207 0.9978351 0.9855973 0.9918529 1.0114436 1.0026422 1.0032911
0.98789114 0.99798894 0.98343974 1.0021514 0.98933953 1.003996 1.0058414 1.0231773
1.003415 0.9942046 0.98976177 0.98881674 1.0126357 1.0062445 0.9895825 1.0030795
1.0106667 1.01197 0.99221706 0.9932391 1.0695435 0.9801737 0.99732393 0.9789882
00000000: 581e 7c3f 0058 7d3f d780 813f 9e6d 7d3f
00000010: f03a 7e3f 0807 813f 24dc 7e3f e11a 813f
00000020: 8e1b 7f3f a50a 813f bb99 7d3f d47f 813f
00000030: fd1c 813f 6e26 803f be74 813f f50d 7d3f
00000040: 20d7 813f 2b12 803f e794 803f c897 7e3f
00000050: 23fc 913f ae75 813f 0f93 813f b153 813f
00000060: 91fe 7e3f 5bc3 7e3f 434d 803f e09c 7e3f
00000070: 0f6c 7f3f 1f7e 803f e817 7d3f 787f 7f3f
00000080: f025 823f de2a 813f 1f72 7f3f 1b50 7c3f
00000090: 12ea 7d3f fc76 813f 9456 803f d86b 803f
000000a0: 6fe6 7c3f 347c 7f3f b5c2 7b3f 7f46 803f
000000b0: 5b45 7d3f f182 803f 69bf 803f 79f7 823f
000000c0: e76f 803f 3184 7e3f 0761 7d3f 1823 7d3f
000000d0: 0c9e 813f 9fcc 803f 4755 7d3f e964 803f
000000e0: 875d 813f 3c88 813f f001 7e3f eb44 7e3f
000000f0: cde6 883f aaec 7a3f 9f50 7f3f f89e 7a3f

base.mlp.fc1.2.bias f4 [64]
0.0035776477 -0.007047463 0.018458767 -0.0010459421 0.0011162828 0.008950949 0.014428829 -0.010746804
-0.006270345 0.008774127 -0.010932811 0.011255016 0.00850986 0.008611938 -0.019547975 0.011703274
-0.014312485 0.00043134263 -0.004024766 -0.008278074 0.0031109974 0.010797992 0.012423353 -0.010426926
-0.00084116665 0.0050837477 -0.0022038047 -0.009134037 -0.0011962112 -0.010300864 -0.009086152 0.0024397096
0.017451208 0.01013167 0.0027979873 -0.015491578 0.0052935886 -0.013722328 -0.0019630967 0.0042075976
0.0077084345 -0.002771619 -0.009356074 -0.01499101 -0.00057668844 0.0038551555 0.008861156 -0.023031877
-0.0032778187 0.0012993853 0.0017760454 0.001578946 -0.014988648 -0.0059923064 0.004660124 -0.0032289687
-0.0074418816 -0.012180724 -0.0065068486 0.000106992564 -0.0064132423 -0.016907437 -0.008473993 0.0076049305
00000000: f876 6a3b 68ee e6bb d736 973c fe17 89ba
00000010: 3c50 923a 00a7 123c e566 6c3c 5d13 30bc
00000020: 7777 cdbb 5bc1 0f3c 881f 33bc f566 383c
00000030: f16c 0b3c 1619 0d3c 1323 a0bc 17bf 3f3c
00000040: ea7e 6abc d425 e239 2fe2 83bb c2a0 07bc
00000050: e0e1 4b3b 10ea 303c 528b 4b3c b3d5 2abc
00000060: bd81 5cba 9195 a63b b56d 10bb eea6 15bc
00000070: 30ca 9cba f5c4 28bc 15de 14bc 89e3 1f3b
00000080: d6f5 8e3c 4eff 253c 705e 373b 63d0 7dbc
00000090: d775 ad3b 9dd3 60bc 4ca7 00bb e3df 893b
000000a0: 0997 fc3b 0da4 35bb 384a 19bc da9c 75bc
000000b0: e82c 17ba c7a6 7c3b 622e 113c 59ad bcbc
000000c0: acd0 56bb 2350 aa3a 32ca e83a a3f4 ce3a
000000d0: f292 75bc 1c5b c4bb f4b3 983b 1b9d 53bb
000000e0: 07db f3bb a991 47bc 6737 d5bb 3261 e038
000000f0: 2d26 d2bb 7781 8abc 81d6 0abc c832 f93b

base.mlp.fc_h.0.weight f4 [64, 64]
-0.086197056 0.00017218292 -0.03305658 -0.18941523 0.029961728 0.36696514 -0.013687709 0.016100593
0.14314944 -0.05374332 0.1814624 0.15596734 -0.07487558 -0.01523721 -0.045829214 0.25981137
0.30429783 0.108233094 0.46752363 -0.15924644 0.04719261 -0.17278405 -0.15869507 0.0037690375
0.2647073 0.11343405 0.0054842914 0.07589017 -0.26470062 -0.29013735 -0.17425776 -0.5354642
-0.108327605 0.18408906 -0.20036565 -0.17319688 -0.08489164 -0.26991206 0.16047199 0.21876134
0.3555275 -0.12571111 -0.2948942 0.0062233307 0.1191303 -0.038946815 0.24136202 0.51405185
-0.12467655 -0.14917397 -0.2778676 -0.019795882 -0.16131818 0.33413646 0.32541388 -0.17432071
0.14639789 -0.093119964 0.100965895 0.35574555 -0.21656977 -0.07286197 0.17445686 0.00028930604
-0.29575402 -0.025631586 0.25719598 0.14563297 0.2960526 0.40931344 -0.04997606 -0.37098685
0.3169229 0.23811856 0.14674932 0.2169285 0.19855954 0.09857891 -0.33294874 -0.06244369
-0.28880852 -0.21458034 -0.2982341 -0.2624306 -0.023712397 -0.15682623 0.10746448 0.23262084
0.039072238 0.021836137 -0.1812471 -0.19773902 0.17328383 0.05979975 -0.06811268 -0.118455105
-0.019522086 -0.20372969 -0.16580884 -0.15489234 0.13214813 0.1321836 -0.14693876 0.12698151
-0.13322134 0.16255634 -0.38864377 -0.0022950093 0.3282966 0.16710602 -0.09052881 0.15382954
0.11208154 0.25140116 -0.15316147 -0.05878983 0.19331276 -0.04011216 -0.16454446 0.3115547
-0.14194727 0.28414685 0.031084131 -0.2678962 -0.27624485 -0.100903444 0.48699626 0.14541177
0.0119168265 0.30563018 0.029248793 -0.10339504 0.18011004 -0.15668796 0.1290311 -0.19044863
-0.09362329 0.18375987 -0.48462117 -0.017251978 -0.011673654 -0.6233973 -0.2898059 0.47189176
-0.028155569 -0.06299682 0.13854401 -0.11290053 0.2882311 0.0016296231 -0.19456738 0.17968528
-0.21318921 0.035953447 0.30042762 0.19037007 0.1821036 0.031628717 0.28387734 0.19493882
-0.060862456 0.01009435 0.2347064 -0.39235088 -0.096002094 -0.08743549 -0.21632947 0.050750975
0.5111297 0.17341644 0.022652883 0.12954743 0.11733439 -0.1628837 0.025953073 -0.10182482
0.42051837 -0.056267194 0.13042049 0.12984702 0.22094287 0.13250105 -0.11886877 0.056581788
0.10976641 -0.04551678 0.07372219 0.032832794 -0.31775883 0.05663622 -0.028690798 0.10722025
0.18967195 -0.3143807 0.060365137 -0.14195879 0.3037004 0.19752306 0.17030111 0.22324984
-0.17343779 -0.10809634 -0.3570915 0.061571546 0.09870258 -0.10911396 0.08934769 0.18368195
-0.17277811 -0.19322425 0.35995248 -0.09646887 0.3080252 0.14087017 0.43625057 0.40063176
0.15372294 -0.030256437 -0.29750264 0.0427809 -0.08186701 0.046077006 -0.5577204 -0.09945258
0.07397802 -0.15109363 0.312714 0.11856968 -0.26445755 0.32309982 0.18654136 -0.03143305
-0.13335493 0.033036225 -0.11457015 0.11990506 0.079587296 -0.105300605 -0.14145532 -0.02035265
0.25944132 -0.3494172 -0.18629175 -0.17318793 -0.16851069 0.13868617 -0.27634948 0.046015117
-0.38471878 0.005920177 -0.08317263 0.05584678 0.24411939 0.06818565 -0.13640212 -0.027242752
00000000: 1588 b0bd 008c 3439 5666 07bd 11f6 41be
00000010: 4c72 f53c dbe2 bb3e 6a42 60bc 64e5 833c
00000020: c495 123e f521 5cbd 48d1 393e e7b5 1f3e
00000030: 5e58 99bd 7ea5 79bc 6ab7 3bbd ff05 853e
00000040: edcc 9b3e 50a9 dd3d 425f ef3e 8011 23be
00000050: 0a4d 413d 4dee 30be f680 22be f501 773b
00000060: b787 873e 1c50 e83d 92b5 b33b 4e6c 9b3d
00000070: d786 87be e28c 94be a070 32be 2f14 09bf
00000080: ddda ddbd d881 3c3e a72c 4dbe 865a 31be
00000090: abdb adbd ea31 8abe c552 243e f902 603e
000000a0: b307 b63e 6aba 00be 5ffc 96be 15ed cb3b
000000b0: 96fa f33d b286 1fbd 9b27 773e e798 033f
000000c0: 6b56 ffbd 10c1 18be a944 8ebe f92a a2bc
000000d0: 9830 25be ef13 ab3e a69c a63e 2181 32be
000000e0: 54e9 153e aeb5 bebd 35c7 ce3d 4824 b63e
000000f0: 77c4 5dbe a838 95bd d2a4 323e 00ae 9739
00000100: 126d 97be 55f9 d1bc 31af 833e cf20 153e
00000110: 3594 973e 8891 d13e b2b3 4cbd fdf1 bdbe
00000120: b843 a23e 5ad5 733e 7445 163e 8122 5e3e
00000130: 3153 4b3e bde3 c93d 4278 aabe f4c4 7fbd
00000140: b6de 93be f3ba 5bbe 24b2 98be 4e5d 86be
00000150: 8040 c2bc 0e97 20be 5616 dc3d 2834 6e3e
00000160: 360a 203d b3e1 b23c d798 39be 197c 4abe
00000170: 5171 313e 95f0 743d a97e 8bbd 9798 f2bd
00000180: c8ec 9fbc 849e 50be cbc9 29be 199c 1ebe
00000190: d751 073e 235b 073e 1d77 16be 7107 023e
000001a0: 2d6b 08be 2b75 263e 51fc c6be de67 16bb
000001b0: 7e16 a83e d71d 2b3e 2b67 b9bd 7e85 1d3e
000001c0: 028b e53d a7b7 803e 5cd6 1cbe 9bcd 70bd
000001d0: c8f3 453e a64c 24bd 587e 28be 1984 9f3e
000001e0: a05a 11be b27b 913e 26a4 fe3c b129 89be
000001f0: f76f 8dbe 77a6 cebd 9357 f93e d3e6 143e
00000200: cb3e 433c 8f7b 9c3e 2a9b ef3c c7c0 d3bd
00000210: c46e 383e cf72 20be bb20 043e f704 43be
00000220: 91bd bfbd 8c2b 3c3e 4420 f8be 0554 8dbc
00000230: db42 3fbc f796 1fbf 7061 94be cc9b f13e
00000240: 82a6 e6bc 7a04 81bd 7bde 0d3e 6538 e7bd
00000250: 0793 933e 1499 d53a ac3c 47be 6bff 373e
00000260: 464e 5abe ec43 133d a6d1 993e 5ff0 423e
00000270: 5e79 3a3e 1d8d 013d 5f58 913e 0b9e 473e
00000280: e94a 79bd c662 253c e056 703e 37e2 c8be
00000290: bf9c c4bd 6111 b3bd 7985 5dbe 41e0 4f3d
000002a0: 65d9 023f 1494 313e 8a92 b93c 15a8 043e
000002b0: 034d f03d fcca 26be 8a9b d43c 8889 d0bd
000002c0: 2f4e d73e 6e78 66bd f38c 053e 9ef6 043e
000002d0: d93e 623e 5bae 073e 7871 f3bd 4ec2 673d
000002e0: 36cd e03d ce6f 3abd a9fb 963d ae7b 063d
000002f0: 49b1 a2be 62fb 673d f708 ebbc 4a96 db3d
00000300: 5d39 423e 82f6 a0be 6f41 773d a55d 11be
00000310: 9e7e 9b3e 7c43 4a3e 6a63 2e3e 9b9b 643e
00000320: ad99 31be 9d61 ddbd b2d4 b6be 7232 7c3d
00000330: 9424 ca3d 2477 dfbd ecfb b63d 1f17 3c3e
00000340: bfec 30be 94dc 45be b14b b83e 7991 c5bd
00000350: 7bb5 9d3e 4540 103e 3c5c df3e 9b1f cd3e
00000360: 8c69 1d3e 59dc f7bc 4452 98be 063b 2f3d
00000370: e4a9 a7bd 3ebb 3c3d c4c6 0ebf cbad cbbd
00000380: ca81 973d 4ab8 1abe 0d1c a03e a9d4 f23d
00000390: fb66 87be 576d a53e b304 3f3e f1bf 00bd
000003a0: 328e 08be fe50 073d c1a3 eabd c990 f53d
000003b0: aafe a23d d8a7 d7bd aad9 10be 9aba a6bc
000003c0: 7ed5 843e d0e6 b2be 44c3 3ebe 2d58 31be
000003d0: 118e 2cbe bf03 0e3e ae7d 8dbe 597a 3c3d
000003e0: dcf9 c4be 0bfe c13b 6956 aabd 98bf 643d
000003f0: 6ffa 793e eba4 8b3d ffac 0bbe 312c dfbc

base.mlp.fc_h.0.bias f4 [64]
0.0 0.0 0.0 0.0 0.0 0.0 0.0 0.0
0.0 0.0 0.0 0.0 0.0 0.0 0.0 0.0
0.0 0.0 0.0 0.0 0.0 0.0 0.0 0.0
0.0 0.0 0.0 0.0 0.0 0.0 0.0 0.0
0.0 0.0 0.0 0.0 0.0 0.0 0.0 0.0
0.0 0.0 0.0 0.0 0.0 0.0 0.0 0.0
0.0 0.0 0.0 0.0 0.0 0.0 0.0 0.0
0.0 0.0 0.0 0.0 0.0 0.0 0.0 0.0
00000000: 0000 0000 0000 0000 0000 0000 0000 0000
00000010: 0000 0000 0000 0000 0000 0000 0000 0000
00000020: 0000 0000 0000 0000 0000 0000 0000 0000
00000030: 0000 0000 0000 0000 0000 0000 0000 0000
00000040: 0000 0000 0000 0000 0000 0000 0000 0000
00000050: 0000 0000 0000 0000 0000 0000 0000 0000
00000060: 0000 0000 0000 0000 0000 0000 0000 0000
00000070: 0000 0000 0000 0000 0000 0000 0000 0000
00000080: 0000 0000 0000 0000 0000 0000 0000 0000
00000090: 0000 0000 0000 0000 0000 0000 0000 0000
000000a0: 0000 0000 0000 0000 0000 0000 0000 0000
000000b0: 0000 0000 0000 0000 0000 0000 0000 0000
000000c0: 0000 0000 0000 0000 0000 0000 0000 0000
000000d0: 0000 0000 0000 0000 0000 0000 0000 0000
000000e0: 0000 0000 0000 0000 0000 0000 0000 0000
000000f0: 0000 0000 0000 0000 0000 0000 0000 0000

base.mlp.fc_h.2.weight f4 [64]
1.0 1.0 1.0 1.0 1.0 1.0 1.0 1.0
1.0 1.0 1.0 1.0 1.0 1.0 1.0 1.0
1.0 1.0 1.0 1.0 1.0 1.0 1.0 1.0
1.0 1.0 1.0 1.0 1.0 1.0 1.0 1.0
1.0 1.0 1.0 1.0 1.0 1.0 1.0 1.0
1.0 1.0 1.0 1.0 1.0 1.0 1.0 1.0
1.0 1.0 1.0 1.0 1.0 1.0 1.0 1.0
1.0 1.0 1.0 1.0 1.0 1.0 1.0 1.0
00000000: 0000 803f 0000 803f 0000 803f 0000 803f
00000010: 0000 803f 0000 803f 0000 803f 0000 803f
00000020: 0000 803f 0000 803f 0000 803f 0000 803f
00000030: 0000 803f 0000 803f 0000 803f 0000 803f
00000040: 0000 803f 0000 803f 0000 803f 0000 803f
00000050: 0000 803f 0000 803f 0000 803f 0000 803f
00000060: 0000 803f 0000 803f 0000 803f 0000 803f
00000070: 0000 803f 0000 803f 0000 803f 0000 803f
00000080: 0000 803f 0000 803f 0000 803f 0000 803f
00000090: 0000 803f 0000 803f 0000 803f 0000 803f
000000a0: 0000 803f 0000 803f 0000 803f 0000 803f
000000b0: 0000 803f 0000 803f 0000 803f 0000 803f
000000c0: 0000 803f 0000 803f 0000 803f 0000 803f
000000d0: 0000 803f 0000 803f 0000 803f 0000 803f
000000e0: 0000 803f 0000 803f 0000 803f 0000 803f
000000f0: 0000 803f 0000 803f 0000 803f 0000 803f

base.mlp.fc_h.2.bias f4 [64]
0.0 0.0 0.0 0.0 0.0 0.0 0.0 0.0
0.0 0.0 0.0 0.0 0.0 0.0 0.0 0.0
0.0 0.0 0.0 0.0 0.0 0.0 0.0 0.0
0.0 0.0 0.0 0.0 0.0 0.0 0.0 0.0
0.0 0.0 0.0 0.0 0.0 0.0 0.0 0.0
0.0 0.0 0.0 0.0 0.0 0.0 0.0 0.0
0.0 0.0 0.0 0.0 0.0 0.0 0.0 0.0
0.0 0.0 0.0 0.0 0.0 0.0 0.0 0.0
00000000: 0000 0000 0000 0000 0000 0000 0000 0000
00000010: 0000 0000 0000 0000 0000 0000 0000 0000
00000020: 0000 0000 0000 0000 0000 0000 0000 0000
00000030: 0000 0000 0000 0000 0000 0000 0000 0000
00000040: 0000 0000 0000 0000 0000 0000 0000 0000
00000050: 0000 0000 0000 0000 0000 0000 0000 0000
00000060: 0000 0000 0000 0000 0000 0000 0000 0000
00000070: 0000 0000 0000 0000 0000 0000 0000 0000
00000080: 0000 0000 0000 0000 0000 0000 0000 0000
00000090: 0000 0000 0000 0000 0000 0000 0000 0000
000000a0: 0000 0000 0000 0000 0000 0000 0000 0000
000000b0: 0000 0000 0000 0000 0000 0000 0000 0000
000000c0: 0000 0000 0000 0000 0000 0000 0000 0000
000000d0: 0000 0000 0000 0000 0000 0000 0000 0000
000000e0: 0000 0000 0000 0000 0000 0000 0000 0000
000000f0: 0000 0000 0000 0000 0000 0000 0000 0000

base.mlp.fc2.0.0.weight f4 [64, 64]
-0.10156049 0.011382621 -0.018657966 -0.18120642 0.049240585 0.3820694 -0.011358917 0.008468448
0.12537399 -0.033224273 0.17771664 0.17623276 -0.06806162 0.004789108 -0.06284992 0.25114244
0.2838554 0.12713769 0.45885175 -0.17171668 0.092588894 -0.1589687 -0.14309567 -0.008646227
0.24413018 0.10570115 -0.0036895436 0.09918108 -0.272792 -0.3108942 -0.16088001 -0.5331542
-0.09545865 0.19145715 -0.21095882 -0.1658736 -0.10197882 -0.2791439 0.15152043 0.23022436
0.3570205 -0.113644615 -0.2751972 -0.0011720258 0.13174784 -0.031531285 0.26169118 0.49932873
-0.13300222 -0.16033356 -0.29198664 -0.001603919 -0.1706766 0.32111868 0.30457035 -0.18214895
0.12574635 -0.10612369 0.11117146 0.33558792 -0.24211948 -0.047452874 0.1595097 -0.006301538
-0.28972858 -0.021846334 0.24765004 0.15348707 0.29385868 0.4132477 -0.046294723 -0.38039774
0.31871906 0.23746127 0.13991794 0.22372265 0.202962 0.09901149 -0.33153147 -0.0648764
-0.29412475 -0.21444091 -0.30159634 -0.26713967 -0.018080946 -0.15411748 0.111692876 0.23451911
0.03539516 0.018312912 -0.1841788 -0.19092053 0.16906224 0.055952877 -0.06577201 -0.12065285
-0.021140218 -0.1974651 -0.1691436 -0.15130772 0.1350766 0.13530771 -0.15053199 0.13589732
-0.13727441 0.1623042 -0.39027724 -0.0037832719 0.32496697 0.17309463 -0.08719705 0.1509325
0.108857684 0.2515328 -0.15313758 -0.062441766 0.1889066 -0.043446142 -0.17061959 0.30869383
-0.14493343 0.28112945 0.031020489 -0.26721817 -0.27018467 -0.09922702 0.47937632 0.15692131
-0.0013286001 0.31317812 0.039119408 -0.10365044 0.19414964 -0.14814857 0.12853152 -0.19767419
-0.10791165 0.1975026 -0.46931663 -0.0037110695 -0.0050683906 -0.608978 -0.30472672 0.46445057
-0.037032235 -0.048252556 0.13158329 -0.1217308 0.29568082 0.0101363445 -0.18589528 0.16723135
-0.2263931 0.029167537 0.29300573 0.18364255 0.17405605 0.017077815 0.29177338 0.19808367
-0.04853534 0.017192734 0.22667623 -0.3856122 -0.106823035 -0.093648575 -0.22328387 0.05782033
0.5118181 0.1821914 0.036205206 0.13364558 0.12408305 -0.1559145 0.04043117 -0.11024574
0.4135608 -0.0646625 0.11698293 0.14383422 0.21246554 0.12451877 -0.12476533 0.049256843
0.09516248 -0.05379908 0.081456676 0.019835597 -0.32299483 0.061875302 -0.03719088 0.103204526
0.15544333 -0.28108725 0.08821476 -0.12004829 0.3371464 0.23225446 0.19326949 0.19864829
-0.2070563 -0.07785674 -0.38502878 0.09279879 0.12661977 -0.075866856 0.056480158 0.15512173
-0.206171 -0.16326167 0.3312513 -0.1182546 0.37078255 0.1718435 0.4646142 0.36703882
0.123468466 -0.05842883 -0.3256912 0.082633704 -0.10810311 0.010937534 -0.5268687 -0.076512635
0.10523562 -0.12286219 0.28215656 0.14777729 -0.29624903 0.30064026 0.15812175 -0.0025092869
-0.11970565 0.06680082 -0.080677114 0.092870854 0.09807858 -0.07797317 -0.10740569 -0.051058784
0.23132701 -0.38486773 -0.22036059 -0.14037327 -0.1932466 0.11020905 -0.31185567 0.018561315
-0.4140187 -0.026989562 -0.05477693 0.027176026 0.21869014 0.09798942 -0.16105522 -0.04466541
00000000: f2fe cfbd 2c7e 3a3c 97d8 98bc 2d8e 39be
00000010: 7fb0 493d 9a9e c33e c01a 3abc 3fbf 0a3c
00000020: 0a62 003e 2d16 08bd 5afb 353e 5c76 343e
00000030: e463 8bbd f3ed 9c3b 75b7 80bd be95 803e
00000040: 7f55 913e 6230 023e 9eee ea3e 7fd6 2fbe
00000050: 3f9f bd3d b1c8 22be ac87 12be e8a8 0dbc
00000060: 43fd 793e d879 d83d 45cc 71bb 731f cb3d
00000070: 65ab 8bbe 862d 9fbe bbbd 24be cb7c 08bf
00000080: d37f c3bd 580d 443e 9705 58be c5da 29be
00000090: 46da d0bd f3eb 8ebe 2c28 1b3e efbf 6b3e
000000a0: 64cb b63e 82be e8bd a6e6 8cbe a99e 99ba
000000b0: e8e8 063e f326 01bd 63fc 853e 04a8 ff3e
000000c0: bc31 08be 7b2e 24be 467f 95be 973a d2ba
000000d0: d9c5 2ebe ab69 a43e a5f0 9b3e 4185 3abe
000000e0: a7c3 003e 6157 d9bd ddad e33d 2ed2 ab3e
000000f0: 2bee 77be f25d 42bd 8356 233e 227d cebb
00000100: 4e57 94be 15f7 b2bc f997 7d3e b72b 1d3e
00000110: a574 963e 3495 d33e 899f 3dbd 7ec3 c2be
00000120: 252f a33e 0c29 733e a646 0f3e 8d17 653e
00000130: 45d5 4f3e 89c6 ca3d 7ebe a9be ebdd 84bd
00000140: 8597 96be 6696 5bbe d66a 9abe 88c6 88be
00000150: 7e1e 94bc f9d0 1dbe 3cbf e43d c725 703e
00000160: 84fa 103d f604 963c 5e99 3cbe ac80 43be
00000170: a71e 2d3e d82e 653d 7ab3 86bd d718 f7bd
00000180: 402e adbc 4b34 4abe fb33 2dbe 69f0 1abe
00000190: 8551 0a3e 1b8e 0a3e 0f25 1abe ab28 0b3e
000001a0: aa91 0cbe 1233 263e 6bd2 c7be c5f0 77bb
000001b0: 1262 a63e b83f 313e 5e94 b2bd 0d8e 1a3e
000001c0: c7f0 de3d e8c8 803e 19d0 1cbe f0c2 7fbd
000001d0: bb70 413e 95f4 31bd e7b6 2ebe 1e0d 9e3e
000001e0: 6e69 14be 33f0 8f3e ae1e fe3c d2d0 88be
000001f0: a555 8abe 8937 cbbd d070 f53e fbaf 203e
00000200: 6c24 aeba e258 a03e ac3b 203d af46 d4bd
00000210: 2acf 463e 42b4 17be c49d 033e 1a6b 4abe
00000220: c800 ddbd 1f3e 4a3e 454a f0be 6a35 73bb
00000230: be14 a6bb fbe5 1bbf 2405 9cbe 77cc ed3e
00000240: 1daf 17bd 79a4 45bd c5bd 063e ff4d f9bd
00000250: 7a63 973e e912 263c 555b 3ebe b23e 2b3e
00000260: 98d3 67be c2f0 ee3c d904 963e cb0c 3c3e
00000270: c03b 323e c6e6 8b3c 5263 953e 72d6 4a3e
00000280: fecc 46bd c7d7 8c3c d01d 683e f66e c5be
00000290: 09c6 dabd d3ca bfbd 87a4 64be 03d5 6c3d
000002a0: 8306 033f 6290 3a3e e94b 143d 63da 083e
000002b0: 411f fe3d 0da8 1fbe 289b 253d 85c8 e1bd
000002c0: 3ebe d33e c66d 84bd bf94 ef3d 4749 133e
000002d0: 9190 593e b203 ff3d f784 ffbd 8bc1 493d
000002e0: 8ce4 c23d 6d5c 5cbd c2d2 a63d 437e a23c
000002f0: 945f a5be f570 7d3d 7755 18bd e55c d33d
00000300: 892c 1f3e abea 8fbe f1a9 b43d e1db f5bd
00000310: 749e ac3e 1dd4 6d3e 70e8 453e 756a 4b3e
00000320: 9106 54be 5b73 9fbd 7e22 c5be 4b0d be3d
00000330: 9da8 013e 1560 9bbd bd57 673d 3bd8 1e3e
00000340: 7e1e 53be 112e 27be c599 a93e 782f f2bd
00000350: 36d7 bd3e bef7 2f3e eae1 ed3e 83ec bb3e
00000360: 09dd fc3d 1253 6fbd ffc0 a6be dc3b a93d
00000370: 2a65 ddbd 5833 333c dee0 06bf a8b2 9cbd
00000380: c685 d73d 2c9f fbbd d376 903e ee52 173e
00000390: f4ad 97be 85ed 993e abea 213e d972 24bb
000003a0: 3c28 f5bd dece 883d 0b3a a5bd 1333 be3d
000003b0: 6cdd c83d 66b0 9fbd 84f7 dbbd 0423 51bd
000003c0: fde0 6c3e 620d c5be 35a6 61be 03be 0fbe
000003d0: 70e2 45be 48b5 e13d 8cab 9fbe e60d 983c
000003e0: 42fa d3be 3719 ddbc c65d 60bd 42a0 de3c
000003f0: 4ff0 5f3e adae c83d a9eb 24be 14f3 36bd

base.mlp.fc2.0.0.bias f4 [64]
0.009203145 0.0037294484 0.0072011403 0.029049085 -0.008821797 -0.000118443575 -0.00572331 0.0023205755
-0.011767376 -0.012377191 0.011248084 0.003996135 0.011133499 -0.0077912374 0.0126360245 -0.004598501
0.0044330405 0.0088675255 0.0050370977 -0.011554261 -0.008598186 0.003343314 -0.00097101263 0.0037392976
0.0018726962 -0.009700396 -0.009293745 -0.023645358 -0.0063976864 0.009348078 -0.017599473 0.00016559714
0.004032276 -0.012026248 0.017147345 -0.005738462 -0.0122012785 0.0073483973 0.008604717 0.010138152
0.0073842225 0.004823923 0.00070329517 -0.012088606 0.00048355153 0.0074633406 -0.0035891538 -0.0042017736
0.003412186 0.012372389 -0.007570399 -0.003986229 -0.008165788 -0.002342271 -0.0096096825 -0.0035655817
-0.0096102115 -0.0013571179 -0.006995065 0.006855837 0.012753362 -0.0054669175 0.011679328 -0.0060783247
00000000: cac8 163c c369 743b 8bf7 eb3b 59f8 ed3c
00000010: 4c89 10bc e964 f8b8 9b8a bbbb cc14 183b
00000020: f4cb 40bc b4c9 4abc e249 383c 03f2 823b
00000030: 4869 363c a34d ffbb 5407 4f3c 06af 96bb
00000040: 0a43 913b 1949 113c 3d0e a53b 154e 3dbc
00000050: 68df 0cbc 801b 5b3b 8e8b 7eba 010f 753b
00000060: 4275 f53a 69ee 1ebc cb44 18bc e9b3 c1bc
00000070: afa3 d1bb ae28 193c c52c 90bc 25a4 2d39
00000080: 2f21 843b bd09 45bc 9778 8c3c b509 bcbb
00000090: dfe7 47bc d3ca f03b cdfa 0c3c 7e1a 263c
000000a0: 59f7 f13b 0012 9e3b 575d 383a 4a0f 46bc
000000b0: 3085 fd39 0a8f f43b 0238 6bbb 08af 89bb
000000c0: fb9e 5f3b 90b5 4a3c 1c11 f8bb ea9e 82bb
000000d0: ccc9 05bc c980 19bb ee71 1dbc 89ac 69bb
000000e0: 2674 1dbc 52e1 b1ba dc36 e5bb eea6 e03b
000000f0: 7af3 503c d423 b3bb a75a 3f3c af2c c7bb

base.mlp.fc2.0.2.weight f4 [64]
0.9900256 1.0042562 1.0010219 1.0057431 1.0003333 1.0021712 1.0051891 0.9920318
1.0094281 0.9977285 1.0025216 0.97964036 1.0051636 1.0072535 1.013196 1.0091937
1.0011883 1.0164386 0.9866066 1.0215734 1.0027112 1.0068127 1.0081177 0.988668
1.0106585 1.011777 1.0061888 1.0738531 1.0214765 1.007164 1.0371569 1.0024432
1.0547243 1.0097204 1.014157 0.99595094 0.99589664 0.9969344 1.0008348 1.0082333
0.99641484 0.9906031 0.9897152 1.0046934 1.0159596 1.007294 0.9856853 1.0007151
0.9913514 0.997064 1.0284284 0.9889422 1.0198275 0.9840337 0.99505925 0.99901515
0.99768084 1.0010054 1.0006132 1.0218471 0.99332374 1.0044224 0.9784741 1.003071
00000000: 5172 7d3f 788b 803f 7c21 803f 31bc 803f
00000010: ec0a 803f 2547 803f 09aa 803f ccf5 7d3f
00000020: f134 813f 236b 7f3f a152 803f b6c9 7a3f
00000030: 33a9 803f afed 803f 68b0 813f 422d 813f
00000040: f026 803f a91a 823f 4092 7c3f ebc2 823f
00000050: d758 803f 3ddf 803f 000a 813f 5919 7d3f
00000060: 425d 813f e981 813f cbca 803f 0574 893f
00000070: bebf 823f c0ea 803f 8fc1 843f 0f50 803f
00000080: 3501 873f 853e 813f e6cf 813f a4f6 7e3f
00000090: 15f3 7e3f 1837 7f3f 5b1b 803f ca0d 813f
000000a0: 0b15 7f3f 2a98 7d3f fa5d 7d3f cb99 803f
000000b0: f70a 823f 03ef 803f df55 7c3f 6f17 803f
000000c0: 35c9 7d3f 963f 7f3f 8ba3 833f 512b 7d3f
000000d0: b589 823f a2e9 7b3f 34bc 7e3f 75bf 7f3f
000000e0: 0368 7f3f f220 803f 1814 803f e3cb 823f
000000f0: 774a 7e3f ea90 803f 477d 7a3f a164 803f

base.mlp.fc2.0.2.bias f4 [64]
0.010202439 0.00024802444 0.010284698 0.014697704 -0.0065464713 -0.0049025156 -0.0053730244 -0.006121761
-0.007781139 -0.0108227935 0.0038903938 0.0048245494 0.0047175195 -0.010720208 0.014306031 -0.0059455424
0.0018031326 0.015482185 -0.008221285 -0.020705055 -0.009314691 0.003887395 -0.0018159399 0.009516224
-0.002828075 -0.016548023 -0.006577368 -0.010205248 -0.016597962 0.013416624 -0.009792964 -0.0021649618
-0.019520074 -0.011395909 0.015259352 -0.007724576 -0.010242184 0.0075024217 0.007247721 0.0075767213
0.008511548 -0.008557084 -0.0068937116 -0.0057350933 0.010548359 0.0043668128 0.009297964 -0.0027740144
0.0015423257 0.010219308 -0.02223173 0.0067641423 -0.016664222 -0.007095571 -0.0068111927 -0.009291726
-0.013183695 -0.0011440607 -0.0107039865 0.020678254 -0.0017493065 -0.0062309443 0.00025732483 0.0019892615
00000000: 2128 273c 4709 8239 2681 283c a4ce 703c
00000010: c883 d6bb 48a5 a0bb 3210 b0bb 0e99 c8bb
00000020: edf8 febb 1652 31bc faf5 7e3b 4117 9e3b
00000030: 6c95 9a3b d0a3 2fbc d863 6a3c d3d2 c2bb
00000040: 1757 ec3a fea8 7d3c 92b2 06bc a69d a9bc
00000050: a59c 18bc aac3 7e3b d504 eeba f0e9 1b3c
00000060: 3a57 39bb b88f 87bc f686 d7bb ea33 27bc
00000070: 73f8 87bc 66d1 5b3c ab72 20bc 08e2 0dbb
00000080: 90e8 9fbc e8b5 3abc 5c02 7a3c 711e fdbb
00000090: d5ce 27bc e0d6 f53b 4a7e ed3b 2546 f83b
000000a0: 0574 0b3c 0333 0cbc a5e4 e1bb 73ed bbbb
000000b0: 06d3 2c3c 7b17 8f3b 7d56 183c 3dcc 35bb
000000c0: dd27 ca3a e26e 273c 511f b6bc bda5 dd3b
000000d0: 6883 88bc f781 e8bb 6d30 dfbb 533c 18bc
000000e0: 6d00 58bc 4ff4 95ba c65f 2fbc 7165 a93c
000000f0: fc48 e5ba f32c ccbb 8ee9 8639 455e 023b

base.mlp.fc2.1.0.weight f4 [64, 64]
-0.08810724 0.008045359 -0.01871738 -0.18937087 0.027713964 0.36108544 -0.010619066 0.018543767
0.14371516 -0.058015425 0.19155918 0.14308171 -0.07146052 0.021036534 -0.045362547 0.25842163
0.29667786 0.109496 0.47368103 -0.16138898 0.050571058 -0.1732166 -0.15064508 0.0014448818
0.27839154 0.10459056 0.010805796 0.08927661 -0.2708717 -0.2847614 -0.16644162 -0.5360866
-0.13523501 0.18171278 -0.19654877 -0.17409615 -0.072188735 -0.27118164 0.15960239 0.21948114
0.36272883 -0.14410612 -0.2933669 0.0035381801 0.1269849 -0.043503042 0.23819906 0.5163698
-0.12789926 -0.15264072 -0.28815892 -0.023411725 -0.1649506 0.34233022 0.32792783 -0.19668666
0.16718121 -0.09767348 0.09242317 0.35149252 -0.20968695 -0.07617622 0.16981909 0.0007849565
-0.28333473 -0.031644113 0.2679882 0.14645551 0.3013383 0.4148689 -0.04013013 -0.37648112
0.31451127 0.22959471 0.13511668 0.21836205 0.1946658 0.088651314 -0.34374496 -0.055467132
-0.29111657 -0.22596797 -0.30816162 -0.25974676 -0.022386558 -0.16612124 0.11402122 0.24411884
0.040428404 0.03237774 -0.17614049 -0.21803428 0.17729853 0.054211408 -0.077977635 -0.10769579
-0.019236792 -0.1937587 -0.1703329 -0.16323693 0.12262467 0.14269567 -0.14445624 0.12999012
-0.123290986 0.1553345 -0.39248314 -0.0004333724 0.31286642 0.1679373 -0.07908702 0.16393706
0.10484032 0.2528264 -0.14285044 -0.05194108 0.20333636 -0.04921591 -0.17591876 0.3157633
-0.1353989 0.29469535 0.026036171 -0.27288845 -0.28269488 -0.0964302 0.47707087 0.13332795
0.019343955 0.2914369 0.03731076 -0.090964414 0.1766839 -0.14471056 0.13546549 -0.20187981
-0.08671259 0.17585965 -0.49383903 -0.028786432 -0.02033604 -0.6239948 -0.2959579 0.483916
-0.034441687 -0.069602445 0.12654486 -0.11586286 0.2803124 -0.0070695416 -0.18472977 0.19131339
-0.20046365 0.048686843 0.30315307 0.17300744 0.18343554 0.036560137 0.27482644 0.2019416
-0.05480891 0.016081138 0.2248845 -0.4005669 -0.095058605 -0.07796333 -0.21294492 0.04006659
0.5246008 0.16116703 0.011618054 0.14170413 0.104995795 -0.16957948 0.037594058 -0.093955666
0.41653085 -0.04623686 0.13542643 0.14180127 0.2292999 0.12561817 -0.12607881 0.05785733
0.10007046 -0.03840428 0.063729756 0.026500791 -0.33072785 0.06489942 -0.03305735 0.09828404
0.17621396 -0.3063647 0.06793145 -0.13392772 0.29107752 0.1885493 0.15941197 0.23422806
-0.18229456 -0.120571174 -0.33862233 0.058294628 0.10942418 -0.046093374 0.10135513 0.17203239
-0.16174251 -0.18007909 0.36803013 -0.11163202 0.2947596 0.16699772 0.4316222 0.38848767
0.1512352 -0.039200872 -0.31397575 0.06967248 -0.09839811 0.04434513 -0.572819 -0.11195572
0.058681246 -0.16356713 0.3253129 0.12263732 -0.25308788 0.31410924 0.1973081 -0.02216848
-0.13658066 0.023739915 -0.10327395 0.11096147 0.098019816 -0.0918399 -0.15075256 -0.033483036
0.26625323 -0.3619744 -0.20378357 -0.18524973 -0.18160354 0.13676074 -0.2651148 0.022134712
-0.41412947 -0.006762513 -0.07612444 0.07079783 0.2514515 0.055573136 -0.11317989 -0.014473008
00000000: 9271 b4bd aed0 033c 3155 99bc 70ea 41be
00000010: 6508 e33c 31e0 b83e 97fb 2dbc 19e9 973c
00000020: 112a 133e 95a1 6dbd 1728 443e 0384 123e
00000030: e559 92bd cf54 ac3c 14ce 39bd d74f 843e
00000040: 29e6 973e 703f e03d 5286 f23e 2743 25be
00000050: 9923 4f3d b15f 31be b442 1abe 3062 bd3a
00000060: 5689 8e3e 9333 d63d cb0a 313c a8d6 b63d
00000070: b2af 8abe 3fcc 91be ac6f 2abe f93c 09bf
00000080: 0c7b 0abe ea12 3a3e 1544 49be 4346 32be
00000090: b0d7 93bd 52d8 8abe cf6e 233e aabf 603e
000000a0: 98b7 b93e 8e90 13be 3034 96be d0e0 673b
000000b0: 5408 023e 3f30 32bd 74ea 733e d030 043f
000000c0: 06f8 02be d94d 1cbe 9189 93be f2c9 bfbc
000000d0: cfe8 28be e845 af3e 28e6 a73e 3a68 49be
000000e0: 8d31 2b3e 0909 c8bd 5c48 bd3d d4f6 b33e
000000f0: 2db8 56be 4702 9cbd 0ee5 2d3e 8ac5 4d3a
00000100: 4011 91be 429d 01bd c035 893e 6ff8 153e
00000110: 0349 9a3e b269 d43e 7e5f 24bd 22c2 c0be
00000120: 9f07 a13e e01a 6b3e 075c 0a3e 4d9a 5f3e
00000130: 7956 473e d28e b53d 57ff afbe 8131 63bd
00000140: 3b0d 95be 2664 67be 5cc7 9dbe 87fd 84be
00000150: 0464 b7bc b01b 2abe f583 e93d 4afa 793e
00000160: 4198 253d 859e 043d 2c5e 34be 6144 5fbe
00000170: bf8d 353e c80c 5e3d bdb2 9fbd 9c8f dcbd
00000180: 7a96 9dbc ae68 46be bf6b 2ebe 9527 27be
00000190: a522 fb3d d01e 123e 56ec 13be 211c 053e
000001a0: fc7f fcbd 0210 1f3e 8df3 c8be 4236 e3b9
000001b0: 0730 a03e c1f7 2b3e 60f8 a1bd 1edf 273e
000001c0: 86b6 d63d 7672 813e 6347 12be 2bc0 54bd
000001d0: 6837 503e 9f96 49bd 0c24 34be baab a13e
000001e0: 02a6 0abe 4fe2 963e cf49 d53c 09b8 8bbe
000001f0: 62bd 90be 327d c5bd a242 f43e 1f87 083e
00000200: 3777 9e3c 3837 953e 2bd3 183d 8d4b babd
00000210: a0ec 343e 012f 14be 77b7 0a3e 95b9 4ebe
00000220: 5f96 b1bd 8d14 343e 78d8 fcbe 86d1 ebbc
00000230: c497 a6bc 20be 1fbf cb87 97be d7c3 f73e
00000240: ba12 0dbd ba8b 8ebd fa94 013e 8249 edbd
00000250: 1b85 8f3e 9da7 e7bb cd29 3dbe a8e7 433e
00000260: 5846 4dbe db6b 473d e136 9b3e dd28 313e
00000270: 87d6 3b3e 15c0 153d 0db6 8c3e c7c9 4e3e
00000280: 4f7f 60bd 97bc 833c 1f48 663e 1b17 cdbe
00000290: 16ae c2bd 3dab 9fbd 3c0e 5abe dd1c 243d
000002a0: 3d4c 063f f808 253e a659 3e3c e31a 113e
000002b0: 0908 d73d 3ea6 2dbe 3afc 193d d46b c0bd
000002c0: 8843 d53e dd62 3dbd 3aad 0a3e 5a34 113e
000002d0: 98cd 6a3e 0da2 003e ce1a 01be cffb 6c3d
000002e0: bef1 cc3d ce4d 1dbd bf84 823d 3018 d93c
000002f0: 2955 a9be fde9 843d 2567 07bd 2549 c93d
00000300: 6f71 343e d5db 9cbe a51f 8b3d 5924 09be
00000310: 1d08 953e 1113 413e e43c 233e 7bd9 6f3e
00000320: 6dab 3abe 05ee f6bd e85f adbe 59c6 6e3d
00000330: c919 e03d 68cc 3cbd 4793 cf3d 4229 303e
00000340: d49f 25be a766 38be 726e bc3e 549f e4bd
00000350: bbea 963e 7301 2b3e 96fd dc3e dbe7 c63e
00000360: 66dd 1a3e 1891 20bd 6ec1 a0be 72b0 8e3d
00000370: f384 c9bd 3da3 353d 44a4 12bf 0a49 e5bd
00000380: bf5b 703d 247e 27be 6a8f a63e 4629 fb3d
00000390: bc94 81be edd2 a03e 220b 4a3e ac9a b5bc
000003a0: cddb 0bbe 367a c23c 4b81 d3bd c43f e33d
000003b0: 9dbe c83d 8f16 bcbd e15e 1abe 8225 09bd
000003c0: 5852 883e b554 b9be a4ac 50be 1bb2 3dbe
000003d0: 47f6 39be 020b 0c3e 21bd 87be db53 b53c
000003e0: c708 d4be 1298 ddbb 21e7 9bbd 74fe 903d
000003f0: 40be 803e a8a0 633d dcca e7bd 3220 6dbc
