results/MyEnv/Intersection_MAPPO/rmappo/check/run1/models/critic.pt (torch, 727522 bytes, 29 tensors)

base.feature_norm.weight f4 [2080]
000000 f9 6f 7f 3f bb d8 80 3f a5 03 7f 3f da 8a 7f 3f
       0.9978023 1.0066141 0.99614936 0.99821246
000010 a0 41 81 3f b2 e7 7e 3f f4 55 80 3f 03 f5 7d 3f
       1.0098152 0.9957229 1.0026231 0.99201983
000020 27 b6 7c 3f ce b9 80 3f 75 5b 81 3f 29 1f 7f 3f
       0.9871544 1.0056703 1.0106035 0.9965692
000030 9a 0e 7f 3f 7c ad 80 3f 50 92 80 3f 99 4f 7e 3f
       0.99631655 1.0052943 1.0044651 0.99340206
000040 61 fb 80 3f f2 81 81 3f bf 6d 80 3f 6a 10 82 3f
       1.0076715 1.0117781 1.0033492 1.0161259
000050 10 9a 81 3f 64 ca 80 3f 39 b9 84 3f b8 f5 82 3f
       1.0125141 1.0061765 1.0369025 1.0231237
000060 d3 c8 7c 3f 8c 94 80 3f c2 9b 7e 3f bd c2 7f 3f
       0.98743933 1.0045333 0.9945642 0.9990652
000070 c6 af 80 3f 92 a0 7e 3f 1f aa 80 3f 22 d9 80 3f
       1.0053642 0.9946376 1.0051917 1.0066264
000080 5b 6e 84 3f 96 59 7b 3f ff 02 7b 3f 13 66 80 3f
       1.0346178 0.9818357 0.98051447 1.003115
000090 c5 3e 80 3f 9c 86 7e 3f c8 90 80 3f 3e ee 80 3f
       1.0019156 0.9942415 1.0044184 1.0072706
0000a0 2a 06 7d 3f 89 38 81 3f f6 18 82 3f 92 b0 7d 3f
       0.9883753 1.0095378 1.0163867 0.9909755
0000b0 fd 8c 80 3f ba 88 7d 3f 33 57 80 3f 6b 28 80 3f
       1.0043026 0.99036753 1.0026611 1.0012335
0000c0 08 3e 80 3f 77 32 84 3f 7b c8 7f 3f a0 59 80 3f
       1.001893 1.0327901 0.99915284 1.0027351
0000d0 1a 32 81 3f d6 a2 80 3f 10 f0 7f 3f 57 47 81 3f
       1.0093415 1.0049694 0.9997568 1.0099896
0000e0 3c 4b 82 3f f5 78 81 3f 09 af 7e 3f ac e9 7c 3f
       1.017921 1.0115038 0.9948583 0.98794055
0000f0 78 26 80 3f a0 2c 81 3f 54 3e 7d 3f fd 46 7c 3f
       1.001174 1.0091743 0.9892323 0.9854582
000100 8b 60 7d 3f 3e 54 80 3f 42 c3 81 3f d2 42 7d 3f
       0.9897544 1.0025709 1.0137713 0.98930085
000110 29 90 7e 3f 68 60 7e 3f dc 20 7d 3f ae ad 81 3f
       0.9943872 0.99365854 0.98878264 1.0131128
000120 47 86 7c 3f a3 11 82 3f 0f c5 7f 3f 05 b5 80 3f
       0.9864239 1.0161632 0.9991006 1.0055243
000130 ec 3e 80 3f f8 ab 7e 3f ca 8e 81 3f 56 3a 7d 3f
       1.0019202 0.99481153 1.0121701 0.9891714
000140 fb a6 7f 3f f4 dd 80 3f 5e 4a 82 3f 8f aa 7e 3f
       0.99864167 1.0067735 1.0178945 0.99479
000150 b6 9c 80 3f e1 c0 7e 3f e2 16 80 3f 20 ea 80 3f
       1.0047824 0.9951306 1.0006983 1.0071449
000160 ec 63 7d 3f b8 ad 7f 3f 9b ab 7e 3f 58 23 7e 3f
       0.98980594 0.9987445 0.994806 0.9927268
000170 c2 80 7f 3f f5 31 7f 3f d6 70 81 3f 14 12 7f 3f
       0.99805844 0.99685603 1.011256 0.9963696
000180 e5 47 81 3f 06 41 80 3f 6c ce 80 3f 06 27 81 3f
       1.0100065 1.0019844 1.0062995 1.0090034
000190 01 3e 80 3f 73 a0 80 3f 60 3d 7e 3f 98 df 7e 3f
       1.0018922 1.0048965 0.993124 0.99559927
0001a0 6d 64 80 3f 77 5b 7d 3f 27 cd 81 3f ab 4b 80 3f
       1.0030648 0.9896769 1.0140733 1.0023092
0001b0 15 cd 7e 3f 28 23 81 3f 5e 79 7f 3f 9c 64 80 3f
       0.9953168 1.0088854 0.99794567 1.0030704
0001c0 e9 6c 82 3f 14 4d 7f 3f 98 af 80 3f b9 dd 7d 3f
       1.0189487 0.99726987 1.0053587 0.99166447
0001d0 91 53 80 3f 10 9c 80 3f 60 89 80 3f 65 20 80 3f
       1.0025502 1.0047626 1.0041924 1.0009886
0001e0 66 4c 80 3f c8 82 80 3f c1 b1 81 3f 4c 4f 80 3f
       1.0023315 1.0039911 1.0132371 1.00242
0001f0 dd 9f 81 3f 0f 1d 7e 3f 1d b1 7e 3f 87 f0 80 3f
       1.0126911 0.9926309 0.99489003 1.0073403
000200 ac 0a 80 3f 07 4c 7b 3f 0e 19 7c 3f 67 a1 80 3f
       1.0003257 0.98162884 0.9847573 1.0049256
000210 e4 af 7c 3f 39 b7 7f 3f 51 59 80 3f 22 75 7e 3f
       0.9870589 0.9988895 1.0027257 0.9939748
000220 65 7a 80 3f 2f 23 7c 3f 05 d1 80 3f e6 82 80 3f
       1.0037352 0.98491186 1.0063788 1.0039947
000230 6f 43 80 3f 3b 07 7f 3f 5c 92 7e 3f 89 9e 7d 3f
       1.0020579 0.9962041 0.99442077 0.9907003
000240 5d 80 7d 3f 03 4e 7d 3f 8f d2 81 3f 8f 74 7f 3f
       0.9902399 0.9894716 1.0142382 0.9978723
000250 dd 8d 7d 3f 04 a8 81 3f 57 fb 80 3f 0b 39 7d 3f
       0.9904459 1.0129399 1.0076703 0.98915166
000260 95 32 7d 3f 84 ee 82 3f 72 6b 7e 3f 03 d6 79 3f
       0.9890531 1.0229039 0.993827 0.9759218
000270 6c db 7d 3f 33 22 81 3f dc 3b 82 3f ca 38 81 3f
       0.99162936 1.0088562 1.0174518 1.0095456
000280 f3 75 7d 3f e3 d0 80 3f d5 60 81 3f f1 19 81 3f
       0.990081 1.0063747 1.0107676 1.0086042
000290 38 68 82 3f 5b 55 7e 3f e1 4b 7d 3f 94 0e 7e 3f
       1.0188055 0.9934899 0.9894391 0.99240994
0002a0 45 90 80 3f f1 82 80 3f d4 5c 80 3f e4 a9 7e 3f
       1.0044028 1.003996 1.0028329 0.9947798
0002b0 9f 08 80 3f b7 9e 83 3f ee 74 7c 3f bb 2a 81 3f
       1.0002631 1.0282811 0.9861592 1.0091165
0002c0 a5 07 81 3f 7f 3f 82 3f 3b b4 7e 3f 66 05 7e 3f
       1.0080458 1.0175627 0.9949376 0.9922699
0002d0 55 c9 80 3f bf ce 7e 3f b9 e9 7d 3f 94 fa 7f 3f
       1.0061442 0.9953422 0.9918476 0.99991727
0002e0 37 3c 7d 3f ab c0 7d 3f 34 83 80 3f 1c 26 80 3f
       0.98920006 0.99122113 1.004004 1.001163
0002f0 e2 4b 80 3f 24 21 80 3f 59 83 7e 3f b5 5c 80 3f
       1.0023158 1.0010114 0.9941917 1.0028292
000300 87 d2 7f 3f 18 69 80 3f d7 6e 80 3f 29 12 7f 3f
       0.99930614 1.0032072 1.0033826 0.99637085
000310 63 d9 80 3f 6d cb 7d 3f b1 9c 80 3f 92 1a 80 3f
       1.0066341 0.9913853 1.0047818 1.0008109
000320 18 89 80 3f 8e 14 7e 3f 52 46 80 3f f8 d4 80 3f
       1.0041838 0.99250114 1.002146 1.0064993
000330 81 35 7d 3f d2 d1 7f 3f e8 70 7d 3f c2 c8 80 3f
       0.98909765 0.99929535 0.99000406 1.0061266
000340 0b 10 7d 3f af ef 7d 3f 34 9a 80 3f d9 fe 7e 3f
       0.98852605 0.99193853 1.0047059 0.99607617
000350 e0 27 81 3f fd a0 7d 3f f8 b1 7d 3f 72 1f 7e 3f
       1.0090294 0.99073774 0.99099684 0.9926673
000360 fb d7 80 3f 51 96 80 3f 14 03 81 3f 7b 44 80 3f
       1.0065912 1.0045873 1.0079064 1.0020899
000370 04 1f 81 3f fc 83 81 3f c3 89 80 3f 70 65 80 3f
       1.008759 1.0118403 1.0042042 1.0030956
000380 bb d5 7c 3f da 2d 80 3f 24 3f 80 3f 95 a2 80 3f
       0.98763627 1.0013993 1.0019269 1.0049616
000390 51 44 81 3f 9a e8 81 3f 05 fb 81 3f 09 49 84 3f
       1.0098974 1.0149109 1.015473 1.0334789
0003a0 1e dc 7d 3f 5c 06 7d 3f 28 dc 7d 3f 20 ae 80 3f
       0.99164 0.9883783 0.99164057 1.0053139
0003b0 81 16 80 3f 30 c4 80 3f 91 ce 83 3f d5 f4 81 3f
       1.0006868 1.0059872 1.0297414 1.0152842
0003c0 e9 f9 80 3f 37 27 7d 3f 70 37 7f 3f aa 51 7e 3f
       1.0076267 0.9888796 0.99693966 0.9934336
0003d0 1b 5a 81 3f 35 80 80 3f 21 a6 7e 3f 44 94 80 3f
       1.0105623 1.0039126 0.9947224 1.0045247
0003e0 50 ec 7e 3f 3a e6 7d 3f a2 1e 80 3f ef a0 80 3f
       0.99579334 0.9917942 1.0009348 1.0049113
0003f0 03 77 80 3f 9a a1 7f 3f 1e f0 7c 3f ef 92 81 3f
       1.003632 0.9985596 0.9880389 1.0122966

base.feature_norm.bias f4 [2080]
000000 c9 37 f6 bb 03 0d ea bb 8e 7c 0b 3b da 94 6f ba
       -0.0075139743 -0.0071426644 0.0021283957 -0.0009139307
000010 bf b5 34 bc ec 2f bb 3b e8 fe 87 ba 1a be df bb
       -0.01102966 0.0057125 -0.0010375651 -0.006828082
000020 e8 2e 45 3b 65 fe e7 bb 64 bd 3e bc fa fc 58 3b
       0.0030087773 -0.0070798867 -0.011641834 0.003310977
000030 b7 cb 10 3b d5 0f a3 bb b4 9f 88 bb b4 6b c6 3b
       0.002209408 -0.0049762526 -0.0041694287 0.0060553197
000040 45 63 18 bb f6 83 71 ba 73 8a 13 bb ad 88 97 bb
       -0.0023252529 -0.0009213084 -0.0022512942 -0.0046244473
000050 c3 0e 22 3c 67 be ea 3b 7d af 86 3a e5 8e 77 bb
       0.009891215 0.007163811 0.0010275688 -0.003777438
000060 df c4 7c 3c 60 95 b3 bb 5f 6d f6 3b c0 1d 94 3a
       0.015427797 -0.0054804534 0.0075203623 0.001130037
000070 5b cc 1c bc 72 31 34 3c 01 8c 17 3c c1 94 d5 bb
       -0.0095702065 0.010998117 0.009249688 -0.006517977
000080 bb 72 8d 3c 9f 46 d1 3b fb e7 e2 bb b1 64 23 bc
       0.017266622 0.0063865925 -0.006924627 -0.009972737
000090 3c b7 00 bc cd 39 fc ba c2 0e 65 bc f2 c7 cf 3b
       -0.0078561865 -0.00192433 -0.013980569 0.006340974
0000a0 95 84 fc 3b 8a 91 47 3b b4 91 b9 3a 8c ae 8d bb
       0.0077062347 0.0030451738 0.0014157803 -0.004323786
0000b0 4c 02 04 bc 1f 9e 23 3a 79 2e 2b bc 93 5c 32 b9
       -0.008057188 0.00062415184 -0.010448092 -0.0001700989
0000c0 9c 65 0d bc 42 d9 96 3c f2 21 c5 b9 b4 69 b3 3b
       -0.008630183 0.018414143 -0.0003760006 0.0054752473
0000d0 c5 6a 28 3c c9 45 68 ba ff 27 bc 3c 06 80 47 bb
       0.010279362 -0.00088604965 0.02296829 -0.0030441298
0000e0 29 32 e7 3b 6a 8a 81 3c 49 a0 c4 3b 2b c4 ac bb
       0.00705554 0.015813071 0.006000553 -0.0052724085
0000f0 ec c7 20 bb 4d 5d ca bb 8f aa 00 3c 1f 91 be bb
       -0.0024533225 -0.006175673 0.007853164 -0.0058156396
000100 43 8d 01 bc 46 1b 02 bb 62 3d 85 bc 26 dc 04 3c
       -0.007907215 -0.0019852682 -0.016264621 0.008109128
000110 99 5e cd 3b f8 46 90 3b 8b dd 31 3c 6e 09 3e bc
       0.0062673804 0.0044029914 0.010856043 -0.011598928
000120 b4 a1 85 3c 53 33 88 bc 45 ee 83 b9 ec 4c d9 3b
       0.016312458 -0.016626036 -0.00025163792 0.0066314843
000130 28 f8 e4 3b a8 71 76 ba a7 8b 38 3c e0 f8 36 bc
       0.0069875903 -0.00094010914 0.011263764 -0.011167735
000140 93 7d 03 bb 69 03 c1 3b 38 69 93 3c ca 80 9c bb
       -0.0020063862 0.005890299 0.017994508 -0.004776095
000150 3b e5 b5 3b 0c 9f 5d bb de 20 97 3b 52 73 53 3c
       0.005551008 -0.0033816723 0.0046120724 0.0129059125
000160 69 f1 1c bc 1e 18 b6 bb e5 74 26 3a f4 32 56 bb
       -0.009579041 -0.005557074 0.0006349816 -0.003268418
000170 8e 25 b8 3b 07 da a7 ba c6 65 26 3c 32 f3 c5 bb
       0.0056197112 -0.0012806066 0.010156101 -0.006040954
000180 65 e7 11 3c 4f 58 54 3a 8c 3a 9c ba 99 12 32 3c
       0.008905266 0.0008100317 -0.0011919304 0.010868692
000190 27 40 54 bb 93 0c 71 3b 30 d2 36 bc da 55 96 bb
       -0.003238687 0.0036781176 -0.011158511 -0.004587871
0001a0 de cc eb bb 0c 5d 99 3b 37 c3 92 bc fc 6c 40 bb
       -0.007196053 0.0046802815 -0.017915351 -0.0029361835
0001b0 c9 eb ee 3a cd c5 47 bc d4 28 7e 3b 3b 44 99 3b
       0.0018228228 -0.0121931555 0.003878166 0.004677323
0001c0 7f 50 ab 3c f0 1e 9f 39 0f cc e1 bb da 92 d2 3b
       0.020912407 0.00030349893 -0.0068907808 0.0064261975
0001d0 78 b3 01 bc 63 2b 03 bb cd 73 93 3a 06 eb 88 ba
       -0.007916324 -0.0020014874 0.0011249721 -0.0010446019
0001e0 00 6b 8e bb de 7b 07 ba 26 85 ef bb a9 fe 8f bb
       -0.0043462515 -0.0005168299 -0.0073095737 -0.0043943715
0001f0 d3 1b 02 bc d5 b6 7e 3b 22 80 98 3b e2 6c 13 3b
       -0.007941204 0.00388663 0.0046539465 0.002249532
000200 4f 75 25 3c c2 68 34 3b d3 d3 1a 3c 82 79 15 bb
       0.010098769 0.002752826 0.009449917 -0.002280802
000210 ab 9b 01 bb 58 94 08 bb 05 4f d4 b7 9e e4 d1 3b
       -0.0019776623 -0.0020840373 -2.5309166e-05 0.006405427
000220 5e 07 f5 3a b2 a2 1e 3c 4f e4 57 bc a6 f2 57 bb
       0.0018694212 0.009682344 -0.013176992 -0.0032951026
000230 39 8b a2 ba e9 70 29 3c 9f 1f 27 3b 40 99 ab bb
       -0.0012401111 0.010341861 0.0025501025 -0.0052367747
000240 13 00 7f 3b 51 ff 41 3c 31 a0 53 bc 3e 9a bd 3b
       0.0038909956 0.011840657 -0.012916611 0.0057862094
000250 20 60 13 3c de b8 eb 3b 55 62 08 bc c2 60 8e 3c
       0.008995086 0.0071936687 -0.008324225 0.017380122
000260 cb 25 26 bc ec 49 91 3c 54 f5 a2 3b b4 5e 88 3c
       -0.0101408465 0.017735444 0.004973093 0.01664672
000270 ae fa 3e bc 41 1b 39 3c 27 fe 2c ba c6 34 fa bb
       -0.011656446 0.011298002 -0.0006599151 -0.0076356856
000280 09 0f 24 bc 39 df bd 3a a4 81 d3 ba 90 96 82 3a
       -0.01001335 0.0014486081 -0.0016136658 0.0009963084
000290 0d b2 c6 3a 1b e2 f6 3a 72 1e 9d 3b c0 52 83 bc
       0.0015159264 0.0018835695 0.004794889 -0.01603067
0002a0 2b f9 85 3b 0e e2 8d bb c7 01 c9 bb 56 42 2a b9
       0.004088541 -0.0043299263 -0.006134245 -0.00016237175
0002b0 c4 61 3e bc bd 45 1b bc 3f 9e 2f 3c 99 28 17 bc
       -0.011619989 -0.009477076 0.010718881 -0.009225988
0002c0 6e ac c4 b9 a1 d3 26 bc d0 27 52 bb 93 8e 0a bc
       -0.00037512503 -0.010182292 -0.0032067187 -0.008456844
0002d0 70 d0 2c 3b e4 e2 e5 bb ae 51 1f bc 1d d8 8a 3a
       0.0026369356 -0.007015573 -0.009724064 0.0010592971
0002e0 74 21 43 bc 22 3b 5b bc ba 06 8c 3b fc be 1e 3b
       -0.011909831 -0.013380798 0.004273263 0.0024222722
0002f0 ac ae f1 3a 98 3d 2d 3b f6 ce bb bb 39 3b 30 3b
       0.0018438897 0.0026434418 -0.005731459 0.0026890768
000300 1c d3 ac 3b 37 f6 3c 3c 3f b8 72 3c 6c 41 9e b9
       0.0052741896 0.011533312 0.0148144355 -0.00030184851
000310 f2 8e 92 3b 3a 93 c4 bb 02 ac 13 3c 7b f4 74 bb
       0.004472607 -0.005998996 0.009013178 -0.0037377167
000320 af fb 8c 3b ec cb 41 bc 2a 86 7d bb 6e a2 3f bb
       0.004302464 -0.011828404 -0.0038684704 -0.0029241103
000330 55 7a 6c bc 63 cd 3a 39 52 df 67 bc 63 5a ca 3b
       -0.014433463 0.00017814855 -0.014152365 0.0061753257
000340 18 10 48 3c 16 75 de 3b 6d 2b ba bb 43 c0 60 3b
       0.012210868 0.00678886 -0.0056814463 0.0034294284
000350 c5 87 2e bc 9c 50 bb 3b 90 d0 fa 3b 45 c2 b1 bb
       -0.010652487 0.0057163965 0.007654257 -0.00542477
000360 e5 08 3d 3c f8 70 31 ba 16 9f e5 bb 31 80 73 b9
       0.011537765 -0.0006768848 -0.00700749 -0.00023222041
000370 ca 8d 10 bc 07 3a 21 bb 46 8c 35 3b 07 25 c9 bb
       -0.008822868 -0.0024601237 0.0027702018 -0.006138447
000380 f3 6c 2c 3c 95 c6 b7 3b 0f 65 eb bb 3a 45 08 3c
       0.010524022 0.0056083896 -0.007183678 0.008317286
000390 48 eb 43 bc 92 8e 1e bb 2a d2 03 3c 64 30 7b 3c
       -0.011957951 -0.0024193865 0.0080457125 0.015331361
0003a0 37 4b 3d 3c 89 2a 2d ba 46 e0 d2 3b 2e 08 82 ba
       0.011553577 -0.00066057645 0.006435427 -0.0009920651
0003b0 9e 6c af bb f2 52 b9 ba c0 7f 3a 3c ff c5 18 bc
       -0.0053535243 -0.00141391 0.011382997 -0.00932455
0003c0 ac f3 1d 3c 7c 6b 82 bb dd dc 8e bb 5b b3 91 3b
       0.009640615 -0.0039800983 -0.004359825 0.0044464297
0003d0 16 06 2e bc 1f 0a d1 bb e8 2d e6 3b 86 2d a4 3b
       -0.010621568 -0.0063793804 0.0070245154 0.0050103096
0003e0 54 54 3d ba a9 b8 20 3c bd 65 de 3b 20 9d 9c bb
       -0.00072223437 0.009809651 0.0067870305 -0.004779473
0003f0 93 df 8c ba e6 2f 83 38 7f 50 af 3a 05 25 a6 3b
       -0.0010747783 6.2554886e-05 0.001337543 0.005070331

base.mlp.fc1.0.weight f4 [64, 2080]
000000 a9 98 f3 bb 4e 60 02 3d ba 6f d0 3a a4 e1 84 bc
       -0.00743397 0.031830125 0.0015902438 -0.016220875
000010 f1 3c 16 3d 11 3d dd bc ad f2 d9 bc 71 4b 90 3c
       0.036679212 -0.027006658 -0.026604975 0.017614098
000020 de ba 72 bc 38 ee 7d bc 48 c1 93 3c d8 a1 6b 39
       -0.01481506 -0.01549869 0.0180365 0.00022471638
000030 c4 f5 47 bc e0 e3 03 3d 34 91 97 bb 0b 7f c8 bc
       -0.012204591 0.03219974 -0.004625464 -0.024474641
000040 ef 4e f0 bb 38 88 ab bd ac 16 11 3c ec cd 08 bd
       -0.0073336284 -0.08375591 0.008855503 -0.033399507
000050 5f 03 65 bc 06 5b d6 bd d6 56 83 3c d4 ee 6c 3c
       -0.0139778545 -0.1046658 0.016032618 0.014461238
000060 a6 0d 3d bd b3 20 34 bb 78 8d 06 bd 0d 34 54 bd
       -0.046155594 -0.002748531 -0.03284976 -0.051807452
000070 80 47 b9 3d 39 60 43 39 66 d3 82 bd f2 4a be 3b
       0.09046841 0.00018632495 -0.06387977 0.005807274
000080 2a 6c bf bc 41 f4 9c bd d7 5f 06 3d e6 88 10 bd
       -0.023367006 -0.07663775 0.032806244 -0.035286807
000090 4d b6 6c 3c e1 80 c1 bc af 98 2e 3d 47 9b 77 3b
       0.014447761 -0.023621025 0.04262608 0.0037781761
0000a0 0f 09 2c 3d 82 9f 53 bd 4e 11 00 be e8 07 b3 bc
       0.042000826 -0.05166579 -0.12506601 -0.021854356
0000b0 17 5a 93 bd 11 5b 83 3d f2 4a 2a bd ec 63 2f bd
       -0.07194918 0.06413854 -0.04157538 -0.042819902
0000c0 56 dc 4b 3d 0d 20 82 bd 6e dc c7 bc 94 8e d3 3c
       0.049770676 -0.063537695 -0.024397101 0.025824822
0000d0 8d 06 dc bc de 0f 43 3c 2f 7c bc bd e4 7a 3f bd
       -0.026858592 0.0119056385 -0.09203374 -0.046748057
0000e0 7b 1a 3f 3e 4c 2f 8c 3c 63 f1 d3 3b 19 dc 81 3b
       0.18662445 0.017112397 0.0064679845 0.0039630053
0000f0 5d 5f 14 bc e0 66 5a 3d 68 4a 35 bc d5 98 a6 bd
       -0.0090559395 0.053320765 -0.011065103 -0.08134619
000100 19 0e e3 bc 5d 01 d8 3c 71 8f 6e bc 40 9f b0 3c
       -0.027716683 0.026367838 -0.014560566 0.021560311
000110 c7 82 74 3c c6 5f a7 bc 43 71 89 bc 8c 43 42 3c
       0.014923758 -0.02043141 -0.01677764 0.011856925
000120 92 d3 c3 bc e4 94 89 3d 74 95 5c bc f2 f2 2b 3c
       -0.023904596 0.06717852 -0.013463367 0.010494934
000130 7b 31 79 3c e0 4e 1b bd 5a 2b d6 3c 32 9b 11 bd
       0.015209551 -0.037917018 0.026143719 -0.035548396
000140 9e c6 61 bd 0b fc 04 3c e4 a7 90 bd ef 06 91 3b
       -0.055121057 0.008116732 -0.070632726 0.0044258754
000150 73 97 47 bd 37 c1 6f bd 36 36 e0 3c 6d 30 62 3d
       -0.048728418 -0.058533873 0.0273696 0.055221964
000160 3d 8c ec 3b 5c 43 1b bc 3b 9a 31 3d 9f e6 60 bd
       0.007218866 -0.009476509 0.043359976 -0.054907437
000170 a8 95 c8 3c 2b df 7f bd 3b e0 0c 3d 3c 18 40 3d
       0.024485424 -0.06246869 0.03439353 0.04689811
000180 31 74 2c bd 31 d0 5c 3d 48 48 a9 3c d0 90 b6 bd
       -0.042102996 0.053909484 0.02066435 -0.089143395
000190 90 4a c1 3d 82 67 1b 3d f2 ce d8 bc 04 fb c2 bc
       0.0943805 0.03794051 -0.026465867 -0.023801334
0001a0 b8 11 7e bd d0 13 63 3d ab c4 49 3d e9 74 b5 bc
       -0.062028617 0.055438817 0.049259823 -0.022150474
0001b0 44 cc 4a bd ba 24 e7 bc fb b6 19 3c 78 e3 13 3d
       -0.04951121 -0.028215755 0.009382005 0.036105603
0001c0 41 49 18 3c cc 59 85 3b 26 6f 16 3d c3 90 aa ba
       0.009294809 0.0040695425 0.036727093 -0.0013013113
0001d0 c0 6d 58 3d 87 3a 6e bc 30 53 fd bc a4 65 09 bd
       0.05283904 -0.014540321 -0.030923456 -0.033544198
0001e0 a6 ae 85 3d fd 22 2d 3a 94 05 25 bd 21 b7 9f bd
       0.06527452 0.000660464 -0.040288523 -0.07798601
0001f0 ac 0e 7f 3b d8 7d ae bc 22 26 65 3d 24 27 2b bd
       0.0038918657 -0.021300241 0.05594457 -0.041785374
000200 d4 b1 dc bd 74 5a ca bb 90 c8 50 3c 8d a4 a8 3c
       -0.107761055 -0.0061753336 0.01274313 0.020586276
000210 c4 fa 2f bd 18 20 a1 bb 30 cc 21 bd 28 d3 2f 3d
       -0.042963758 -0.004917156 -0.03950137 0.042925984
000220 88 89 32 bd 35 d8 82 3d 76 69 b3 3d ec 74 36 bd
       -0.04358819 0.063888945 0.087603495 -0.0445451
000230 43 5c 22 3c f8 ec 58 ba ce 08 83 3d 18 be 2e 3d
       0.009909692 -0.0008275057 0.06398164 0.042661756
000240 7a 07 4d bd 6a ff 84 3c 5b 5f 00 bd 38 8a eb 3b
       -0.05005596 0.016235072 -0.031340938 0.007188108
000250 37 74 6b bc 2e 38 81 3c 2a 92 15 bd 87 e5 af bc
       -0.0143709695 0.015773859 -0.036516346 -0.021471752
000260 78 14 fe 3c bf 2e b3 bc 6d 5f 13 3d 7f 14 2d 3c
       0.03101562 -0.021872876 0.035979677 0.010563969
000270 a7 d3 62 bd 09 eb 0e bc f0 89 6f bd 32 96 63 bd
       -0.05537763 -0.008723029 -0.058481157 -0.05556316
000280 58 6d b2 bc 4e b6 4a bc 56 e7 f0 3b a7 57 18 bd
       -0.021780655 -0.012372566 0.007351796 -0.037192967
000290 db 37 85 ba ee da 44 bd e4 1c 4f bc 60 a5 d0 3c
       -0.0010163741 -0.04806035 -0.012641165 0.025469482
0002a0 ca 29 cf 3c 08 28 9f 3d e5 2d 22 3d 06 2b 49 ba
       0.025288481 0.07771307 0.03959455 -0.00076739525
0002b0 a2 05 d1 3c 05 8c 93 3d 33 9b aa 3c e1 29 82 3d
       0.025515381 0.07204441 0.020825958 0.06355644
0002c0 1f c6 22 3d 98 53 92 3c d6 5b 27 3b ea 94 93 bc
       0.039739724 0.017862126 0.0025536916 -0.018015344
0002d0 d0 b0 05 bd 82 66 f3 bc 1c a2 59 3d a3 79 89 bd
       -0.032639325 -0.029711965 0.053133115 -0.067126535
0002e0 9e 99 0b 3d 47 d7 bc bc 3f 33 cf 3b c8 80 ef bb
       0.034082048 -0.023051871 0.0063232477 -0.007309053
0002f0 99 bd 55 3b 62 2d 9d 3c e3 d0 f5 3c ba de 10 bd
       0.003261423 0.01918668 0.030006832 -0.03536866
000300 7e d0 42 bd 09 06 0e 3c d2 ed 64 3d 31 62 4b bc
       -0.047562115 0.008668431 0.055890866 -0.012413547
000310 bb 0a 39 bc 3b c7 02 bd 9f f0 5c bd 2e 32 f2 bc
       -0.011294062 -0.031928282 -0.05394041 -0.029564943
000320 31 8d 0e bd 68 e6 d1 bc b8 f0 8d 3b 16 65 ee 3c
       -0.03480262 -0.025622562 0.0043316744 0.029100936
000330 73 6e 8f 3b 7b d5 7f bc d7 3e 21 3c 7b 6c 3a bc
       0.0043771802 -0.015614863 0.009841642 -0.011378403
000340 cc 07 9f 3a 57 19 bb 3c 96 9e 5d bb a2 34 21 3c
       0.0012133061 0.022839231 -0.0033816448 0.009839209
000350 9e 50 77 bd 5b 46 96 bd 79 96 71 3d b8 28 28 3b
       -0.060379617 -0.07337638 0.058981393 0.0025659036
000360 4b 84 55 bb c6 6c 94 3b 46 2d e2 bc 52 2c d6 3c
       -0.0032580073 0.0045295684 -0.027609479 0.02614418
000370 76 5d e9 3b 23 ef bc bb 7b 66 81 bd 8b cd 70 bd
       0.007121737 -0.005765812 -0.06318375 -0.05878977
000380 57 98 1b bd c7 a5 9d bc f1 81 8d 3a 7b e6 90 3c
       -0.03798708 -0.019244088 0.0010796172 0.017688027
000390 36 02 fd 3c 4b df 7c bd e8 0a 1f 3b c4 be 35 bc
       0.030884843 -0.061736386 0.0024267975 -0.011092845
0003a0 6b 36 22 bd 92 63 60 bd 8b e0 1f 3c 5c 0c 49 3d
       -0.03960268 -0.054782458 0.009758125 0.049084052
0003b0 05 d7 4b bc 04 85 1f bd 0a b2 e8 bc 8c c9 ae 3c
       -0.012441401 -0.038945213 -0.028405208 0.02133634
0003c0 03 00 e1 bc 25 9d 1e bd 02 c9 ed bb 0a b6 6c 3c
       -0.027465826 -0.038724083 -0.007256628 0.014447698
0003d0 ff b4 2d 3d 1c 28 a8 bd 11 ee 9f bc 57 d3 3b bd
       0.04240894 -0.08210775 -0.019522699 -0.045855846
0003e0 46 0f 52 3c 48 74 4e 3d 49 00 75 bd 15 48 2c ba
       0.012821024 0.050403863 -0.059814725 -0.00065720204
0003f0 40 e1 27 bd e1 5c 47 bc 2f 96 a7 3d c4 54 5c bd
       -0.0409863 -0.01216814 0.08182942 -0.053791776

base.mlp.fc1.0.bias f4 [64]
000000 2d 74 c1 bb a3 63 f1 bb 8d 90 23 3c b9 7a 16 3c
       -0.005903742 -0.007366614 0.009983194 0.009184533
000010 99 34 6f 3b 71 bd b7 3b 65 12 15 bb dc f1 19 3c
       0.0036499857 0.0056073 -0.002274656 0.009396043
000020 48 f1 c5 3b bf 11 11 bc 25 54 04 bc 2c 1f 0c bc
       0.006040726 -0.008854329 -0.008076702 -0.008552354
000030 21 01 7a 3b 27 72 ab bb 3b 34 9c 3b 06 92 ee 3b
       0.0038147646 -0.005232114 0.0047669685 0.007280591
000040 26 87 f7 bb 93 82 e8 bb a4 5f dd bb e5 1a c8 3b
       -0.0075539527 -0.007095644 -0.006755786 0.0061067217
000050 1b 37 72 bb 8a 75 c3 3b ea c3 58 3c 7c b2 85 3b
       -0.0036959115 0.0059649395 0.013230303 0.004080115
000060 fd a1 6c 3b 91 ea 90 3c ee d1 ea bb 54 3a fa bb
       0.0036107295 0.017689975 -0.007166139 -0.007636348
000070 d8 36 d1 3b 8b a6 0b bc a5 0b cc bb fc 30 b2 3b
       0.0063847117 -0.008523594 -0.006226974 0.0054379683
000080 23 6f f0 3b 80 53 fc 3b 26 28 a6 bb 55 4d 00 bc
       0.0073374673 0.0077003837 -0.005070704 -0.007830937
000090 c7 cf f2 bb d8 5e 68 3b f2 f8 ef 3b 25 1c 1b bc
       -0.007410023 0.0035456922 0.0073233778 -0.009467159
0000a0 35 48 1a 3c 41 16 15 bc 93 a6 ed bb a2 46 8e 3b
       0.00941663 -0.009099544 -0.007252523 0.004341916
0000b0 d4 c1 4d 3b c5 ea e1 3b cf c1 0e bc a6 ec c0 bb
       0.0031396048 0.006894442 -0.0087132 -0.0058875857
0000c0 70 5f 10 bc ab 35 62 bb 2f 10 be 3b 49 44 c2 3b
       -0.008811817 -0.0034516852 0.005800269 0.0059285504
0000d0 38 a9 9f 3b 05 22 11 3c ad ec fd bb 0b d7 f1 bb
       0.0048724674 0.008858209 -0.007749161 -0.0073803714
0000e0 79 97 9d 3b c5 b4 e9 bb 1d 38 d0 bb 6b ba 4c 3b
       0.0048093167 -0.007132145 -0.0063543455 0.0031239043
0000f0 ae 0c d7 bb f2 ec 0a bc 1d 72 97 bb 52 35 88 3c
       -0.006562791 -0.008479344 -0.0046217577 0.016626988

base.mlp.fc1.2.weight f4 [64]
000000 fd 5e 7e 3f 9c 25 80 3f ba 92 81 3f a8 22 80 3f
       0.9936369 1.0011477 1.0122902 1.0010576
000010 ef 45 7c 3f 2e 7c 80 3f 1b cb 7f 3f 8a fe 80 3f
       0.9854421 1.0037897 0.9991929 1.0077679
000020 13 4e 81 3f 7b 2a 81 3f 2e 41 81 3f 7b 2f 81 3f
       1.0101951 1.0091089 1.0098016 1.0092615
000030 97 16 7f 3f a8 a3 7d 3f dd e7 7e 3f 42 ab 80 3f
       0.99643844 0.99077845 0.99572545 1.0052264
000040 a0 2c 80 3f d5 81 7f 3f 79 52 80 3f 02 cd 7d 3f
       1.0013618 0.9980748 1.0025169 0.9914094
000050 44 01 7c 3f 7f 05 81 3f 35 b5 81 3f b2 82 7c 3f
       0.9843943 1.0079802 1.0133425 0.98636925
000060 a6 1a 80 3f 92 50 81 3f c3 35 81 3f 9c d7 81 3f
       1.0008132 1.0102713 1.0094532 1.0143924
000070 4f 47 7f 3f 4c 43 7e 3f 6a 19 81 3f fd 86 80 3f
       0.99718183 0.99321437 1.0085881 1.0041195
000080 86 06 81 3f 52 78 81 3f 8a ea 7d 3f 10 6f 7e 3f
       1.0080116 1.0114844 0.99186003 0.9938822
000090 31 e5 7e 3f 99 9c 7e 3f 8f 2e 80 3f ac 20 7c 3f
       0.9956847 0.994577 1.0014209 0.98487353
0000a0 46 d6 80 3f 01 de 7f 3f 4d 38 7e 3f 9b 13 80 3f
       1.0065391 0.99948126 0.9930466 1.0005983
0000b0 87 36 7c 3f 28 5e 7d 3f c9 15 80 3f fc 92 80 3f
       0.985207 0.98971796 1.0006648 1.0044856
0000c0 9d 4d 7e 3f b7 1e 7f 3f 07 53 7d 3f 2c bb 7f 3f
       0.9933718 0.9965624 0.98954815 0.99894977
0000d0 ff cd 7e 3f 80 ef 7f 3f 5a 2f 80 3f cf 51 80 3f
       0.99533075 0.99974823 1.001445 1.0024966
0000e0 8b 86 80 3f c8 bd 81 3f 5a fe 7e 3f fc 8c 7d 3f
       1.0041059 1.0136042 0.9960686 0.9904325
0000f0 4c 92 7f 3f 2e d8 80 3f c0 83 7e 3f 03 5d 7f 3f
       0.99832606 1.0065973 0.99419785 0.997513

base.mlp.fc1.2.bias f4 [64]
000000 e8 1c d4 bb c8 83 27 bb 64 1a 84 3c a7 ac dd 3b
       -0.0064731725 -0.0025560725 0.016125865 0.0067649665
000010 d2 06 80 bc 0c 02 f3 3b a8 34 ba bb 8d 74 42 3c
       -0.015628252 0.0074160155 -0.0056825466 0.011868608
000020 67 db 17 3c 8c 86 18 bc 5c 25 25 bc 61 aa 8f bc
       0.009268618 -0.009309422 -0.010079708 -0.017537298
000030 87 c8 9e bb 09 fb e9 bb ed d1 db ba 86 ce 3a 3c
       -0.004845682 -0.0071405214 -0.0016770937 0.011401778
000040 66 81 79 ba 69 67 06 bc b6 b7 70 bc d8 90 03 3c
       -0.0009517878 -0.008203366 -0.014692238 0.008030139
000050 a6 dc a7 3b d4 a7 1c 3c 6f 78 03 bc 1b dc 31 bc
       0.005122739 0.009561498 -0.008024319 -0.0108557
000060 49 a5 a7 3b fc 43 70 bb 90 14 69 bc 7f 58 6d bc
       0.005116139 -0.0036661616 -0.014226094 -0.014486431
000070 6f 48 91 38 ad 8e bf 39 b7 8d 10 bc 2b b8 b5 3b
       6.9276306e-05 0.0003653666 -0.00882285 0.005545636
000080 4c a3 ed 3b c0 71 3f 3c 8d 79 c2 3a aa 2f bb ba
       0.0072521325 0.011684835 0.001483725 -0.0014281173
000090 54 b5 38 ba 2a f9 67 ba 76 77 64 3a c2 bc 72 3b
       -0.0007046063 -0.0008849079 0.0008715311 0.0037038778
0000a0 51 65 e3 3b 68 47 11 bc 6a 7a 3b bb 63 bf 24 3c
       0.006939568 -0.008867122 -0.00286069 0.010055396
0000b0 fb 11 43 3b 44 9f 34 ba d5 42 4a 3c 9d 34 9b bb
       0.0029765356 -0.00068901875 0.012345036 -0.0047364966
0000c0 d3 46 ab bb f6 f8 4e 3b 42 d1 bd ba bc d2 7b b9
       -0.0052269488 0.0031581498 -0.0014481919 -0.0002401573
0000d0 f0 fd 11 bb 8a df 4d 3c de 02 df ba 12 86 81 bb
       -0.0022276603 0.012565503 -0.0017014404 -0.00395275
0000e0 29 4e 81 3b 09 b0 6a bc 79 98 ba bb 20 8d d1 3b
       0.003946085 -0.014324197 -0.0056944457 0.0063949972
0000f0 a4 9c f7 ba e2 6c c1 bb 12 1a b0 3b 53 6c 4a 3b
       -0.0018891287 -0.0059028724 0.0053742016 0.003088732

base.mlp.fc_h.0.weight f4 [64, 64]
000000 0a 38 02 3e f5 75 01 3f 25 bf 8d bd b5 0c ac bd
       0.1271669 0.50570613 -0.069212236 -0.08400861
000010 61 42 83 bd 64 21 23 3e 4f a0 51 bd 0d c9 10 3d
       -0.06409145 0.15930706 -0.051178273 0.035347987
000020 f3 53 a8 3e 57 aa c2 bd c9 16 70 bc 4f 69 bd bd
       0.32876548 -0.09505146 -0.01465387 -0.09248602
000030 a6 c8 eb bd 01 5f 1b 3e 5d d3 4c be 66 5f c6 be
       -0.1151288 0.1517296 -0.20002504 -0.38744658
000040 c5 7b b7 bd 96 8e 17 be 92 aa a0 bd 87 1b 2c be
       -0.08959154 -0.14800486 -0.07845034 -0.16807376
000050 46 92 8d be e2 8f 89 3c 89 ce 9a bd d5 95 cc bc
       -0.2765066 0.016792241 -0.07558925 -0.02497379
000060 38 f4 2c 3e de 57 2e 3d 13 5f 4f 3e 75 be a0 be
       0.16890037 0.042564265 0.20251112 -0.31395307
000070 19 a2 a4 bd c8 09 18 3b 6c 12 d7 bd b9 54 95 bd
       -0.0803873 0.002319919 -0.105015606 -0.0729155
000080 22 33 35 bd 56 30 30 bd 96 f1 9b 3c a7 45 af bd
       -0.044238217 -0.043014847 0.019036096 -0.08558207
000090 2e be 66 3c 15 60 23 be 9c a4 7d 3e 09 5f 2b be
       0.014083428 -0.15954621 0.24769825 -0.16735472
0000a0 6b 61 b2 3e 67 ed c4 bd 21 06 ac 3e 39 12 fa 3d
       0.3483995 -0.096155934 0.33598426 0.12210507
0000b0 a4 de ea be 19 51 60 bd f0 c2 0f 3f d8 a1 1c be
       -0.45872986 -0.05476484 0.56156826 -0.15296113
0000c0 a8 6e 42 3d 90 2c 92 be c8 be 01 bf 63 b8 46 3e
       0.04746881 -0.28549623 -0.50681734 0.19406275
0000d0 7c d4 2f 3e e1 50 5f be cc 97 9c be 4d f8 1b 3e
       0.171709 -0.21808197 -0.30584562 0.15231438
0000e0 3e 07 80 bd 68 51 0d be 98 8f c8 be 69 ba 43 be
       -0.06251381 -0.13800585 -0.39172053 -0.19114079
0000f0 44 98 f5 bd 65 4f c2 3d 7a 5c 01 be 51 7b a8 3d
       -0.11991933 0.094877996 -0.12632933 0.08226646
000100 56 a7 17 bd ca c1 3f 3d 7c e5 b5 bd d2 14 10 be
       -0.03702482 0.04681567 -0.08881661 -0.14070442
000110 37 ab 45 be b4 b7 80 bd 0a 35 22 3e a7 49 c7 3e
       -0.19303595 -0.062850386 0.15840545 0.3892338
000120 06 37 82 3d bc a3 bc bd 1a 02 45 bd 97 25 e6 bc
       0.06358151 -0.09210917 -0.048097707 -0.028094096
000130 52 b3 66 3d 7d 2a 91 3c 32 e1 e9 bd ba e0 21 3e
       0.056323357 0.017720455 -0.11419906 0.15808383
000140 ae 64 14 be 69 b0 2f be 6c a5 35 be 99 ed 67 bd
       -0.14491531 -0.17157139 -0.17738885 -0.056623075
000150 4b 06 91 be 99 b3 89 bc 9e 5d 45 be 86 70 dc bd
       -0.28325114 -0.016809272 -0.19273993 -0.1076365
000160 0f d1 ac 3c c2 7f 16 be fb 7c 64 be dc 60 36 3e
       0.02109578 -0.14697173 -0.22313301 0.17810386
000170 ec 64 01 3e 6e f0 15 3f e6 b9 02 be b9 6f d2 be
       0.12636155 0.5856999 -0.12766227 -0.41100863
000180 46 10 00 bd 18 9a 4f 3e e4 27 aa 3d 56 e7 71 3e
       -0.03126552 0.20273626 0.0830839 0.23623404
000190 bb ad 24 be c9 ae 89 be a3 49 eb bd eb 97 a0 be
       -0.16081898 -0.26891163 -0.114886545 -0.31365904
0001a0 23 75 94 bc 50 28 39 be fe 27 7d 3c cb 8c 87 bd
       -0.018122261 -0.18081784 0.015451429 -0.06618651
0001b0 04 cf e8 3d 7c 58 82 3e e4 03 68 bd 16 e4 6e bd
       0.1136761 0.25458133 -0.056644335 -0.05832299
0001c0 e6 20 6e be a7 6c a0 3e 2e 6b c3 bd 7f 87 c2 be
       -0.23254737 0.31332895 -0.09541927 -0.37994
0001d0 a1 f8 fc bd 5c 4d 4e 3e 6e 43 f6 bd 12 fc 4d 3e
       -0.1235211 0.20146698 -0.1202458 0.20115688
0001e0 d2 f4 89 be 69 a7 c5 bc aa c4 f7 3d f6 c8 f5 bd
       -0.26944596 -0.024127679 0.120980576 -0.12001221
0001f0 bf 0e 5a 3e a9 35 80 bd f3 4a ec bd ab e7 44 3f
       0.21294688 -0.06260235 -0.11537733 0.76916
000200 e5 57 ff 3d a0 da d2 be 40 82 44 bd 9c fd 58 3d
       0.124679364 -0.41182423 -0.04797578 0.052976236
000210 e4 9b 8c bd 56 91 dc 3d f9 73 54 be be b1 0a 3f
       -0.06865671 0.10769908 -0.20747365 0.54177463
000220 94 be 20 be 4b 87 0d be 8d 72 66 bd f6 1b fc 3c
       -0.156977 -0.13821141 -0.056261588 0.030775052
000230 cb 8f aa be cf da 05 3d ed d2 14 bd f0 4b e2 3d
       -0.3331283 0.032679375 -0.036333967 0.1104964
000240 5d 72 31 be 4c e3 d7 bd 9a 07 ae 3d c7 bf 34 3e
       -0.17328782 -0.105414 0.08497544 0.17651282
000250 94 92 05 be eb bd 18 3d 85 9f 82 3d e9 9c b5 3e
       -0.13044196 0.037290495 0.06378082 0.35471275
000260 55 23 9a 3e 09 10 8c 3a e3 64 4e 3e f6 32 16 3e
       0.3010508 0.0010685931 0.20155673 0.14667878
000270 df 2c ec 3e 33 a0 9d 3b 13 5b ce bd 3f a2 c4 3c
       0.46127984 0.004810357 -0.10075965 0.024003146
000280 ac 12 08 3e 64 99 0c be c6 2a 2b bb 29 5b 01 bf
       0.13288373 -0.13730389 -0.0026118024 -0.50529724
000290 72 e2 87 3e 3e 73 02 bd cb e0 a5 be e0 89 aa 3c
       0.26539952 -0.031848185 -0.32398066 0.020817697
0002a0 9d cf 03 be f3 79 83 be f7 27 a0 3e 19 1d 3b be
       -0.12872167 -0.25678977 0.3128049 -0.18272819
0002b0 f6 f4 b0 3d 29 a0 2a 3e d8 bf e4 3e 22 be 72 bd
       0.086404726 0.16662659 0.44677615 -0.059263356
0002c0 30 ad ab 3d 46 73 66 bd d0 87 59 3e 8f 47 6d 3d
       0.08382642 -0.056262277 0.21243215 0.05792957
0002d0 5d 40 a3 bb 63 21 ce be 0f 14 e4 3e 1f d7 4a be
       -0.004982038 -0.40259847 0.44546553 -0.19808625
0002e0 db f9 cb bd 42 5d dd bd e6 40 72 bd ac a9 9a 3d
       -0.099597655 -0.10808803 -0.059143923 0.075518936
0002f0 ab ec 94 3c b5 9f 3c 3e 64 8b 05 3c bf f9 e6 3d
       0.018179258 0.18420298 0.008150909 0.11278104
000300 89 7d 85 3e cc 1c 04 be 7f 4a 32 be c5 03 6e 3e
       0.26072338 -0.1290161 -0.1741123 0.23243625
000310 14 f9 52 be 22 6f 62 3e be 66 8d be a4 58 b8 be
       -0.20602828 0.22112706 -0.2761745 -0.36005127
000320 54 e7 cc 3e 1e bb 00 3d 6a 16 0c be b7 94 7a 3c
       0.4002024 0.03142845 -0.13680425 0.015294245
000330 b3 44 b2 bd 43 0a 08 3e b1 2c ac be b5 fa c3 3e
       -0.087045096 0.13285165 -0.33627847 0.38277212
000340 ab a8 4e be 90 73 b1 3e 36 eb 4e be e7 0f 4d 3e
       -0.20181529 0.3465848 -0.20206913 0.20025598
000350 2e 28 ff bd 6f c7 3f be ec e6 d7 bc 9a 18 6e be
       -0.124588355 -0.18728422 -0.02635523 -0.23251572
000360 69 84 07 3e 50 b6 fb be 83 01 12 3d 8e e7 fd bc
       0.13234104 -0.4916253 0.035645973 -0.030994203
000370 cc c7 52 3e 86 76 12 be a5 52 0d 3e 57 f5 ad 3c
       0.20584029 -0.14303026 0.13801058 0.021235151
000380 16 8f 21 be 1e a9 4a 3e 26 3a 15 bd af 56 92 3e
       -0.15777239 0.19791076 -0.036432408 0.2858176
000390 5b 59 1e be a3 88 05 be b8 28 e7 bd eb 66 17 3e
       -0.15463774 -0.13040404 -0.11287063 0.14785354
0003a0 5b d1 00 3e 3f 28 b9 bd 8b 6c 0b 3e 2b dd a2 be
       0.12579863 -0.090408795 0.13615625 -0.31809363
0003b0 2a c4 e9 bb 09 8e 37 3c 42 6f d1 bd 77 8a d4 3e
       -0.0071339803 0.011203297 -0.10226299 0.4151189
0003c0 19 5e 9a 3e fe 07 38 3e 72 96 36 be a2 71 5a 3e
       0.30149916 0.17971799 -0.17830828 0.2133241
0003d0 2b 4d 83 bc e1 7b ab bd f3 d3 fe 3d f8 b9 04 3e
       -0.016028007 -0.083732374 0.1244277 0.12961566
0003e0 65 d6 5d be ec a0 bb be d5 86 7b 3e 3f f7 64 be
       -0.21663816 -0.3664621 0.24563153 -0.22359942
0003f0 d9 66 b7 3d 5e 13 1d bd c0 e1 b1 3d 26 34 76 be
       0.089551635 -0.038348548 0.086856365 -0.2404333

base.mlp.fc_h.0.bias f4 [64]
000000 00 00 00 00 00 00 00 00 00 00 00 00 00 00 00 00
       0.0 0.0 0.0 0.0
000010 00 00 00 00 00 00 00 00 00 00 00 00 00 00 00 00
       0.0 0.0 0.0 0.0
000020 00 00 00 00 00 00 00 00 00 00 00 00 00 00 00 00
       0.0 0.0 0.0 0.0
000030 00 00 00 00 00 00 00 00 00 00 00 00 00 00 00 00
       0.0 0.0 0.0 0.0
000040 00 00 00 00 00 00 00 00 00 00 00 00 00 00 00 00
       0.0 0.0 0.0 0.0
000050 00 00 00 00 00 00 00 00 00 00 00 00 00 00 00 00
       0.0 0.0 0.0 0.0
000060 00 00 00 00 00 00 00 00 00 00 00 00 00 00 00 00
       0.0 0.0 0.0 0.0
000070 00 00 00 00 00 00 00 00 00 00 00 00 00 00 00 00
       0.0 0.0 0.0 0.0
000080 00 00 00 00 00 00 00 00 00 00 00 00 00 00 00 00
       0.0 0.0 0.0 0.0
000090 00 00 00 00 00 00 00 00 00 00 00 00 00 00 00 00
       0.0 0.0 0.0 0.0
0000a0 00 00 00 00 00 00 00 00 00 00 00 00 00 00 00 00
       0.0 0.0 0.0 0.0
0000b0 00 00 00 00 00 00 00 00 00 00 00 00 00 00 00 00
       0.0 0.0 0.0 0.0
0000c0 00 00 00 00 00 00 00 00 00 00 00 00 00 00 00 00
       0.0 0.0 0.0 0.0
0000d0 00 00 00 00 00 00 00 00 00 00 00 00 00 00 00 00
       0.0 0.0 0.0 0.0
0000e0 00 00 00 00 00 00 00 00 00 00 00 00 00 00 00 00
       0.0 0.0 0.0 0.0
0000f0 00 00 00 00 00 00 00 00 00 00 00 00 00 00 00 00
       0.0 0.0 0.0 0.0

base.mlp.fc_h.2.weight f4 [64]
000000 00 00 80 3f 00 00 80 3f 00 00 80 3f 00 00 80 3f
       1.0 1.0 1.0 1.0
000010 00 00 80 3f 00 00 80 3f 00 00 80 3f 00 00 80 3f
       1.0 1.0 1.0 1.0
000020 00 00 80 3f 00 00 80 3f 00 00 80 3f 00 00 80 3f
       1.0 1.0 1.0 1.0
000030 00 00 80 3f 00 00 80 3f 00 00 80 3f 00 00 80 3f
       1.0 1.0 1.0 1.0
000040 00 00 80 3f 00 00 80 3f 00 00 80 3f 00 00 80 3f
       1.0 1.0 1.0 1.0
000050 00 00 80 3f 00 00 80 3f 00 00 80 3f 00 00 80 3f
       1.0 1.0 1.0 1.0
000060 00 00 80 3f 00 00 80 3f 00 00 80 3f 00 00 80 3f
       1.0 1.0 1.0 1.0
000070 00 00 80 3f 00 00 80 3f 00 00 80 3f 00 00 80 3f
       1.0 1.0 1.0 1.0
000080 00 00 80 3f 00 00 80 3f 00 00 80 3f 00 00 80 3f
       1.0 1.0 1.0 1.0
000090 00 00 80 3f 00 00 80 3f 00 00 80 3f 00 00 80 3f
       1.0 1.0 1.0 1.0
0000a0 00 00 80 3f 00 00 80 3f 00 00 80 3f 00 00 80 3f
       1.0 1.0 1.0 1.0
0000b0 00 00 80 3f 00 00 80 3f 00 00 80 3f 00 00 80 3f
       1.0 1.0 1.0 1.0
0000c0 00 00 80 3f 00 00 80 3f 00 00 80 3f 00 00 80 3f
       1.0 1.0 1.0 1.0
0000d0 00 00 80 3f 00 00 80 3f 00 00 80 3f 00 00 80 3f
       1.0 1.0 1.0 1.0
0000e0 00 00 80 3f 00 00 80 3f 00 00 80 3f 00 00 80 3f
       1.0 1.0 1.0 1.0
0000f0 00 00 80 3f 00 00 80 3f 00 00 80 3f 00 00 80 3f
       1.0 1.0 1.0 1.0

base.mlp.fc_h.2.bias f4 [64]
000000 00 00 00 00 00 00 00 00 00 00 00 00 00 00 00 00
       0.0 0.0 0.0 0.0
000010 00 00 00 00 00 00 00 00 00 00 00 00 00 00 00 00
       0.0 0.0 0.0 0.0
000020 00 00 00 00 00 00 00 00 00 00 00 00 00 00 00 00
       0.0 0.0 0.0 0.0
000030 00 00 00 00 00 00 00 00 00 00 00 00 00 00 00 00
       0.0 0.0 0.0 0.0
000040 00 00 00 00 00 00 00 00 00 00 00 00 00 00 00 00
       0.0 0.0 0.0 0.0
000050 00 00 00 00 00 00 00 00 00 00 00 00 00 00 00 00
       0.0 0.0 0.0 0.0
000060 00 00 00 00 00 00 00 00 00 00 00 00 00 00 00 00
       0.0 0.0 0.0 0.0
000070 00 00 00 00 00 00 00 00 00 00 00 00 00 00 00 00
       0.0 0.0 0.0 0.0
000080 00 00 00 00 00 00 00 00 00 00 00 00 00 00 00 00
       0.0 0.0 0.0 0.0
000090 00 00 00 00 00 00 00 00 00 00 00 00 00 00 00 00
       0.0 0.0 0.0 0.0
0000a0 00 00 00 00 00 00 00 00 00 00 00 00 00 00 00 00
       0.0 0.0 0.0 0.0
0000b0 00 00 00 00 00 00 00 00 00 00 00 00 00 00 00 00
       0.0 0.0 0.0 0.0
0000c0 00 00 00 00 00 00 00 00 00 00 00 00 00 00 00 00
       0.0 0.0 0.0 0.0
0000d0 00 00 00 00 00 00 00 00 00 00 00 00 00 00 00 00
       0.0 0.0 0.0 0.0
0000e0 00 00 00 00 00 00 00 00 00 00 00 00 00 00 00 00
       0.0 0.0 0.0 0.0
0000f0 00 00 00 00 00 00 00 00 00 00 00 00 00 00 00 00
       0.0 0.0 0.0 0.0

base.mlp.fc2.0.0.weight f4 [64, 64]
000000 aa 30 07 3e a4 da fd 3e a7 6d 96 bd 06 d6 b5 bd
       0.13202158 0.49580872 -0.07345133 -0.08878712
000010 36 17 6d bd ac 0b 20 3e 9f 83 98 bd fa d9 fa 3c
       -0.057883464 0.15629452 -0.0744698 0.030621517
000020 f1 df ab 3e 06 ea c6 bd d2 4d a6 bc 33 d7 b9 bd
       0.3356929 -0.09712605 -0.02030078 -0.09074249
000030 77 6a de bd 81 a5 1d 3e 53 85 42 be 6c b4 c8 be
       -0.1086015 0.15395166 -0.18996172 -0.3920015
000040 7c 56 bd bd 7b 6b 15 be e0 3b b4 bd 66 ac 16 be
       -0.09245011 -0.14591782 -0.08800483 -0.14714202
000050 f9 b4 77 be 18 07 51 3c da 8a db bd a7 05 d4 bc
       -0.2419013 0.012758039 -0.10719843 -0.025881601
000060 0d 1e 39 3e 76 7c 08 3c 6f 62 47 3e 0d fa a3 be
       0.1807787 0.008330455 0.19471143 -0.3202671
000070 d5 a5 ae bd 73 16 87 3b 9b f9 e3 bd 25 6f 89 bd
       -0.08527724 0.004122549 -0.11131593 -0.06710652
000080 00 49 2c bd 50 61 15 bd 80 4d 5e 3c 47 6c bf bd
       -0.042061806 -0.036469758 0.013568282 -0.09346824
000090 a5 8a dd 3b 10 14 09 be d5 2e 82 3e c5 2e 2a be
       0.0067609125 -0.1338656 0.25426355 -0.16619404
0000a0 dd 52 b0 3e 17 22 cb bd ea a6 a9 3e 47 94 03 3e
       0.3443822 -0.099186115 0.33135158 0.12849532
0000b0 23 42 e3 be 69 32 73 bd b8 fb 18 3f f2 08 24 be
       -0.44386396 -0.059374247 0.5975909 -0.16019037
0000c0 d1 a1 4b 3d cd da 95 be b1 21 00 bf 38 bd 4a 3e
       0.049714867 -0.29268494 -0.5005141 0.19798744
0000d0 3f 32 33 3e 68 ac 62 be 87 f9 9f be 39 f7 13 3e
       0.17499636 -0.2213608 -0.31245062 0.14449777
0000e0 93 da 69 bd 56 67 0a be cc 52 d7 be ab 33 2f be
       -0.057093214 -0.13515982 -0.42055357 -0.17109554
0000f0 ae 21 fc bd 6c d8 b2 3d d1 bc 07 be b4 78 a7 3d
       -0.123111114 0.087326854 -0.13255621 0.08177319
000100 7c 48 b4 bc bb 1f fd 3c 7f 0b 9f bd ef 22 04 be
       -0.02200722 0.03089892 -0.077658646 -0.12903951
000110 2c 56 37 be 68 13 4d bd b3 42 25 3e ab 53 cd 3e
       -0.17903966 -0.050067335 0.16138725 0.40102896
000120 22 62 9e 3d 76 29 db bd 9e 21 7f bd 86 98 1d bd
       0.07733561 -0.107012674 -0.06228792 -0.038475536
000130 83 13 90 3d cd a4 05 3d a8 64 cc bd 72 3d 2a 3e
       0.070349716 0.03262787 -0.09980136 0.16625002
000140 3a 74 23 be 5b 53 33 be 1d 96 38 be 35 41 81 bd
       -0.15962306 -0.17512266 -0.18026014 -0.063112654
000150 43 97 92 be 69 0c 36 bb 99 3b 52 be af c1 d9 bd
       -0.2863103 -0.0027778393 -0.20530547 -0.10632645
000160 28 85 10 3d 99 ce 31 be f1 25 71 be f9 55 27 3e
       0.035283238 -0.17363967 -0.2354963 0.1634139
000170 45 a2 0f 3e d6 25 15 3f de c3 11 be 9e 1d cb be
       0.14026745 0.5826086 -0.14234874 -0.39671034
000180 10 05 8d bc d1 11 5e 3e be b8 8a 3d fc 31 66 3e
       -0.017214328 0.21686484 0.06773518 0.22480005
000190 20 84 34 be 26 95 80 be e0 88 ce bd ac 62 a4 be
       -0.17628527 -0.2511379 -0.100847006 -0.3210653
0001a0 13 5b 83 bb d9 58 40 be 36 07 2e 3c 51 44 8c bd
       -0.0040086596 -0.18783893 0.010621836 -0.06848968
0001b0 b4 eb d5 3d c8 b9 89 3e 78 64 91 bd c8 6c 95 bd
       0.104453474 0.26899552 -0.07099241 -0.07296139
0001c0 fa e9 6d be 32 ee 98 3e 96 fc ab bd 8a 85 bc be
       -0.23233786 0.2986923 -0.08397786 -0.36820632
0001d0 ce ad e5 bd 04 e0 44 3e 6e 89 0a be b9 58 3f 3e
       -0.11214791 0.1922608 -0.13528988 0.18686189
0001e0 a9 ec 83 be 75 69 1f bd c1 d1 db 3d ee 8b f0 bd
       -0.25766495 -0.03891893 0.10733367 -0.117454395
0001f0 c9 40 4b 3e 45 9d 99 bd 8f 00 05 be d5 e6 42 3f
       0.19848932 -0.075007 -0.12988494 0.7613347
000200 5e 52 f9 3d 72 11 d3 be ec bc 65 bd 72 71 36 3d
       0.121739134 -0.41224247 -0.056088373 0.044541784
000210 c6 f5 8c bd 61 07 ca 3d d4 ac 52 be fd 76 08 3f
       -0.06882815 0.09864689 -0.20573741 0.5330656
000220 f5 05 1f be c1 21 06 be 83 68 72 bd 22 b6 1e 3d
       -0.15529616 -0.13098814 -0.0591817 0.038747914
000230 81 95 aa be 99 c7 fc 3c 28 e7 2c bd c2 66 de 3d
       -0.33317187 0.030856894 -0.042212635 0.10859443
000240 0f b1 2e be 02 2f e5 bd 59 57 9f 3d a2 fb 33 3e
       -0.1705973 -0.11190607 0.07780332 0.17576459
000250 2e cf 01 be 5a ad ec 3c 90 f5 9a 3d 0f cc b7 3e
       -0.12676689 0.028891254 0.075663686 0.35897872
000260 1c d0 98 3e a9 85 22 3b 42 e6 4c 3e 5e ad 17 3e
       0.29846275 0.0024798906 0.20009711 0.14812228
000270 7f 77 e8 3e 74 c1 17 3c b8 98 cb bd 64 36 9c 3c
       0.45403668 0.009262431 -0.09941238 0.019068904
000280 3b 8f 05 3e f9 97 0c be e6 dc 9c bb b4 c4 02 bf
       0.1304292 -0.13729848 -0.0047870753 -0.51081395
000290 df 6c 85 3e 09 38 00 bd 57 d7 a5 be 69 99 db 3c
       0.26059625 -0.03130344 -0.32390854 0.02680655
0002a0 84 d1 08 be 54 10 85 be 10 d5 9f 3e 29 69 36 be
       -0.13361174 -0.2598902 0.3121724 -0.17813553
0002b0 1d 60 b8 3d 9d 99 24 3e d2 5d ec 3e b1 af 72 bd
       0.09002707 0.16074224 0.4616533 -0.059249584
0002c0 c4 b3 a9 3d 10 62 66 bd 11 3e 5d 3e e7 8f 64 3d
       0.08286241 -0.056245863 0.21605708 0.0558013
0002d0 d2 0b 17 bc c9 58 cc be 7a e9 e3 3e bb d7 4c be
       -0.009219127 -0.39911488 0.44514066 -0.2000417
0002e0 84 64 cf bd 1f 27 d5 bd 96 c4 67 bd 7d 31 b3 3d
       -0.10126594 -0.104078524 -0.056583963 0.087496735
0002f0 99 b2 aa 3c de ea 3f 3e 43 9c 13 3c e2 08 f6 3d
       0.020837115 0.18741938 0.009009424 0.12013413
000300 49 ba 82 3e d1 9a 00 be 94 b7 3e be b2 66 63 3e
       0.2553275 -0.12559058 -0.18624717 0.22207144
000310 81 10 57 be d1 b4 56 3e c5 6b 90 be 7e 26 be be
       -0.2100239 0.20967413 -0.28207222 -0.37138742
000320 f6 39 cb 3e 30 28 28 3d 19 69 04 be 81 e4 df 3c
       0.39692658 0.04105395 -0.12930717 0.027330639
000330 df ff b9 bd c0 e6 02 3e 0c 1d af be 0d 2f be 3e
       -0.09082007 0.12783337 -0.34201849 0.37145272
000340 c2 cb 49 be e8 88 b1 3e c5 13 4d be 8b 4c 55 3e
       -0.19706634 0.34674764 -0.20027073 0.2082998
000350 d7 ce df bd 74 40 4c be db 17 e3 bc 2b 68 75 be
       -0.109281234 -0.19946462 -0.027721336 -0.23965518
000360 fa 2f 06 3e 0e 2e ff be 9d bb 25 3d f0 48 d8 bc
       0.13104239 -0.49839824 0.040462125 -0.026401967
000370 79 1c 47 3e ab cd 06 be 55 13 12 3e 2d b7 48 3c
       0.19444455 -0.13164394 0.14265187 0.012250704
000380 96 0d 28 be 0b d5 46 3e 8b 22 f7 bc e9 bb 94 3e
       -0.16411433 0.19417207 -0.030167839 0.29049614
000390 2e d9 1a be 42 7e fa bd 29 c0 ee bd 67 28 22 3e
       -0.1512191 -0.12231113 -0.116577454 0.15835725
0003a0 2f 79 f4 3d 76 53 a9 bd ad b3 16 3e b5 7c a3 be
       0.119371764 -0.08267872 0.14716978 -0.3193108
0003b0 d8 7d 84 3b eb 90 23 ba a1 41 b4 bd 99 5f d6 3e
       0.004043322 -0.0006239551 -0.0880158 0.4186981
0003c0 69 91 9f 3e 24 9c 3b 3e ce 4d 39 be 51 7a 54 3e
       0.31165627 0.18321282 -0.18096086 0.20749785
0003d0 8e 86 bc bc 45 c2 a9 bd 94 a0 03 3e 26 e6 08 3e
       -0.02301338 -0.08289007 0.12854224 0.13369045
0003e0 f3 81 63 be 76 67 b8 be 12 7b 79 3e 6d 62 55 be
       -0.2221754 -0.36016434 0.24363354 -0.20838328
0003f0 74 b3 c4 3d 73 80 05 bd ca c4 ba 3d 43 3e 6c be
       0.096045405 -0.0325932 0.09119566 -0.23070626

base.mlp.fc2.0.0.bias f4 [64]
000000 80 3f ea 3b ca f3 68 3c dd 49 d3 b9 f4 d8 82 bb
       0.007148683 0.01421828 -0.0004030009 -0.003993148
000010 1a d2 2e bb 87 fe d3 3c 67 60 e6 bb a4 23 80 bc
       -0.0026675523 0.025878204 -0.007030535 -0.015641995
000020 57 2d 46 3c 58 a7 fe bb 7f b8 11 3c d3 fe 27 bb
       0.012095771 -0.007771414 0.008894085 -0.0025634065
000030 bb 2d 31 b9 92 15 fd 3b e7 39 28 bb 1c 73 58 3c
       -0.00016897071 0.0077235186 -0.0025669278 0.013211038
000040 1f 42 28 3a ee 69 13 ba 03 36 2e bb dc c3 97 3b
       0.0006418544 -0.000562339 -0.0026582486 0.0046315026
000050 f1 57 b2 bb cd ae e3 bb 44 f9 38 bc 21 8b 1f bb
       -0.0054426123 -0.006948328 -0.011289898 -0.0024344402
000060 aa 9b d0 bb 7e a7 48 3c 45 38 1a bc 02 5f 68 3b
       -0.006366213 0.0122469645 -0.00941283 0.003545702
000070 65 6e c0 bb 46 98 9e bb 95 65 19 3c c7 b0 3e bb
       -0.005872535 -0.0048399298 0.009362598 -0.0029097067
000080 3f 82 c8 bb 54 67 ac bb 9d a9 8b ba 25 22 02 3c
       -0.006119042 -0.005261341 -0.0010655407 0.007942711
000090 10 90 d8 38 6a 04 1e 3c c8 06 8c 3b 9a f8 67 3b
       0.00010326516 0.009644607 0.0042732693 0.003539598
0000a0 32 3e db 3a be b5 2e 3b 97 66 35 3c 83 8a 3d bc
       0.001672691 0.002665862 0.011071823 -0.011568668
0000b0 73 f2 17 3c 18 d6 32 bb a1 bb 0d bc ae e4 6b 3b
       0.009274113 -0.0027288254 -0.008650691 0.0035994458
0000c0 87 d4 b4 3b 38 39 f9 ba b9 28 39 bb 0a b9 07 bc
       0.0055184993 -0.0019014245 -0.0028253032 -0.008283863
0000d0 29 ac 1a bb 4c 96 17 3a d4 40 da 3b 8f 4c 0b 3c
       -0.002360115 0.0005782589 0.00666056 0.00850214
0000e0 3b 8d 94 3c d4 85 63 ba f4 de 4c bc b5 ca 5a 3c
       0.01813375 -0.0008679305 -0.012504328 0.013353993
0000f0 a3 f1 c9 3c 2d b4 1f 3b f4 be 11 3c 46 d7 e9 ba
       0.024651354 0.0024368868 0.008895624 -0.0017840646

base.mlp.fc2.0.2.weight f4 [64]
000000 ee b9 81 3f 35 b9 7c 3f d9 ba 7e 3f 80 3d 80 3f
       1.0134866 0.98720104 0.99503857 1.0018768
000010 0b 37 7f 3f e1 32 7e 3f f5 eb 7f 3f ee 80 81 3f
       0.99693364 0.99296385 0.99969417 1.0117471
000020 7d 8b 7b 3f 8e 42 81 3f 86 42 82 3f 2c 15 7f 3f
       0.9825972 1.0098436 1.0176551 0.9964168
000030 b6 c2 7f 3f c6 01 7c 3f 27 68 7f 3f 6e fc 82 3f
       0.9990648 0.98440206 0.997683 1.0233285
000040 95 63 82 3f cb 10 7d 3f 06 0f 7e 3f 80 4a 7d 3f
       1.018664 0.9885375 0.99241674 0.989418
000050 22 d4 7f 3f c8 ba 80 3f 26 da 7f 3f 42 5c 7f 3f
       0.99933064 1.0057001 0.99942243 0.9975015
000060 3c 75 7f 3f b5 0d 81 3f ef b3 7e 3f e9 01 7c 3f
       0.9978826 1.0082308 0.99493307 0.98440415
000070 5d 31 82 3f 3a 8f 80 3f c0 a1 7e 3f 71 1c 7f 3f
       1.0171314 1.0043709 0.9946556 0.99652773
000080 30 aa 7e 3f d9 dc 81 3f 3e a0 7b 3f da 49 81 3f
       0.99478436 1.0145522 0.98291385 1.0100663
000090 5e 5a 80 3f 2a 46 81 3f 49 cc 7c 3f 48 71 7d 3f
       1.0027578 1.0099537 0.98749214 0.9900098
0000a0 50 3f 7f 3f 87 14 7e 3f 09 85 81 3f f0 fe 81 3f
       0.9970598 0.9925007 1.0118724 1.0155926
0000b0 e8 cf 81 3f d3 25 7e 3f f6 15 7f 3f 30 7d 7d 3f
       1.0141573 0.99276465 0.99642885 0.99019146
0000c0 20 23 82 3f 2b 3e 7b 3f 26 df 81 3f 64 df 81 3f
       1.0166969 0.98141736 1.0146224 1.0146298
0000d0 ec ef 7f 3f 28 9f 80 3f 6a f9 80 3f 8f 2d 80 3f
       0.99975467 1.0048571 1.0076115 1.0013903
0000e0 e9 a8 81 3f f4 ba 7e 3f c6 2e 82 3f 51 c9 80 3f
       1.0129672 0.9950402 1.0170524 1.0061437
0000f0 73 41 7f 3f 11 b8 80 3f e9 42 7b 3f 07 1e 7f 3f
       0.9970924 1.0056173 0.9814897 0.99655193

base.mlp.fc2.0.2.bias f4 [64]
000000 1f a7 7d 3c e2 0a 59 3c ea e7 62 3a a4 32 0a bc
       0.015481739 0.013247224 0.00086557737 -0.008434925
000010 85 d6 15 bb 3a 23 aa 3c 47 aa 21 bb 75 15 6f bc
       -0.002286346 0.02076875 -0.0024668144 -0.014592518
000020 e5 16 55 3c 62 38 e4 bb f3 ac 9a 3c 69 35 62 bb
       0.013005947 -0.006964729 0.018881297 -0.0034516698
000030 e4 5f 3a 3a 0d 43 0f 3c 2e 96 2b 3a ad 5f a1 3c
       0.0007109626 0.0087440135 0.0006545511 0.019698942
000040 1f 12 93 bb ce 5a e2 3b 06 79 5b b9 32 69 cc 3a
       -0.004488244 0.0069077974 -0.00020930552 0.0015595315
000050 f1 35 55 3a 27 89 15 bc 32 f9 af ba 9d 19 f2 bb
       0.0008133343 -0.009126938 -0.0013425706 -0.0073883072
000060 43 49 af bb d7 30 26 3c 3f d3 4b bc 5f e0 05 bc
       -0.0053493096 0.01014348 -0.012440502 -0.00817117
000070 8f e2 1b bc 71 c6 c6 3b d0 db 06 3c 40 94 b1 ba
       -0.009514465 0.0060661365 0.008231118 -0.001354821
000080 12 9e ec bb c3 8e 40 bc 97 bd 8c bb bb 9f 24 3c
       -0.007220992 -0.011752787 -0.004295062 0.010047848
000090 a9 35 09 bb 27 96 31 3c e5 71 02 3c 89 ee 1a bb
       -0.0020936525 0.010839022 0.007961725 -0.0023640713
0000a0 a5 2e 0b 3a 57 64 a3 ba 01 03 21 3b df 61 81 bc
       0.000530938 -0.0012465817 0.002456844 -0.015793739
0000b0 34 5f 4c 3c 03 ad ac ba e3 02 21 3a 53 29 b9 3b
       0.01247387 -0.001317412 0.0006142093 0.005650678
0000c0 4e 68 86 3c f8 07 8e bb 5e 4d 9f bb 81 ad 72 bc
       0.016407158 -0.004334446 -0.004861518 -0.014811874
0000d0 89 4c 7e b8 ba d3 c0 3b 58 ae 13 3c 56 54 fd 3a
       -6.0629598e-05 0.005884615 0.009013735 0.0019327502
0000e0 4f e2 93 3c c1 d7 91 bb 03 f4 78 bc 1c d5 1d 3b
       0.018052248 -0.0044507687 -0.015194896 0.0024083322
0000f0 78 aa a7 3c 97 64 00 3c d7 6f 45 3c b6 89 a4 bb
       0.020467028 0.0078364825 0.0120505905 -0.0050212992
