results/MyEnv/Intersection_MAPPO/rmappo/check/run2/models/critic.pt (torch, 727522 bytes, 29 tensors)

base.feature_norm.weight f4 [2080]
000000 2f 46 81 3f a0 4c 80 3f d9 0c 7e 3f 87 db 7e 3f
       1.0099543 1.0023384 0.99238354 0.9955372
000010 f6 50 81 3f e4 79 80 3f d3 f3 7f 3f 08 16 7e 3f
       1.0102832 1.0037198 0.9998142 0.99252367
000020 72 89 7e 3f e3 3e 81 3f 3e 4e 81 3f 8a 5c 80 3f
       0.99428475 1.0097317 1.0102003 1.0028241
000030 77 a8 80 3f 4e 26 81 3f d8 57 80 3f 6c 80 80 3f
       1.0051411 1.0089815 1.0026808 1.0039191
000040 f0 ff 7e 3f 3b 4e 80 3f 85 25 81 3f 57 a1 7e 3f
       0.9960928 1.0023874 1.0089575 0.99464935
000050 15 6b 7f 3f 1b 6c 7f 3f e3 fd 7f 3f f6 09 81 3f
       0.9977277 0.9977433 0.99996775 1.0081165
000060 75 2d 7f 3f 43 60 80 3f e4 f0 80 3f b3 7b 80 3f
       0.99678737 1.0029377 1.0073514 1.003775
000070 88 f5 80 3f 15 35 7d 3f ef 12 81 3f 65 90 80 3f
       1.007493 0.9890912 1.0083903 1.0044066
000080 e6 49 7f 3f 68 b7 7e 3f 9a 21 7e 3f 4a b3 7e 3f
       0.99722135 0.99498606 0.9927002 0.99492323
000090 f5 dc 80 3f d7 1a 7e 3f a1 56 7e 3f 5a 9f 7f 3f
       1.0067431 0.99259704 0.99350935 0.99852526
0000a0 72 0a 7e 3f 81 5c 7e 3f b9 e0 7a 3f 92 46 80 3f
       0.9923469 0.993599 0.9799915 1.0021536
0000b0 67 f6 7e 3f dc de 80 3f c3 43 80 3f 68 2d 81 3f
       0.9959473 1.0068011 1.0020679 1.0091982
0000c0 db b2 7e 3f 50 82 81 3f f0 67 7e 3f bd 82 80 3f
       0.9949166 1.0117893 0.99377346 1.0039898
0000d0 5d 01 7d 3f 6f 62 81 3f 40 24 80 3f 47 0e 81 3f
       0.98830205 1.0108165 1.0011063 1.0082482
0000e0 9b 05 80 3f 5d 62 80 3f 2d 69 7e 3f 95 37 7f 3f
       1.0001711 1.0030018 0.99379236 0.99694186
0000f0 d8 d8 7f 3f 96 49 7f 3f e1 b9 7e 3f af 67 7e 3f
       0.9994025 0.9972166 0.9950238 0.9937696
000100 96 27 7d 3f 84 76 7e 3f b5 39 80 3f 77 ff 80 3f
       0.9888853 0.9939959 1.0017611 1.0077962
000110 95 88 81 3f 33 95 81 3f 85 84 7d 3f 26 29 7d 3f
       1.0119807 1.0123657 0.99030334 0.9889091
000120 7c e5 7f 3f 3e e4 7e 3f f7 4f 7f 3f b5 e7 7f 3f
       0.9995954 0.9956702 0.9973139 0.9996293
000130 4a ca 80 3f 8b 9e 80 3f c2 f3 80 3f ec c1 7e 3f
       1.0061734 1.0048383 1.0074389 0.9951465
000140 79 e2 80 3f d4 b5 80 3f 72 2b 7e 3f 85 a0 81 3f
       1.0069114 1.005549 0.9928504 1.0127112
000150 c4 4d 80 3f 11 b2 80 3f 62 b7 80 3f 51 b7 80 3f
       1.0023732 1.0054342 1.0055964 1.0055944
000160 d4 74 7d 3f 1c c6 7d 3f 71 24 7f 3f 3a 85 7f 3f
       0.9900639 0.99130416 0.9966498 0.9981266
000170 0a ed 7d 3f d9 e0 80 3f c5 50 81 3f 36 e2 7f 3f
       0.9918982 1.0068618 1.0102774 0.99954545
000180 e3 37 7f 3f 3e 24 7e 3f 8c fc 7e 3f 9a 6f 7f 3f
       0.9969465 0.9927405 0.99604106 0.99779665
000190 b8 83 7d 3f f0 59 80 3f 12 95 7f 3f 41 51 7e 3f
       0.9902911 1.0027447 0.9983684 0.99342734
0001a0 65 32 80 3f 84 8a 80 3f 0b 64 80 3f 6d cd 80 3f
       1.0015379 1.0042272 1.0030531 1.0062691
0001b0 00 30 7f 3f d0 70 80 3f 14 17 7f 3f 45 dc 80 3f
       0.9968262 1.0034428 0.9964459 1.0067221
0001c0 b4 4d 81 3f aa 37 80 3f fd 4c 81 3f 87 a8 7e 3f
       1.0101838 1.0016987 1.010162 0.994759
0001d0 42 84 7e 3f 9e 2e 81 3f 5b 4d 80 3f 5c 09 80 3f
       0.9942056 1.0092351 1.0023607 1.0002856
0001e0 87 82 80 3f 5b 71 80 3f e1 3c 80 3f 3c 16 80 3f
       1.0039834 1.0034593 1.0018579 1.0006785
0001f0 ee da 80 3f d3 18 7e 3f 39 35 7f 3f 6b 34 7d 3f
       1.0066812 0.9925663 0.99690586 0.9890811
000200 fe 56 81 3f 49 c5 7c 3f d6 18 7d 3f 62 87 80 3f
       1.0104673 0.98738533 0.9886602 1.0041316
000210 15 6f 80 3f d8 f5 7e 3f 67 e1 7d 3f 88 a0 7e 3f
       1.00339 0.9959388 0.9917206 0.994637
000220 26 b6 80 3f 09 49 7c 3f 47 81 7e 3f ac 3f 7f 3f
       1.0055587 0.9854894 0.9941601 0.9970653
000230 d4 2d 81 3f 64 23 80 3f 14 25 7f 3f de f5 7e 3f
       1.0092111 1.00108 0.9966595 0.99593914
000240 a8 a8 7d 3f 45 57 7d 3f 11 ec 7e 3f 39 7a 7d 3f
       0.99085474 0.9896129 0.9957896 0.9901462
000250 ed 0f 7f 3f 1a f5 80 3f 17 f9 80 3f 77 f4 7d 3f
       0.99633676 1.0074799 1.0076016 0.9920115
000260 0d 42 7d 3f 2e c1 7f 3f b8 d5 7e 3f 87 01 81 3f
       0.9892891 0.99904144 0.9954486 1.0078591
000270 be 39 7f 3f 46 51 81 3f 55 9a 81 3f d2 cd 80 3f
       0.9969748 1.0102928 1.0125223 1.0062811
000280 a2 23 7f 3f 7b 39 80 3f 2c 39 7d 3f 86 a9 80 3f
       0.99663746 1.0017542 0.9891536 1.0051734
000290 d8 a9 80 3f 78 bb 7d 3f 9c 49 7d 3f 63 e2 80 3f
       1.0051832 0.9911418 0.98940444 1.0069088
0002a0 85 a6 7e 3f 71 09 80 3f c6 44 80 3f 75 43 80 3f
       0.9947284 1.0002881 1.0020988 1.0020586
0002b0 72 72 80 3f 33 bd 7f 3f df fc 7c 3f 13 41 81 3f
       1.0034926 0.9989807 0.9882335 1.0097984
0002c0 66 3e 7e 3f cb ea 7d 3f a8 43 80 3f 95 61 7e 3f
       0.9931396 0.9918639 1.0020647 0.9936765
0002d0 0f 85 80 3f d1 31 7f 3f 9c e0 7c 3f bb 54 7e 3f
       1.0040606 0.9968539 0.98780227 0.9934804
0002e0 1d 50 80 3f 20 5a 7e 3f b5 d9 7f 3f a2 f7 7e 3f
       1.0024449 0.9935627 0.9994157 0.9959661
0002f0 ef 35 7f 3f 53 79 7e 3f 87 85 7d 3f 2d eb 80 3f
       0.9969167 0.99403876 0.9903187 1.007177
000300 e1 c6 80 3f c0 26 81 3f a8 57 7e 3f 79 cf 80 3f
       1.0060693 1.008995 0.993525 1.0063316
000310 07 48 80 3f c1 1b 7f 3f de 75 81 3f 0f ab 80 3f
       1.0021981 0.99651724 1.0114095 1.0052203
000320 c6 46 81 3f 6e 01 7e 3f c7 d1 7f 3f b7 be 7e 3f
       1.0099723 0.9922093 0.9992947 0.9950976
000330 88 a4 7e 3f 43 02 81 3f 53 fd 7e 3f 84 3a 80 3f
       0.99469805 1.0078815 0.9960529 1.0017858
000340 ba 73 80 3f 48 0f 81 3f dd f6 7e 3f 28 f1 7f 3f
       1.0035317 1.0082788 0.99595433 0.9997735
000350 d5 50 80 3f c7 9b 7e 3f cf 0a 80 3f eb 0e 7d 3f
       1.0024668 0.9945645 1.0003299 0.9885089
000360 92 cd 80 3f e9 7f 7f 3f 12 95 81 3f 7e 6a 80 3f
       1.0062735 0.9980455 1.0123618 1.0032499
000370 09 5b 81 3f 00 ce 80 3f 46 0c 7f 3f 29 09 80 3f
       1.0105907 1.0062866 0.996281 1.0002795
000380 3c c0 7f 3f d2 b5 80 3f 0d 93 80 3f 7c dd 7f 3f
       0.999027 1.0055487 1.0044876 0.99947333
000390 23 39 7e 3f 10 1f 7e 3f b6 4b 7d 3f c6 0d 81 3f
       0.99305934 0.9926615 0.9894365 1.0082328
0003a0 3a 4b 7e 3f 27 a2 80 3f 14 c3 80 3f 55 ce 80 3f
       0.99333537 1.0049485 1.0059533 1.0062968
0003b0 4c 67 7f 3f e1 1f 7e 3f 29 63 7f 3f ca 39 81 3f
       0.99766994 0.99267393 0.9976068 1.0095761
0003c0 6c b8 80 3f 57 62 7e 3f 52 ce 7d 3f b6 30 81 3f
       1.0056281 0.99368805 0.99142945 1.009299
0003d0 d0 93 81 3f 54 14 80 3f 07 25 80 3f 45 4e 80 3f
       1.0123234 1.0006204 1.00113 1.0023886
0003e0 1c 41 80 3f cf 9e 7e 3f 8c 43 7f 3f 48 54 80 3f
       1.001987 0.9946107 0.99712443 1.0025721
0003f0 6b 71 81 3f 60 60 80 3f 4b 41 80 3f 56 31 81 3f
       1.0112737 1.0029411 1.0019926 1.0093181

base.feature_norm.bias f4 [2080]
000000 ac 21 21 bc 10 3c 05 bb 9b 29 e8 3b e1 4d a2 3b
       -0.009834688 -0.002032999 0.007085038 0.0049531315
000010 49 30 28 bc 88 4f 82 bb e2 02 21 3b 6b 2b 61 bb
       -0.010265418 -0.003976766 0.0024568369 -0.0034358155
000020 82 66 d7 3a 1d 1e 14 bc f1 39 28 bc 13 b8 46 bb
       0.0016433748 -0.009040383 -0.010267721 -0.003032212
000030 5d e2 b2 bb 86 1f 0e bc 11 4a 3d bb 31 dd 89 bb
       -0.0054591135 -0.008674508 -0.0028883258 -0.0042072763
000040 dc 37 37 3b 2b 63 8c ba b4 25 13 bc e7 c5 dd 3b
       0.0027956879 -0.0010710707 -0.008981157 0.0067679766
000050 32 fd 1b 3b 0f 46 39 3b d5 85 3b bc 3f 40 04 bc
       0.002380204 0.0028270518 -0.011445482 -0.008071958
000060 31 a1 6b 3a 62 00 2e bb 9c 4c 14 bc 9c c8 f1 ba
       0.0008988558 -0.002655052 -0.009051468 -0.0018446627
000070 50 3a fc bb 3a 25 31 3c b7 d3 ca b9 d8 23 8d bb
       -0.007697381 0.010812098 -0.00038686182 -0.0043072514
000080 8f 40 f3 ba 85 76 b8 3b 72 51 d5 3a 75 b4 9a 3b
       -0.0018558669 0.005629363 0.0016274883 0.004721219
000090 ec fe 8b bb 24 c7 df 3b 52 e5 a3 3b 12 e5 7b 3b
       -0.0042723324 0.0068291593 0.0050017023 0.0038436097
0000a0 da 95 e3 3b 57 ec cc 3b 54 8f f0 3b 9d be 13 bb
       0.006945354 0.00625376 0.007341305 -0.0022544034
0000b0 5e ec d7 3b 77 95 de 3b c6 a7 f6 39 17 10 9d bb
       0.0065894565 0.00679272 0.00047045777 -0.004793178
0000c0 83 0e c6 bb 90 d4 f9 bb 15 72 bb 3b c1 9a 96 3a
       -0.0060442104 -0.0076242164 0.0057203867 0.0011490212
0000d0 75 20 de bb 74 41 30 3c 89 e2 d0 3a 3a 15 e4 bb
       -0.0067787715 0.010757793 0.0015936653 -0.006960538
0000e0 43 93 13 bb 14 10 33 3b 7c 42 04 3c 8f 1a b6 bb
       -0.0022518195 0.0027322816 0.008072492 -0.0055573652
0000f0 33 44 26 bc 29 89 5a 3b b7 82 e6 3b 7d e4 39 bc
       -0.010148096 0.0033345914 0.0070346254 -0.01134598
000100 48 5a 2b bc aa 5c db bb bd 28 b4 bb 8e cd 39 3c
       -0.010458536 -0.006694396 -0.0054980204 0.011340512
000110 02 d4 de 3a 90 02 25 3c 67 47 22 3c 58 9f ea 3a
       0.0017000439 0.010071412 0.009904719 0.0017900271
000120 2d a8 d7 3a 8d 12 9a bb ff cb 5c bc 74 66 b0 39
       0.0016453319 -0.0047019185 -0.013476371 0.0003364567
000130 4d a2 d6 3b c9 5b 92 3b 1c ae f5 3b 15 a7 a4 bb
       0.0065501095 0.004466508 0.007497562 -0.0050248005
000140 17 47 e3 3b 2e f2 b4 3b b5 db e1 bb 77 b3 4c 3c
       0.006935965 0.005522034 -0.006892646 0.01249396
000150 2c 25 1d 3b fe 69 b0 3b 9b 6c c5 3b 94 d2 9f 3b
       0.0023978455 0.005383729 0.0060249097 0.004877398
000160 1a ce ea bb 06 9b 01 3b 8c 9c e2 ba 6c 90 03 bb
       -0.0071656825 0.001977624 -0.0017289086 -0.0020075096
000170 66 4e 07 bc 0e 31 db 3b ca 99 2d 3c d9 08 e3 38
       -0.008258438 0.0066891974 0.010595748 0.000108258515
000180 72 1e 61 bb 9b d0 e4 bb 81 c7 79 bb 0a 14 f1 ba
       -0.0034350422 -0.0069828755 -0.0038113298 -0.0018392813
000190 53 fa 21 bc b9 72 2d 3b 28 77 8d 3b 1a e2 da bb
       -0.009886342 0.0026466085 0.004317183 -0.0066797854
0001a0 27 cb 0e bb 22 e6 6b bb 19 e7 3a bb c4 c4 d6 bb
       -0.0021788569 -0.0035995324 -0.0028519093 -0.006554218
0001b0 d7 25 4b 3b 3b cd 89 bb 23 a0 16 3c 71 b2 b3 3a
       0.0030997896 -0.0042053736 0.009193453 0.0013709796
0001c0 66 a9 15 3c 3d 6b be 3b 36 39 2c bc c1 65 a4 3b
       0.009134626 0.0058111236 -0.010511687 0.005017013
0001d0 8c 89 af 3b 0e 98 1b bc 13 eb 27 bb 36 ec b1 38
       0.005356973 -0.009496702 -0.0025622293 8.4840154e-05
0001e0 da 07 79 bb 1f fb 89 bb a1 1f a7 bb ad 2c fb b9
       -0.0037999065 -0.004210844 -0.005100206 -0.00047907737
0001f0 8f 7e d8 bb 5c 62 10 3c 04 38 a0 ba ed e5 8c 3b
       -0.006606884 0.008812513 -0.0012223725 0.00429987
000200 06 6d e9 bb fc 84 50 3c 58 eb 3d 3c 20 75 69 bb
       -0.0071235923 0.012727018 0.011591755 -0.003562279
000210 59 8e 21 bb d1 1e af 3b e2 db 37 3b b6 c9 b0 3b
       -0.0024651496 0.00534425 0.0028054644 0.0053951396
000220 ae 8b b0 3b 37 e6 a2 3b f3 6c 36 bc 94 1e 45 3b
       0.005387745 0.0049712914 -0.011134374 0.003007804
000230 7b d4 17 bc 18 a8 13 ba 5c 03 58 bb 4c 3c d7 bb
       -0.009266968 -0.0005632653 -0.0032960987 -0.0065684672
000240 7f 70 14 3c 86 27 56 3c 8c 21 95 3b 00 7f 17 3c
       0.009060024 0.013070947 0.0045511182 0.009246588
000250 45 6a 9e 3b 31 1f 46 3c 95 96 d2 bb da a9 0c 3c
       0.0048344457 0.012092398 -0.006426642 0.008585418
000260 28 2d 28 bc be c9 aa 3a 0b 68 9c 3b 2a 39 39 3b
       -0.010264672 0.0013030095 0.004773145 0.0028262832
000270 1a 1a bc ba 81 6f 2b 3c d4 f8 91 b9 48 7d bd bb
       -0.0014351041 0.010463596 -0.00027841947 -0.005782757
000280 34 32 44 bb 6f 03 d5 3a 38 cc 1a bb d8 b1 bb 3b
       -0.002993715 0.0016251634 -0.002362026 0.0057279877
000290 81 e3 02 bc 89 ed a0 3b bb 7c 1f 3c a7 77 03 bc
       -0.0079888115 0.004911129 0.009734328 -0.008024133
0002a0 e5 92 36 3c c3 46 a7 bb cf 81 1d bb 3b 0a 30 bb
       0.011143421 -0.005104871 -0.002403367 -0.0026861567
0002b0 77 0d 00 bc 2d f1 83 ba 19 12 0d 3c fa ef 07 bc
       -0.00781571 -0.0010066383 0.008610272 -0.008296961
0002c0 0a ad c3 3b 96 db 18 3c fc 5a ac 3b f2 99 d2 bb
       0.0059715556 0.009329697 0.0052598696 -0.006427043
0002d0 d2 68 01 3c bb 4f 40 bb 82 0d 4a bc 6d 42 d0 bb
       0.007898526 -0.0029344398 -0.012332322 -0.006355575
0002e0 05 04 1c 3b f4 df dc bb 2a 4a fe 37 88 30 e3 3a
       0.0023806107 -0.0067405645 3.0313695e-05 0.0017333189
0002f0 9b f5 67 bb 17 13 a9 bb a7 73 2c bc 9e 75 e9 3b
       -0.0035394195 -0.0051597464 -0.010525621 0.0071246168
000300 ec 8f bf 3b 69 c9 30 3c 28 0c a9 bb c8 92 07 3c
       0.0058460142 0.010790207 -0.00515892 0.0082747415
000310 1c c9 0e 3b 93 ce 35 bb 65 d6 3d 3c 1e 09 a5 3b
       0.002178735 -0.0027741536 0.01158676 0.0050364872
000320 86 4a 31 3c 38 91 2b bc ff 79 64 ba 76 23 83 bb
       0.01082099 -0.010471635 -0.00087156886 -0.00400203
000330 26 8f 9e bb 28 d7 03 3c c6 77 9c bb b6 73 8d 3b
       -0.004838842 0.008046903 -0.0047750203 0.0043167723
000340 4a 0d 86 bb 99 38 0b bc e1 12 72 3b e9 4c 6e b9
       -0.0040909396 -0.008497381 0.0036937522 -0.000227261
000350 f8 02 43 bb 85 9a be 3b e3 aa 9b bb 53 75 26 bc
       -0.0029756408 0.00581676 -0.004750596 -0.010159808
000360 99 0f 0e 3b 23 8a d9 39 cd 5a 43 bc 4e 0d 32 bb
       0.0021676777 0.00041492385 -0.011923504 -0.0027168575
000370 5e 34 2c bc bf 9a d4 bb fd 66 96 3b ab 4f b4 b9
       -0.010510532 -0.0064881737 0.004589914 -0.00034391633
000380 b3 4e c5 3a 9d 38 cb bb 9b 32 9c bb 3d 9d 8c 3a
       0.0015053361 -0.006201817 -0.004766775 0.0010728013
000390 3c 9c 00 3c e1 b0 8e b8 b4 d6 fc bb b6 2a f0 3b
       0.007849749 -6.804034e-05 -0.0077160243 0.0073293103
0003a0 36 56 16 3c a3 b6 a2 bb ee 39 c0 bb 01 89 c6 bb
       0.009175828 -0.0049656196 -0.0058662808 -0.0060588126
0003b0 73 fe 5e 3b f8 94 ea 3b 49 0b 2c 3c fc 4a 1d bc
       0.0034026175 0.0071588717 0.0105007375 -0.009600397
0003c0 15 0e 9d 3b 4c da 0e b9 00 2a 8b ba 57 77 16 bc
       0.0047929385 -0.00013623497 -0.0010617375 -0.009183726
0003d0 cf d3 53 bc 2d 69 d3 b9 50 d2 55 bb d6 a3 7b 3b
       -0.012928917 -0.00040323418 -0.0032626577 0.0038397214
0003e0 35 36 c2 ba 81 01 a0 3b 64 c9 00 3b 71 27 37 bb
       -0.001481718 0.004882992 0.0019651288 -0.0027947093
0003f0 e9 bc 32 bc 15 48 17 bb 4c 57 48 ba 31 e3 eb bb
       -0.0109092975 -0.0023083736 -0.0007642403 -0.007198714

base.mlp.fc1.0.weight f4 [64, 2080]
000000 08 fb 81 3c 3c 5e 2f 3d fc 7b 2f 3b 2c 7b 8b bc
       0.015866771 0.04281448 0.0026776781 -0.017026506
000010 77 7e 19 3d 16 db d4 bc 8a a4 22 bd 1b 17 53 3c
       0.037474122 -0.025983375 -0.039707698 0.012883927
000020 0d ef ca bc 4d 07 44 bc 09 35 d1 3c 7a 05 9a 3a
       -0.024772191 -0.011964631 0.025537984 0.00117509
000030 7c 94 16 bc e9 4b 2f 3d 1d ca 2f 3c 11 85 ef bb
       -0.009190675 0.042797003 0.01072934 -0.007309564
000040 90 47 58 3c ef 78 89 bd 2a 5e 28 3d 2c 6e e5 bb
       0.013200656 -0.067125194 0.041105427 -0.007001659
000050 f0 7f 86 3b e2 6d 97 bd 2b 78 01 3d 60 75 94 3c
       0.004104607 -0.07394005 0.03160874 0.018122375
000060 56 fb 91 bc 4c 54 3f 3c e8 7b b3 bc 66 05 33 bd
       -0.017820042 0.011677813 -0.021909669 -0.04370632
000070 ae 92 ce 3d 26 82 80 3c c6 6f e0 bc 67 1a 0e bb
       0.10086571 0.01568706 -0.027397048 -0.0021683217
000080 78 ff 4f bb 68 54 f0 bc 70 c4 b4 bc db 33 d9 bc
       -0.0031737965 -0.029337123 -0.022066325 -0.026513984
000090 41 84 3b 3d 88 0f a4 bc e4 20 57 3d d5 1a 0b 3c
       0.045780424 -0.020026937 0.0525216 0.008490284
0000a0 b8 cc a4 3d d9 3a 2b bd 07 10 c1 bd 29 8c 09 3d
       0.080468595 -0.04180417 -0.09426885 0.033580933
0000b0 3f c8 e8 bc 25 40 12 3d 47 0c 98 bc cc c9 9b bc
       -0.028415797 0.035705704 -0.018560542 -0.019017123
0000c0 05 36 32 bc 7e eb 8b 3c 2e 29 7d bc 9f 2c 55 3b
       -0.010877137 0.017080065 -0.0154517125 0.0032527817
0000d0 68 86 aa bc 1a 4f b0 bc 50 1f df bc 71 c1 ca bc
       -0.020816043 -0.021522094 -0.02723661 -0.024750443
0000e0 5a 04 98 3c 04 05 f2 3b 3d 92 d9 38 cd 7f 97 3c
       0.018556762 0.007385852 0.00010374605 0.018493557
0000f0 b1 c8 ad bc cf b5 4b 3d 6e 47 80 bc 82 a8 ae bd
       -0.021213861 0.049733933 -0.01565906 -0.08528234
000100 38 6e 02 bd 3d f6 01 3d 1c 50 08 bd 94 4c 44 3c
       -0.031843394 0.03172897 -0.033279523 0.011981148
000110 0b 8a 7a 3c 68 ea 2f bd e7 ee 03 bd 96 53 28 3c
       0.015291701 -0.042948157 -0.032210257 0.010273835
000120 1a df 19 bc de 46 8d 3d 7e 40 a0 bc d9 c4 d8 3a
       -0.00939157 0.068982825 -0.019562002 0.0016538157
000130 4b 69 04 3c 9d b6 3e bd ab 98 ce 3c 33 a7 03 bd
       0.008081744 -0.046560872 0.025219282 -0.032141875
000140 54 d5 5b bd 59 8f 0a 3c 4f 74 90 bd fb bc 8e 3b
       -0.053670242 0.008457028 -0.07053434 0.0043560243
000150 2c 5c 3a bd 69 0c 5c bd ae 98 f4 3c 85 1b 05 3d
       -0.04549806 -0.053722773 0.02985796 0.032496948
000160 4e 89 fa ba cf b7 ab bc 6f 44 22 3d d1 f7 88 bd
       -0.0019114406 -0.02096167 0.039616045 -0.06687892
000170 08 0c 32 3c 35 77 8c bd 6b 53 d9 3c b2 81 1b 3d
       0.010867126 -0.068586744 0.026529035 0.037965484
000180 09 4c 43 bd e7 dc 3d 3d e3 1f ea 3b d6 dd da bd
       -0.047679935 0.046353247 0.0071449145 -0.10686843
000190 c1 3d 9d 3d b6 45 15 3d 9c b6 d4 bc ad 9c 0a bd
       0.07677794 0.036443435 -0.025965981 -0.033840824
0001a0 4f f0 66 bd 1e aa 71 3d 1c 17 53 3d c4 d6 d8 bc
       -0.05638152 0.059000127 0.05153571 -0.026469596
0001b0 da e7 43 bd d4 25 e8 bc 42 d1 d0 bb 22 fc 68 3c
       -0.047828533 -0.02833835 -0.0063726017 0.014220269
0001c0 c5 b6 db 3b 68 56 d0 3c e7 d5 2f 3d 3a db cd 3a
       0.0067051374 0.025431827 0.042928603 0.0015705593
0001d0 bb d9 82 3d b1 92 5d bb a9 80 90 bc f3 0b be bc
       0.06389185 -0.0033809359 -0.017639475 -0.023199057
0001e0 ea d6 97 3d ae 22 f6 3b 00 30 06 bd 73 cc 98 bd
       0.074140385 0.0075114584 -0.03276062 -0.074608706
0001f0 24 d7 12 3c 93 ac 77 3b 66 04 71 3c fb d7 c5 bc
       0.008962426 0.0037792071 0.014710521 -0.02415084
000200 f4 41 b0 bd a5 3d 5d 3c f8 97 e5 3c c5 f1 b0 3c
       -0.086063296 0.013503467 0.028026566 0.02159966
000210 ff 31 2f bd d4 f1 78 bb 5d 57 da bb f2 28 05 3d
       -0.04277229 -0.0037985938 -0.0066632465 0.03250975
000220 91 46 c6 bc c2 e7 ee 3d fb 69 20 3d 68 39 1c bd
       -0.02420357 0.11665298 0.03916357 -0.038140684
000230 ee 4e 16 3c ea d3 dc b9 0a 0e 9d 3d c7 37 17 3d
       0.009174092 -0.00042119558 0.07668693 0.036918428
000240 53 c9 f0 bc 93 fe b9 3c 9e d5 89 bc 2c 66 bf 3c
       -0.029392874 0.022704398 -0.016825493 0.023364149
000250 f4 13 2d 3b 3b 36 14 bd a1 15 fd 3c aa 31 a3 bc
       0.0026409598 -0.03618453 0.030894103 -0.019921143
000260 39 3a 2c 3c f8 4a 03 3d e1 d9 28 3d 02 0a 22 bd
       0.010511928 0.032053918 0.04122341 -0.039560325
000270 4d 6d ee bc dd ac dd bc 5b 5b 15 3d f2 92 83 bd
       -0.029104853 -0.027059967 0.036464076 -0.06424512
000280 ba 28 ca bc 2b 2c 82 bc 8f ec 90 3c 05 c2 0f bd
       -0.024677623 -0.015890202 0.017690925 -0.03509714
000290 36 71 51 3c 81 db ae bc 1a 1b 28 bc 74 99 8a 3d
       0.012783339 -0.021344902 -0.010260368 0.0676755
0002a0 b1 9e 5a 3d 3e 2c 45 3d 78 1a 52 3d 52 78 38 bc
       0.053373996 0.048137896 0.051294774 -0.011259155
0002b0 b4 d6 45 3d 05 fa f6 3c 72 67 0a 3d 26 a6 dd 3c
       0.04830046 0.030148515 0.03379006 0.027056765
0002c0 1c 50 0a 3d 20 64 02 bc ed c3 b8 bc d1 1a cd bc
       0.033767805 -0.007958442 -0.022554362 -0.025037201
0002d0 b4 79 08 bd 54 e6 00 bd 27 6f 4e 3d 37 a9 8c bd
       -0.03331919 -0.031469658 0.050398972 -0.06868213
0002e0 01 60 1d 3d 14 2c 96 bc b1 68 18 3c 37 a7 f8 bb
       0.038421635 -0.018331565 0.009302304 -0.007588293
0002f0 d2 bd e6 39 6b e8 7b 3c c5 0c ca 3c ad f2 14 bd
       0.00044010446 0.015375237 0.024664292 -0.036364246
000300 ef 8e 47 bd c2 51 55 bc f8 69 59 3c cd ca 99 bc
       -0.048720296 -0.013019981 0.013269894 -0.01877346
000310 90 96 3a bc db e4 fb bc 17 9c 6e bd ae 02 01 bd
       -0.011388436 -0.030748775 -0.058254328 -0.031496696
000320 3d 46 1a bd 8f d4 ec bc 44 36 9a bb ce d6 67 3c
       -0.03766464 -0.02890995 -0.004706176 0.0141503345
000330 30 5e 01 bc 7a 25 86 bc 3d 9c 9e 3b 92 00 9d bc
       -0.007895991 -0.016375292 0.0048404024 -0.019165311
000340 ee 69 77 3b cb 8f b9 3c 24 ef ce bb 7d d0 f2 3b
       0.0037752348 0.022651574 -0.006315129 0.0074101076
000350 26 6d 85 bd 64 44 b4 bd a8 06 84 3c 17 0e 90 ba
       -0.06514959 -0.08802107 0.016116455 -0.0010990527
000360 da 62 8c bb 96 78 d0 3a 35 e1 dd bc 5a 63 d2 3c
       -0.004284245 0.0015905078 -0.027084926 0.02568214
000370 f6 ae 58 3c 8e f8 5d 39 97 5e 56 bd 72 3b 62 bd
       0.013225308 0.00021168796 -0.0523363 -0.055232473
000380 23 66 c6 bc d8 46 a6 bb 20 0d 45 3c d1 a3 f7 3c
       -0.024218624 -0.005074363 0.012027055 0.030229481
000390 05 6e 5b 3d 3d 24 6b 3c c5 1e f9 3b 32 81 ba 3b
       0.05357172 0.014351902 0.007602545 0.005691671
0003a0 f8 9a 0b bd 04 cc ea bc f4 5b c1 3c 93 50 67 3d
       -0.034083337 -0.028661735 0.023603417 0.056473326
0003b0 e9 c6 a6 bb 95 97 06 bd 09 aa e7 3c 29 7f 5f 3c
       -0.00508963 -0.032859404 0.028279321 0.013641157
0003c0 5f 06 08 bc 32 35 b8 bc 8f bd b7 bc 81 b8 09 3d
       -0.0083023 -0.022486303 -0.022429256 0.033623222
0003d0 7b e5 33 3d d8 a7 aa bd d7 5d 01 bd ff 74 83 bd
       0.04392002 -0.08332795 -0.031583633 -0.064187996
0003e0 a7 68 6a 3c 3e 32 67 3d e7 3d 65 bd 84 bd 5a 3c
       0.014307178 0.0564444 -0.055967238 0.013350848
0003f0 f0 3d 2a bc 87 5f a4 bc 8c 30 f1 3d fd 5b 27 bd
       -0.010390744 -0.020065082 0.11776838 -0.04085921

base.mlp.fc1.0.bias f4 [64]
000000 23 b6 9c bb b1 20 bf bb e7 14 ee bb 42 fc 1f 3c
       -0.0047824546 -0.0058327545 -0.0072656753 0.009764733
000010 bf 9c 93 3b 42 0d 86 bb f7 7b b5 ba cd f1 8d 3b
       0.0045047696 -0.004090936 -0.0013846149 0.0043318034
000020 4b 90 fd 3b ff 47 f8 bb 9a 0d 0e bc dd a0 c3 3b
       0.0077381483 -0.007576942 -0.008670235 0.005970104
000030 74 39 ad 3b 5a 00 da 3b 35 43 ba 3a 3b ed f4 bb
       0.00528639 0.006652874 0.0014210703 -0.007474569
000040 b0 de f9 bb f7 de f2 bb cf 9c 26 3a f4 20 d6 3b
       -0.0076254234 -0.0074118334 0.0006355764 0.00653469
000050 aa ac 09 bb 1e 3a c1 3b 72 75 1a 3c 08 64 0f 3c
       -0.0021007457 0.0058968207 0.009427415 0.008751877
000060 44 c0 00 3c 37 9a 82 bb 50 32 f9 bb 9c 28 0f bc
       0.00785834 -0.003985669 -0.0076048747 -0.008737709
000070 9a 4f 70 3b 3f 32 11 bc 4f 00 c8 bb 9c d0 b7 3b
       0.003666854 -0.008862077 -0.0061035524 0.005609585
000080 46 a7 ce 3b c3 eb a3 3b b2 5a 03 bc 97 31 0a bc
       0.0063065616 0.00500247 -0.008017229 -0.008434675
000090 44 37 07 bc 6c b7 c4 3b 26 7d e8 3b bf 8a 0b bc
       -0.008252922 0.006003311 0.007094997 -0.008516966
0000a0 15 1f bb bb b4 62 11 bc 33 80 7d bb 96 59 db 3b
       -0.0057104924 -0.00887363 -0.003868115 0.006694029
0000b0 b2 09 d9 3b f2 f7 38 3b 1f 2f 85 3b 64 14 8c bb
       0.00662347 0.0028223959 0.004064455 -0.0042748917
0000c0 99 5d d4 bb 2c 39 69 ba 39 73 ca 3b a2 e3 fa bb
       -0.0064808843 -0.0008896764 0.0061782864 -0.0076565305
0000d0 5c 7c bc 3b ae 6f 1a bb 34 a5 c6 bb d7 47 e6 bb
       0.0057521295 -0.0023565101 -0.006062174 -0.007027607
0000e0 0a 56 14 bc b0 00 36 3c 08 1c 1c 3c 76 53 2b bc
       -0.009053716 0.011108562 0.009528168 -0.01045691
0000f0 26 71 05 3c 35 39 08 3c 10 a4 0e 3c f0 4c 6d bb
       0.0081446525 0.0083144205 0.008706108 -0.0036209188

base.mlp.fc1.2.weight f4 [64]
000000 5c 42 84 3f 61 b8 81 3f 1b 41 7f 3f 60 6b 7e 3f
       1.0332751 1.0134393 0.9970872 0.9938259
000010 74 56 81 3f b3 18 7d 3f c5 97 7d 3f 68 83 80 3f
       1.0104508 0.98865813 0.99059707 1.0040102
000020 19 93 80 3f fe 58 81 3f 41 e8 7e 3f 57 ed 7e 3f
       1.0044891 1.0105283 0.9957314 0.995809
000030 64 af 81 3f 3f d1 7d 3f 83 da 7e 3f 4f 32 80 3f
       1.013165 0.9914741 0.9955217 1.0015353
000040 52 41 81 3f 69 ff 7f 3f f1 38 81 3f d9 7f 80 3f
       1.0098059 0.999991 1.0095502 1.0039016
000050 57 12 7f 3f 6c 49 80 3f bc 5b 81 3f 7d a1 7b 3f
       0.9963736 1.0022407 1.010612 0.98293287
000060 a1 c4 7c 3f 29 ac 80 3f ad b4 7d 3f da 1a 81 3f
       0.9873753 1.0052539 0.99103814 1.008632
000070 70 24 7f 3f 38 bd 7c 3f 93 89 80 3f 3f 4f 7e 3f
       0.99664974 0.98726225 1.0041984 0.9933967
000080 0c 31 7f 3f 98 ab 80 3f ff 57 80 3f 19 6b 81 3f
       0.99684215 1.0052366 1.0026854 1.0110809
000090 75 0f 80 3f 70 80 80 3f 63 13 80 3f 6b 0e 7f 3f
       1.0004717 1.0039196 1.0005916 0.99631375
0000a0 e9 2c 81 3f 84 e6 80 3f 43 e6 80 3f b9 d3 7e 3f
       1.009183 1.0070348 1.007027 0.99541813
0000b0 f5 28 7f 3f 7a c6 7f 3f a5 fc 7d 3f 0c c4 7f 3f
       0.9967187 0.99912226 0.9921363 0.9990852
0000c0 e8 b1 7f 3f 38 4b 7e 3f 8c b7 80 3f d6 28 7e 3f
       0.9988084 0.99333525 1.0056014 0.9928106
0000d0 84 f8 80 3f d4 80 7d 3f 9d b7 7d 3f ba 2a 80 3f
       1.0075841 0.990247 0.99108297 1.0013039
0000e0 bc 57 80 3f 38 ad 80 3f 27 46 7f 3f e8 26 7f 3f
       1.0026774 1.0052862 0.9971642 0.9966874
0000f0 6b 93 7d 3f f9 51 80 3f 12 29 7f 3f ca b9 80 3f
       0.99053067 1.0025016 0.99672043 1.0056698

base.mlp.fc1.2.bias f4 [64]
000000 39 bf 3d bd 6a cb 61 bc 50 3c 09 3b 47 b3 95 b9
       -0.046324942 -0.013781408 0.002094049 -0.00028553067
000010 df f4 6c 3c d2 91 1a 3b 6d 6c 8f 39 d2 22 41 3c
       0.014462679 0.002358545 0.0002735587 0.011788087
000020 f7 97 9c 3b 4e 54 34 bc 92 76 3a 3b 33 59 1f 3c
       0.004778858 -0.011006428 0.002845202 0.009725857
000030 b3 9e 57 3c d0 c1 ce bb 8b 82 7c bb 84 d2 14 ba
       0.013160395 -0.0063097253 -0.0038529958 -0.0005677121
000040 2b 6b 21 bc 42 95 06 bc f4 c8 3c 3a 03 9a be 3b
       -0.009852211 -0.008214297 0.0007201575 0.0058166995
000050 c6 08 a2 ba fd 96 77 3b 53 9e 2b 3c c4 15 48 ba
       -0.0012362234 0.0037779205 0.010474759 -0.0007632638
000060 e6 ba 60 bc 33 3e b4 bb f1 6a d7 3b ae c4 06 bc
       -0.013716435 -0.005500579 0.0065740277 -0.008225603
000070 5a ad 05 bb d4 2e 3c bb 8b 02 60 bb 20 fe c6 3b
       -0.0020397515 -0.0028714435 -0.0034181203 0.0060727745
000080 e3 cb 40 bb be 18 b6 3b 6e c3 2e bb d8 97 61 bc
       -0.00294184 0.0055571487 -0.0026666778 -0.0137691125
000090 61 e3 ab bb e9 0c 08 3c ce 25 eb 39 28 4b 89 bc
       -0.0052456115 0.008303859 0.0004485086 -0.01675947
0000a0 d1 f7 15 bc 78 ad dd bb 79 53 d6 bb 95 aa 36 3b
       -0.009153322 -0.006765064 -0.0065407124 0.002787267
0000b0 a4 fa 09 3c aa 90 67 3b 82 d9 e6 b7 e7 b4 65 3a
       0.008421574 0.003533403 -2.7519422e-05 0.0008762613
0000c0 b1 11 7b bc 8a 27 03 3c 54 e1 00 3c 21 ae 18 bc
       -0.015324042 0.008005032 0.007866222 -0.009318859
0000d0 32 c4 2c 3c 0d 60 ad 3b 97 ae a6 3b e2 8e b2 bb
       0.0105448235 0.005290991 0.0050867307 -0.005449162
0000e0 18 4e 85 bc 61 d3 0b 3b ac ec 4a 3a 34 04 7a bc
       -0.01627259 0.0021335708 0.00077409553 -0.015259791
0000f0 31 9a f4 ba ce 38 8b 3a 4b f2 16 3c 72 62 9e bb
       -0.0018661675 0.0010621788 0.009213041 -0.004833513

base.mlp.fc_h.0.weight f4 [64, 64]
000000 0a 38 02 3e f5 75 01 3f 25 bf 8d bd b5 0c ac bd
       0.1271669 0.50570613 -0.069212236 -0.08400861
000010 61 42 83 bd 64 21 23 3e 4f a0 51 bd 0d c9 10 3d
       -0.06409145 0.15930706 -0.051178273 0.035347987
000020 f3 53 a8 3e 57 aa c2 bd c9 16 70 bc 4f 69 bd bd
       0.32876548 -0.09505146 -0.01465387 -0.09248602
000030 a6 c8 eb bd 01 5f 1b 3e 5d d3 4c be 66 5f c6 be
       -0.1151288 0.1517296 -0.20002504 -0.38744658
000040 c5 7b b7 bd 96 8e 17 be 92 aa a0 bd 87 1b 2c be
       -0.08959154 -0.14800486 -0.07845034 -0.16807376
000050 46 92 8d be e2 8f 89 3c 89 ce 9a bd d5 95 cc bc
       -0.2765066 0.016792241 -0.07558925 -0.02497379
000060 38 f4 2c 3e de 57 2e 3d 13 5f 4f 3e 75 be a0 be
       0.16890037 0.042564265 0.20251112 -0.31395307
000070 19 a2 a4 bd c8 09 18 3b 6c 12 d7 bd b9 54 95 bd
       -0.0803873 0.002319919 -0.105015606 -0.0729155
000080 22 33 35 bd 56 30 30 bd 96 f1 9b 3c a7 45 af bd
       -0.044238217 -0.043014847 0.019036096 -0.08558207
000090 2e be 66 3c 15 60 23 be 9c a4 7d 3e 09 5f 2b be
       0.014083428 -0.15954621 0.24769825 -0.16735472
0000a0 6b 61 b2 3e 67 ed c4 bd 21 06 ac 3e 39 12 fa 3d
       0.3483995 -0.096155934 0.33598426 0.12210507
0000b0 a4 de ea be 19 51 60 bd f0 c2 0f 3f d8 a1 1c be
       -0.45872986 -0.05476484 0.56156826 -0.15296113
0000c0 a8 6e 42 3d 90 2c 92 be c8 be 01 bf 63 b8 46 3e
       0.04746881 -0.28549623 -0.50681734 0.19406275
0000d0 7c d4 2f 3e e1 50 5f be cc 97 9c be 4d f8 1b 3e
       0.171709 -0.21808197 -0.30584562 0.15231438
0000e0 3e 07 80 bd 68 51 0d be 98 8f c8 be 69 ba 43 be
       -0.06251381 -0.13800585 -0.39172053 -0.19114079
0000f0 44 98 f5 bd 65 4f c2 3d 7a 5c 01 be 51 7b a8 3d
       -0.11991933 0.094877996 -0.12632933 0.08226646
000100 56 a7 17 bd ca c1 3f 3d 7c e5 b5 bd d2 14 10 be
       -0.03702482 0.04681567 -0.08881661 -0.14070442
000110 37 ab 45 be b4 b7 80 bd 0a 35 22 3e a7 49 c7 3e
       -0.19303595 -0.062850386 0.15840545 0.3892338
000120 06 37 82 3d bc a3 bc bd 1a 02 45 bd 97 25 e6 bc
       0.06358151 -0.09210917 -0.048097707 -0.028094096
000130 52 b3 66 3d 7d 2a 91 3c 32 e1 e9 bd ba e0 21 3e
       0.056323357 0.017720455 -0.11419906 0.15808383
000140 ae 64 14 be 69 b0 2f be 6c a5 35 be 99 ed 67 bd
       -0.14491531 -0.17157139 -0.17738885 -0.056623075
000150 4b 06 91 be 99 b3 89 bc 9e 5d 45 be 86 70 dc bd
       -0.28325114 -0.016809272 -0.19273993 -0.1076365
000160 0f d1 ac 3c c2 7f 16 be fb 7c 64 be dc 60 36 3e
       0.02109578 -0.14697173 -0.22313301 0.17810386
000170 ec 64 01 3e 6e f0 15 3f e6 b9 02 be b9 6f d2 be
       0.12636155 0.5856999 -0.12766227 -0.41100863
000180 46 10 00 bd 18 9a 4f 3e e4 27 aa 3d 56 e7 71 3e
       -0.03126552 0.20273626 0.0830839 0.23623404
000190 bb ad 24 be c9 ae 89 be a3 49 eb bd eb 97 a0 be
       -0.16081898 -0.26891163 -0.114886545 -0.31365904
0001a0 23 75 94 bc 50 28 39 be fe 27 7d 3c cb 8c 87 bd
       -0.018122261 -0.18081784 0.015451429 -0.06618651
0001b0 04 cf e8 3d 7c 58 82 3e e4 03 68 bd 16 e4 6e bd
       0.1136761 0.25458133 -0.056644335 -0.05832299
0001c0 e6 20 6e be a7 6c a0 3e 2e 6b c3 bd 7f 87 c2 be
       -0.23254737 0.31332895 -0.09541927 -0.37994
0001d0 a1 f8 fc bd 5c 4d 4e 3e 6e 43 f6 bd 12 fc 4d 3e
       -0.1235211 0.20146698 -0.1202458 0.20115688
0001e0 d2 f4 89 be 69 a7 c5 bc aa c4 f7 3d f6 c8 f5 bd
       -0.26944596 -0.024127679 0.120980576 -0.12001221
0001f0 bf 0e 5a 3e a9 35 80 bd f3 4a ec bd ab e7 44 3f
       0.21294688 -0.06260235 -0.11537733 0.76916
000200 e5 57 ff 3d a0 da d2 be 40 82 44 bd 9c fd 58 3d
       0.124679364 -0.41182423 -0.04797578 0.052976236
000210 e4 9b 8c bd 56 91 dc 3d f9 73 54 be be b1 0a 3f
       -0.06865671 0.10769908 -0.20747365 0.54177463
000220 94 be 20 be 4b 87 0d be 8d 72 66 bd f6 1b fc 3c
       -0.156977 -0.13821141 -0.056261588 0.030775052
000230 cb 8f aa be cf da 05 3d ed d2 14 bd f0 4b e2 3d
       -0.3331283 0.032679375 -0.036333967 0.1104964
000240 5d 72 31 be 4c e3 d7 bd 9a 07 ae 3d c7 bf 34 3e
       -0.17328782 -0.105414 0.08497544 0.17651282
000250 94 92 05 be eb bd 18 3d 85 9f 82 3d e9 9c b5 3e
       -0.13044196 0.037290495 0.06378082 0.35471275
000260 55 23 9a 3e 09 10 8c 3a e3 64 4e 3e f6 32 16 3e
       0.3010508 0.0010685931 0.20155673 0.14667878
000270 df 2c ec 3e 33 a0 9d 3b 13 5b ce bd 3f a2 c4 3c
       0.46127984 0.004810357 -0.10075965 0.024003146
000280 ac 12 08 3e 64 99 0c be c6 2a 2b bb 29 5b 01 bf
       0.13288373 -0.13730389 -0.0026118024 -0.50529724
000290 72 e2 87 3e 3e 73 02 bd cb e0 a5 be e0 89 aa 3c
       0.26539952 -0.031848185 -0.32398066 0.020817697
0002a0 9d cf 03 be f3 79 83 be f7 27 a0 3e 19 1d 3b be
       -0.12872167 -0.25678977 0.3128049 -0.18272819
0002b0 f6 f4 b0 3d 29 a0 2a 3e d8 bf e4 3e 22 be 72 bd
       0.086404726 0.16662659 0.44677615 -0.059263356
0002c0 30 ad ab 3d 46 73 66 bd d0 87 59 3e 8f 47 6d 3d
       0.08382642 -0.056262277 0.21243215 0.05792957
0002d0 5d 40 a3 bb 63 21 ce be 0f 14 e4 3e 1f d7 4a be
       -0.004982038 -0.40259847 0.44546553 -0.19808625
0002e0 db f9 cb bd 42 5d dd bd e6 40 72 bd ac a9 9a 3d
       -0.099597655 -0.10808803 -0.059143923 0.075518936
0002f0 ab ec 94 3c b5 9f 3c 3e 64 8b 05 3c bf f9 e6 3d
       0.018179258 0.18420298 0.008150909 0.11278104
000300 89 7d 85 3e cc 1c 04 be 7f 4a 32 be c5 03 6e 3e
       0.26072338 -0.1290161 -0.1741123 0.23243625
000310 14 f9 52 be 22 6f 62 3e be 66 8d be a4 58 b8 be
       -0.20602828 0.22112706 -0.2761745 -0.36005127
000320 54 e7 cc 3e 1e bb 00 3d 6a 16 0c be b7 94 7a 3c
       0.4002024 0.03142845 -0.13680425 0.015294245
000330 b3 44 b2 bd 43 0a 08 3e b1 2c ac be b5 fa c3 3e
       -0.087045096 0.13285165 -0.33627847 0.38277212
000340 ab a8 4e be 90 73 b1 3e 36 eb 4e be e7 0f 4d 3e
       -0.20181529 0.3465848 -0.20206913 0.20025598
000350 2e 28 ff bd 6f c7 3f be ec e6 d7 bc 9a 18 6e be
       -0.124588355 -0.18728422 -0.02635523 -0.23251572
000360 69 84 07 3e 50 b6 fb be 83 01 12 3d 8e e7 fd bc
       0.13234104 -0.4916253 0.035645973 -0.030994203
000370 cc c7 52 3e 86 76 12 be a5 52 0d 3e 57 f5 ad 3c
       0.20584029 -0.14303026 0.13801058 0.021235151
000380 16 8f 21 be 1e a9 4a 3e 26 3a 15 bd af 56 92 3e
       -0.15777239 0.19791076 -0.036432408 0.2858176
000390 5b 59 1e be a3 88 05 be b8 28 e7 bd eb 66 17 3e
       -0.15463774 -0.13040404 -0.11287063 0.14785354
0003a0 5b d1 00 3e 3f 28 b9 bd 8b 6c 0b 3e 2b dd a2 be
       0.12579863 -0.090408795 0.13615625 -0.31809363
0003b0 2a c4 e9 bb 09 8e 37 3c 42 6f d1 bd 77 8a d4 3e
       -0.0071339803 0.011203297 -0.10226299 0.4151189
0003c0 19 5e 9a 3e fe 07 38 3e 72 96 36 be a2 71 5a 3e
       0.30149916 0.17971799 -0.17830828 0.2133241
0003d0 2b 4d 83 bc e1 7b ab bd f3 d3 fe 3d f8 b9 04 3e
       -0.016028007 -0.083732374 0.1244277 0.12961566
0003e0 65 d6 5d be ec a0 bb be d5 86 7b 3e 3f f7 64 be
       -0.21663816 -0.3664621 0.24563153 -0.22359942
0003f0 d9 66 b7 3d 5e 13 1d bd c0 e1 b1 3d 26 34 76 be
       0.089551635 -0.038348548 0.086856365 -0.2404333

base.mlp.fc_h.0.bias f4 [64]
000000 00 00 00 00 00 00 00 00 00 00 00 00 00 00 00 00
       0.0 0.0 0.0 0.0
000010 00 00 00 00 00 00 00 00 00 00 00 00 00 00 00 00
       0.0 0.0 0.0 0.0
000020 00 00 00 00 00 00 00 00 00 00 00 00 00 00 00 00
       0.0 0.0 0.0 0.0
000030 00 00 00 00 00 00 00 00 00 00 00 00 00 00 00 00
       0.0 0.0 0.0 0.0
000040 00 00 00 00 00 00 00 00 00 00 00 00 00 00 00 00
       0.0 0.0 0.0 0.0
000050 00 00 00 00 00 00 00 00 00 00 00 00 00 00 00 00
       0.0 0.0 0.0 0.0
000060 00 00 00 00 00 00 00 00 00 00 00 00 00 00 00 00
       0.0 0.0 0.0 0.0
000070 00 00 00 00 00 00 00 00 00 00 00 00 00 00 00 00
       0.0 0.0 0.0 0.0
000080 00 00 00 00 00 00 00 00 00 00 00 00 00 00 00 00
       0.0 0.0 0.0 0.0
000090 00 00 00 00 00 00 00 00 00 00 00 00 00 00 00 00
       0.0 0.0 0.0 0.0
0000a0 00 00 00 00 00 00 00 00 00 00 00 00 00 00 00 00
       0.0 0.0 0.0 0.0
0000b0 00 00 00 00 00 00 00 00 00 00 00 00 00 00 00 00
       0.0 0.0 0.0 0.0
0000c0 00 00 00 00 00 00 00 00 00 00 00 00 00 00 00 00
       0.0 0.0 0.0 0.0
0000d0 00 00 00 00 00 00 00 00 00 00 00 00 00 00 00 00
       0.0 0.0 0.0 0.0
0000e0 00 00 00 00 00 00 00 00 00 00 00 00 00 00 00 00
       0.0 0.0 0.0 0.0
0000f0 00 00 00 00 00 00 00 00 00 00 00 00 00 00 00 00
       0.0 0.0 0.0 0.0

base.mlp.fc_h.2.weight f4 [64]
000000 00 00 80 3f 00 00 80 3f 00 00 80 3f 00 00 80 3f
       1.0 1.0 1.0 1.0
000010 00 00 80 3f 00 00 80 3f 00 00 80 3f 00 00 80 3f
       1.0 1.0 1.0 1.0
000020 00 00 80 3f 00 00 80 3f 00 00 80 3f 00 00 80 3f
       1.0 1.0 1.0 1.0
000030 00 00 80 3f 00 00 80 3f 00 00 80 3f 00 00 80 3f
       1.0 1.0 1.0 1.0
000040 00 00 80 3f 00 00 80 3f 00 00 80 3f 00 00 80 3f
       1.0 1.0 1.0 1.0
000050 00 00 80 3f 00 00 80 3f 00 00 80 3f 00 00 80 3f
       1.0 1.0 1.0 1.0
000060 00 00 80 3f 00 00 80 3f 00 00 80 3f 00 00 80 3f
       1.0 1.0 1.0 1.0
000070 00 00 80 3f 00 00 80 3f 00 00 80 3f 00 00 80 3f
       1.0 1.0 1.0 1.0
000080 00 00 80 3f 00 00 80 3f 00 00 80 3f 00 00 80 3f
       1.0 1.0 1.0 1.0
000090 00 00 80 3f 00 00 80 3f 00 00 80 3f 00 00 80 3f
       1.0 1.0 1.0 1.0
0000a0 00 00 80 3f 00 00 80 3f 00 00 80 3f 00 00 80 3f
       1.0 1.0 1.0 1.0
0000b0 00 00 80 3f 00 00 80 3f 00 00 80 3f 00 00 80 3f
       1.0 1.0 1.0 1.0
0000c0 00 00 80 3f 00 00 80 3f 00 00 80 3f 00 00 80 3f
       1.0 1.0 1.0 1.0
0000d0 00 00 80 3f 00 00 80 3f 00 00 80 3f 00 00 80 3f
       1.0 1.0 1.0 1.0
0000e0 00 00 80 3f 00 00 80 3f 00 00 80 3f 00 00 80 3f
       1.0 1.0 1.0 1.0
0000f0 00 00 80 3f 00 00 80 3f 00 00 80 3f 00 00 80 3f
       1.0 1.0 1.0 1.0

base.mlp.fc_h.2.bias f4 [64]
000000 00 00 00 00 00 00 00 00 00 00 00 00 00 00 00 00
       0.0 0.0 0.0 0.0
000010 00 00 00 00 00 00 00 00 00 00 00 00 00 00 00 00
       0.0 0.0 0.0 0.0
000020 00 00 00 00 00 00 00 00 00 00 00 00 00 00 00 00
       0.0 0.0 0.0 0.0
000030 00 00 00 00 00 00 00 00 00 00 00 00 00 00 00 00
       0.0 0.0 0.0 0.0
000040 00 00 00 00 00 00 00 00 00 00 00 00 00 00 00 00
       0.0 0.0 0.0 0.0
000050 00 00 00 00 00 00 00 00 00 00 00 00 00 00 00 00
       0.0 0.0 0.0 0.0
000060 00 00 00 00 00 00 00 00 00 00 00 00 00 00 00 00
       0.0 0.0 0.0 0.0
000070 00 00 00 00 00 00 00 00 00 00 00 00 00 00 00 00
       0.0 0.0 0.0 0.0
000080 00 00 00 00 00 00 00 00 00 00 00 00 00 00 00 00
       0.0 0.0 0.0 0.0
000090 00 00 00 00 00 00 00 00 00 00 00 00 00 00 00 00
       0.0 0.0 0.0 0.0
0000a0 00 00 00 00 00 00 00 00 00 00 00 00 00 00 00 00
       0.0 0.0 0.0 0.0
0000b0 00 00 00 00 00 00 00 00 00 00 00 00 00 00 00 00
       0.0 0.0 0.0 0.0
0000c0 00 00 00 00 00 00 00 00 00 00 00 00 00 00 00 00
       0.0 0.0 0.0 0.0
0000d0 00 00 00 00 00 00 00 00 00 00 00 00 00 00 00 00
       0.0 0.0 0.0 0.0
0000e0 00 00 00 00 00 00 00 00 00 00 00 00 00 00 00 00
       0.0 0.0 0.0 0.0
0000f0 00 00 00 00 00 00 00 00 00 00 00 00 00 00 00 00
       0.0 0.0 0.0 0.0

base.mlp.fc2.0.0.weight f4 [64, 64]
000000 99 d3 13 3e a0 c5 02 3f 4e c0 77 bd 4c f7 bd bd
       0.14436187 0.510828 -0.06048613 -0.09275684
000010 87 99 8e bd 41 e7 25 3e b8 73 44 bd b4 33 d6 3c
       -0.06962877 0.16201498 -0.04796192 0.0261477
000020 05 0e a4 3e 94 e7 b1 bd 8d 37 1d bc f1 7f da bd
       0.32041946 -0.08686748 -0.009595764 -0.10668934
000030 c6 9f f6 bd 86 77 1b 3e 53 7e 53 be 4e f8 c3 be
       -0.12042193 0.15182313 -0.20653658 -0.3827538
000040 9a 58 ad bd 6d 9b 11 be 15 b1 73 bd 3b 83 39 be
       -0.08464165 -0.14219446 -0.05949505 -0.18116467
000050 d8 6a 89 be 98 36 06 3c 80 07 a8 bd c9 a1 09 bd
       -0.26839328 0.008191727 -0.082045555 -0.033601556
000060 2e 51 27 3e e2 33 42 3d 22 26 57 3e b9 36 9e be
       0.16339561 0.04741276 0.2101064 -0.30901125
000070 38 cb b9 bd 08 bb 26 3c de 0e cd bd cb a8 a8 bd
       -0.09071964 0.010176428 -0.10012601 -0.0823532
000080 0a 7d 46 bd f7 29 46 bd 61 cb c2 3c 5d 2b a6 bd
       -0.04845909 -0.048379865 0.02377862 -0.0811374
000090 73 92 a9 3c 62 5f 26 be 39 0f 78 3e e0 b1 18 be
       0.020699715 -0.16247323 0.24224557 -0.14911604
0000a0 47 1d b5 3e e8 97 b4 bd 27 f7 ae 3e 5b 6e f3 3d
       0.353739 -0.08818036 0.34172937 0.11886283
0000b0 7d 7c ed be 2c ad 83 bd f7 a2 0a 3f 0a 7f 17 be
       -0.4638404 -0.06429514 0.54154915 -0.14794555
0000c0 c8 3c 65 3d 07 92 95 be 92 13 03 bf 7f 2f 4f 3e
       0.05596617 -0.29212973 -0.51201737 0.20232962
0000d0 22 e1 28 3e 9b 0f 58 be 57 f0 99 be 41 7f 21 3e
       0.16492131 -0.21099703 -0.30066177 0.157712
0000e0 c3 a8 37 bd c1 48 18 be f2 29 cc be 43 4e 2f be
       -0.044838678 -0.14871503 -0.39875752 -0.17119698
0000f0 4e e2 05 be c6 ce ab 3d 32 8f 0e be 72 fe b5 3d
       -0.1307461 0.08389048 -0.13921812 0.08886422
000100 60 1b 68 bd 0c a2 e6 3c a6 c9 d9 bd b8 81 eb bd
       -0.05666673 0.028153442 -0.106341645 -0.11499351
000110 60 92 36 be f5 91 93 bd e2 18 12 3e ec 54 cd 3e
       -0.17829275 -0.072055735 0.14267305 0.40103853
000120 1b b5 a3 3d 53 0f d5 bd 1e 37 8c bd 03 46 38 bc
       0.079935275 -0.104033135 -0.0684645 -0.011247161
000130 1f 96 a0 3d 00 82 fc 3c 0f 13 c2 bd a7 7e 0c 3e
       0.07841133 0.030823708 -0.094762914 0.13720189
000140 22 c0 24 be 94 29 3c be ac 34 5a be 78 a7 0c bd
       -0.16088918 -0.18375236 -0.21309155 -0.0343394
000150 97 4b 9a be 5d a5 96 b9 ce 68 32 be b7 ef bc bd
       -0.30135795 -0.00028733435 -0.17422792 -0.092254095
000160 70 47 32 3d 83 19 2b be 7e 89 7d be 72 22 22 3e
       0.04352516 -0.1670895 -0.2475948 0.15833452
000170 66 cf 0e 3e e3 46 11 3f 49 66 17 be cb 99 cb be
       0.13946304 0.5674879 -0.14785112 -0.39765772
000180 bc 1d 45 bc 3b 21 64 3e 14 96 80 3d 3a f4 5c 3e
       -0.012031015 0.22278301 0.06278625 0.2157754
000190 c2 dd 2f be bf d2 83 be d5 27 be bd 4c a7 a9 be
       -0.17174438 -0.25746724 -0.09284941 -0.3313545
0001a0 93 50 16 bd 9d e8 51 be cd eb c0 3b 00 f2 48 bd
       -0.036697935 -0.20498891 0.0058874846 -0.049058914
0001b0 68 42 0c 3e 9f 1b 8a 3e b2 b2 35 bd 74 11 9f bd
       0.13697207 0.26974198 -0.04435987 -0.07767001
0001c0 a5 e8 7d be 9d 4f 9e 3e 8f f7 95 bd ee 7b c5 be
       -0.24795778 0.30920115 -0.07322609 -0.38571113
0001d0 fa 2e d9 bd b1 e4 37 3e a7 3d 11 be 94 68 3c 3e
       -0.10604663 0.17958333 -0.14183675 0.18399268
0001e0 f4 45 98 be f7 2b 08 bb e3 3b 06 3e 45 33 0c be
       -0.2974087 -0.0020778158 0.13108782 -0.13691433
0001f0 38 66 6d 3e 53 1e 19 bd de 1c d0 bd 6e 18 42 3f
       0.23183525 -0.037382435 -0.10161756 0.75818527
000200 62 9c 01 3e c1 13 d5 be 11 20 53 bd 17 13 3a 3d
       0.12657312 -0.41616634 -0.051544253 0.04542836
000210 40 a4 81 bd 0f a0 d2 3d df 12 57 be 98 a2 08 3f
       -0.06330156 0.10284435 -0.21003293 0.533731
000220 19 5a 1b be 94 da 07 be 3d 91 75 bd 29 e0 16 3d
       -0.15171088 -0.13266975 -0.059952963 0.03683487
000230 e0 26 a8 be bb 9c 16 3d b0 92 05 bd 7a f9 d9 3d
       -0.3284216 0.036770564 -0.032610595 0.10643287
000240 79 ca 35 be 25 d6 e4 bd 50 4c af 3d 7d da 31 3e
       -0.17753018 -0.11173657 0.08559477 0.17368503
000250 57 ce f5 bd 16 93 dd 3c 62 d5 81 3d 53 17 b2 3e
       -0.12002247 0.027047675 0.06339528 0.3478342
000260 2c 60 9c 3e 7d 19 54 bb fb 56 4a 3e 2f 13 12 3e
       0.30542123 -0.0032363825 0.19759743 0.1426513
000270 f0 36 e9 3e 22 54 42 3c b8 05 d7 bd b3 9d de 3c
       0.45549726 0.011860879 -0.10499138 0.027174806
000280 25 b5 0c 3e 4d c9 07 be f3 f4 d9 bb 9b 6c 02 bf
       0.13740976 -0.13260384 -0.0066515147 -0.5094697
000290 7b 0d 85 3e 65 b5 d3 bc e2 73 a3 be eb 8f cd 3c
       0.25986847 -0.025843332 -0.3192435 0.02509304
0002a0 b7 25 f4 bd 4f d2 83 be 91 03 a4 3e 72 cd 35 be
       -0.11921256 -0.2574639 0.3203397 -0.17754152
0002b0 e5 fa a5 3d aa 28 21 3e 9e b9 e8 3e 47 82 82 bd
       0.08104495 0.15738168 0.45454115 -0.06372505
0002c0 1e 2c ac 3d 54 ff 76 bd f6 1d 5e 3e 3f 60 7e 3d
       0.08406852 -0.060302094 0.21691117 0.062103506
0002d0 0d 9d 88 bb 7f c7 d0 be a4 bc e1 3e d5 59 50 be
       -0.0041691125 -0.40777203 0.44089234 -0.20346768
0002e0 bd 65 c4 bd a4 a1 eb bd 76 e8 86 bd 42 31 a5 3d
       -0.095897175 -0.1150544 -0.06587307 0.08066036
0002f0 fb 9f 2a 3c 92 1a 36 3e 7c c6 80 3b 9b 3f f7 3d
       0.010414119 0.17783573 0.003929911 0.12072679
000300 14 8a 7e 3e e4 19 03 be 46 42 34 be 4a 3f 6a 3e
       0.2485736 -0.12802845 -0.17603406 0.22875705
000310 4b 8b 50 be 44 a8 5e 3e 70 07 91 be 4f 60 ba be
       -0.20365636 0.21743876 -0.28325987 -0.36401603
000320 fc 5a ce 3e 6e c1 12 3d 52 b4 0a be a5 45 09 3d
       0.4030379 0.035829 -0.13545349 0.033513684
000330 da 23 b3 bd 54 f4 03 3e fc a6 ad be d3 e7 c4 3e
       -0.087470725 0.12886173 -0.3391646 0.38458118
000340 c2 df 4d be 04 df aa 3e dd 77 5a be 51 a7 55 3e
       -0.20104888 0.33373272 -0.21334787 0.20864607
000350 ee 6a f4 bd 7e 91 43 be 26 27 d8 bc 23 e7 6c be
       -0.11934458 -0.1909847 -0.026385855 -0.23135047
000360 38 51 06 3e e5 ea fa be 8f 43 13 3d 18 f1 f4 bc
       0.1311692 -0.49007335 0.0359531 -0.029900119
000370 8a 15 52 3e 78 2f 0f be 66 bc 0e 3e e0 67 d9 3c
       0.20516029 -0.13982952 0.13939056 0.02653879
000380 8b ce 21 be 79 94 4a 3e 95 3c 10 bd f5 88 92 3e
       -0.15801446 0.197832 -0.035214026 0.28620115
000390 4d 6f 27 be 23 e6 ef bd 14 35 e8 bd 6f cd 0d 3e
       -0.16351052 -0.11713817 -0.11338249 0.13847898
0003a0 3b 13 05 3e 27 6a b6 bd 6d b9 10 3e e2 45 a1 be
       0.12995617 -0.08906966 0.14133234 -0.3149863
0003b0 f1 4f 1c 3b e2 a6 b9 3b dd 28 b8 bd d8 ec d4 3e
       0.002385136 0.005665646 -0.08992169 0.41586947
0003c0 81 ea 92 3e 4c 5b 40 3e 91 97 35 be 1a e1 56 3e
       0.28694537 0.18784827 -0.17733599 0.20984307
0003d0 2c 36 a8 bc 27 09 ac bd 44 19 fc 3d 90 62 f5 3d
       -0.020533644 -0.08400183 0.123095065 0.1198169
0003e0 9c 7a 69 be cb b7 bc be 0e 80 80 3e 9c 34 71 be
       -0.22800678 -0.36858973 0.25097698 -0.23555225
0003f0 45 21 af 3d 5e 0f f8 bc 17 69 c1 3d 61 78 72 be
       0.085512675 -0.030280765 0.094438724 -0.23678733

base.mlp.fc2.0.0.bias f4 [64]
000000 49 b9 b3 bb df 46 ac 3c 45 bd 90 3b 60 b6 2c ba
       -0.005484734 0.021029888 0.004417094 -0.0006588455
000010 a7 b6 fc 3b 23 2b d1 bb fb 2b df bb 58 9d 5e 3b
       0.0077122035 -0.006383316 -0.006810663 0.0033968296
000020 f6 67 a5 bb ac 96 07 bc 49 8c b4 b9 e3 cf 51 bc
       -0.0050477935 -0.008275669 -0.00034436796 -0.012805912
000030 06 ea 6c 3a 5d 33 31 3c 7a 1e a5 bb f9 a6 85 3c
       0.0009037558 0.010815469 -0.0050390335 0.01631497
000040 d3 24 76 bb f5 36 85 bb 5b ce 5a 3b 79 2b d6 bb
       -0.003755857 -0.0040653893 0.0033387158 -0.006535944
000050 9a 0b 1d bc 43 ad b1 bb 8a 2c 74 bb 0b 01 80 bc
       -0.009585286 -0.0054222657 -0.0037257993 -0.015625497
000060 89 0b 11 3c 70 3f a8 3b 14 b6 09 bc ee 75 3d 3c
       0.008852848 0.0051345155 -0.008405227 0.011563761
000070 70 1b c6 3b 8d 20 98 3a f0 f6 fb bb 1d 06 0a 3c
       0.0060457513 0.001160638 -0.0076893494 0.008424309
000080 ef 7f f9 bb f2 9f 51 bc 7d 0b 06 3c 31 6d 3e 3b
       -0.007614128 -0.012794482 0.00818145 0.0029056782
000090 0d f1 26 bc 6f 33 a7 3b 10 b8 5a 3b 47 8e 84 bb
       -0.010189307 0.005102567 0.003337387 -0.004045281
0000a0 9e af 12 3c de 87 0a 3c d3 33 16 bc 71 b2 00 3c
       0.008953003 0.008455245 -0.009167629 0.007855044
0000b0 a4 50 90 3b 2f 43 e4 bb fd c3 78 3b 4e ab 94 3b
       0.0044041444 -0.0069660167 0.0037958615 0.0045370227
0000c0 47 2e 30 bc bd ae ca 3c 05 e3 36 3c ca 18 02 3a
       -0.010753221 0.024741525 0.011162524 0.00049628003
0000d0 f1 28 34 bc a3 e2 37 3b 48 ee 26 bb f4 97 22 bb
       -0.010996089 0.002805867 -0.0025471617 -0.002480981
0000e0 b3 af 6a 3c c9 3e d0 b9 03 8b 09 bc 4c 8a 20 ba
       0.0143241165 -0.0003971963 -0.008394959 -0.00061241235
0000f0 d7 d4 04 bc 19 85 71 3b a3 9b f9 bb 1e a7 0b bb
       -0.008107386 0.0036853014 -0.0076174303 -0.0021309326

base.mlp.fc2.0.2.weight f4 [64]
000000 50 b4 80 3f 39 f7 7f 3f b3 ec 7d 3f 4d 62 7f 3f
       1.0055027 0.99986607 0.991893 0.9975937
000010 31 ec 7e 3f 1b d6 80 3f e1 94 7f 3f 8a 36 7f 3f
       0.9957915 1.006534 0.99836546 0.99692595
000020 fc 2e 81 3f 6a 55 82 3f 93 10 81 3f 09 85 7f 3f
       1.0092463 1.0182316 1.0083183 0.9981237
000030 19 8b 81 3f c9 6e 7e 3f d6 33 81 3f 7c ab 80 3f
       1.0120574 0.99387795 1.0093944 1.0052333
000040 fd 71 7e 3f a3 24 7e 3f 5f f1 7c 3f 24 7c 81 3f
       0.9939268 0.99274653 0.98805803 1.011601
000050 a6 ba 80 3f 33 3d 81 3f 45 f3 7e 3f b4 79 80 3f
       1.005696 1.0096802 0.9958995 1.0037141
000060 dc ad 80 3f 3d b5 7e 3f 0a 86 7f 3f 6e 11 81 3f
       1.0053058 0.994953 0.998139 1.0083444
000070 74 ae 7d 3f a3 c2 7f 3f 37 29 80 3f 73 1d 7e 3f
       0.9909432 0.9990637 1.0012578 0.99263686
000080 3f fc 7e 3f 1f b2 81 3f cc 0b 81 3f 59 8c 80 3f
       0.99603647 1.0132483 1.0081725 1.0042831
000090 b3 d6 80 3f 0e 04 81 3f 06 ac 7e 3f 7f 04 7e 3f
       1.0065521 1.0079362 0.99481237 0.9922561
0000a0 12 59 81 3f ed 32 81 3f 0a e9 80 3f a7 2a 7e 3f
       1.0105307 1.0093666 1.0071118 0.9928383
0000b0 aa b4 80 3f b5 35 80 3f 35 ad 7c 3f 2b aa 7c 3f
       1.0055134 1.001639 0.9870179 0.98697156
0000c0 c2 20 7e 3f 7c 2b 81 3f 20 d3 81 3f 74 42 7f 3f
       0.99268734 1.0091395 1.0142555 0.99710774
0000d0 08 eb 7d 3f f0 a7 80 3f 34 d8 80 3f 31 de 80 3f
       0.99186754 1.005125 1.006598 1.0067807
0000e0 c9 09 81 3f ac 00 80 3f 21 2b 80 3f e5 bf 7c 3f
       1.0081111 1.0000205 1.0013162 0.9873031
0000f0 00 7d 80 3f ab 08 81 3f 97 29 7d 3f 36 1b 7d 3f
       1.0038147 1.008077 0.98891586 0.98869646

base.mlp.fc2.0.2.bias f4 [64]
000000 7b df fc bb ad c7 29 3c f6 e1 18 bb a3 6d 72 3a
       -0.0077170706 0.010362548 -0.0023328043 0.00092479045
000010 a5 4e 7e 3b 93 ec 20 bc dc b8 fa bb 54 23 fd ba
       0.00388042 -0.009822029 -0.0076514315 -0.0019312897
000020 8c 40 f1 bb 31 94 4d bc 0f 4c 8a 3b 79 33 66 bc
       -0.007362431 -0.012547539 0.0042204927 -0.014050358
000030 43 79 5b 3b d8 29 0e 3c 84 aa 08 bc 54 d6 8d 3c
       0.0033489026 0.0086769685 -0.008341435 0.017314114
000040 d2 3e 92 3b e5 a7 c5 3b 97 15 9d 3b d6 df db bb
       0.004463055 0.0060319775 0.0047938335 -0.006710033
000050 e3 f1 c6 bb ee a7 1d bc 5d ae 0c 3b 11 3e 08 bc
       -0.0060713156 -0.009622557 0.0021466233 -0.008315579
000060 36 f2 b7 3b 0f 76 61 bb a9 59 16 bc 2d f1 40 3c
       0.0056135906 -0.0034402644 -0.00917665 0.011776251
000070 aa 14 d7 b7 a4 45 93 ba 61 51 0b bc 9e d3 01 3c
       -2.563962e-05 -0.0011235964 -0.008503289 0.007923989
000080 45 34 d2 bb b6 6d 78 bc 93 0d c5 3b 2e b3 77 3b
       -0.0064149224 -0.015162876 0.006013581 0.0037796008
000090 92 2c bc bb 10 9a 14 3c 01 b1 15 bb 49 2d fd bb
       -0.005742618 0.0090699345 -0.0022841098 -0.0077263457
0000a0 a4 45 66 3c cf f2 20 3c fc 8b f9 bb 7b 3a 45 3b
       0.01405469 0.009823515 -0.0076155644 0.0030094672
0000b0 2a 35 a4 3b ea 4b 25 bb a3 b5 98 3b ac f5 72 3b
       0.0050112205 -0.002522225 0.0046603247 0.0037072701
0000c0 34 da e5 bb a8 6a e4 3c 98 9d 44 3c 6a da aa 3a
       -0.007014537 0.027882889 0.012000464 0.0013035063
0000d0 cd de 0a bc 00 bb 17 3b d7 53 82 bb 32 a9 bd 3b
       -0.008475971 0.0023152232 -0.0039772796 0.005787992
0000e0 43 31 9c 3c 83 79 3f 39 3d 73 b5 ba 52 44 7e 3a
       0.019066459 0.00018260446 -0.0013843548 0.00096995116
0000f0 97 5c 7e bb ac 50 af 3b d6 b5 e5 bb eb b9 c5 bb
       -0.0038812512 0.005350193 -0.007010202 -0.006034126
