mappo/results/MyEnv/Intersection_MAPPO/mappo/check/run2/models/actor.pt (torch, 104785 bytes, 25 tensors)

base.feature_norm.weight f4 [104]
00000000: e5b1 7e3f 7955 843f 35e9 813f 2b9f 803f
00000010: cabc 793f 7b54 813f 936a 6a3f fbff 723f
00000020: 716b 6c3f 858d 743f 5a17 6c3f 97fb 723f
00000030: 1c38 7c3f 0739 803f 1ddc 743f 8b0f 6a3f
00000040: e0f6 7d3f 0803 803f 28b3 893f 09df 873f
00000050: 9b52 913f a03a 923f 8cc9 8f3f 3aed 8d3f
00000060: fa63 923f 5d87 883f 2e29 883f e2eb 753f
00000070: 759a 753f c248 783f 37cb ad3f 7f7e 993f
00000080: 4803 a23f 4d0f 963f 1dc3 7d3f 433e 7d3f
00000090: e9dd 7e3f 1a9d 813f 675d 553f f699 5c3f
000000a0: da80 7a3f 9ef7 723f 3dc3 863f 31ef 6d3f
000000b0: c5fe 773f 623e 853f 3de8 7e3f 757f 7f3f
000000c0: d998 8a3f 26d2 903f eefb 823f 3a27 793f
000000d0: eb56 883f e1ec 843f e3d8 963f 150c 843f
000000e0: f0e6 7b3f d568 723f 6d6e 833f d4b4 8d3f
000000f0: d193 993f 9be0 a93f 216d 513f d55d 6d3f
00000100: 4095 803f 252b 633f cdb7 3c3f de29 5f3f
00000110: bb68 7a3f 9d8c 573f a299 433f c1d0 4d3f
00000120: fa59 6a3f fa5d 503f 6f78 893f e7fe 863f
00000130: a240 8c3f 4f56 893f a273 743f 2a04 713f
00000140: 8f33 743f 6e3b 653f f6c4 6d3f 6ae9 7d3f
00000150: 1b6c 633f 44ec 683f 738e 6f3f 979d 653f
00000160: 1987 4e3f ef21 673f 7e53 6a3f fcfb 653f
00000170: 86ac 713f 82df 7d3f 7e96 743f 6316 7c3f
00000180: 7d1e 743f 9705 693f 8de2 783f bf25 763f
00000190: 427f 7b3f ca7f 833f b302 873f 1582 843f
0.99490196 1.0338584 1.0149294 1.0048574 0.97553694 1.0103906 0.9156887 0.94921845
0.9235144 0.9552844 0.9222313 0.94915146 0.98523116 1.0017403 0.95648366 0.91429967
0.99204826 1.0000925 1.0757799 1.061494 1.1353334 1.1424141 1.1233382 1.1088021
1.143676 1.066631 1.0637567 0.96063054 0.9593881 0.9698602 1.3577641 1.1991729
1.2657251 1.172342 0.99125844 0.9892313 0.9955736 1.0126069 0.83345646 0.86172426
0.9785286 0.94909084 1.0528332 0.929431 0.9687312 1.0409663 0.9957312 0.9980386
1.0827895 1.1314132 1.0233133 0.9732548 1.0651525 1.038479 1.1784939 1.0316187
0.9839926 0.9469121 1.0268074 1.1070809 1.1998235 1.3271669 0.8180714 0.927213
1.0045547 0.8873771 0.7371796 0.8717326 0.97816056 0.84198934 0.764063 0.8039666
0.91543543 0.81393397 1.0739878 1.054654 1.0957224 1.0729464 0.9548894 0.9414698
0.9539117 0.8954381 0.92878664 0.99184287 0.8883683 0.9098551 0.93576735 0.8969359
0.8067489 0.90286154 0.9153365 0.8983762 0.94403875 0.9916917 0.9554213 0.9847166
0.9535902 0.91024154 0.9722069 0.96151346 0.98241055 1.0273373 1.0547699 1.0352198

base.feature_norm.bias f4 [104]
00000000: a513 fe3c e9ae 92bb 0f72 d43c 0672 77bc
00000010: c764 083d b141 873c c4d0 8abc 4604 9d3b
00000020: 0a1e 64b9 53d0 bbbb 8094 1f3d 992f 233d
00000030: 0a89 ba3c 5fb0 14bc eb65 1d3d 7296 203d
00000040: 3832 11bc 96d5 9bbb b52f 943c a063 ad3c
00000050: 69d3 6bbc 3923 543b 23f3 77bb 3c92 8b3b
00000060: 9b59 e33b 6891 723b 5646 133a a799 223d
00000070: 5ddc b73c f502 8b3c af56 3a3b c13b 423b
00000080: 7e22 9539 0ebc 53bb 8433 08bc b6e3 fa3b
00000090: 2e8e 643c 718f d33a d108 803c c2ee adba
000000a0: c2ef ffba f47f a93c a486 163c f709 e33b
000000b0: 0217 8eb9 f241 00bb 1321 2c3b 6179 0e3d
000000c0: fdae 0c3c b423 e5bb 8c6c a23c 9fa9 6a3c
000000d0: 7e50 8a3c dab8 c1bb c265 393c f192 a33c
000000e0: b9e2 78bb 8149 abbc 9a6d 4b3b ee69 aabc
000000f0: a620 c93c cf17 89bc 396d 9f3c fe94 e13c
00000100: dca1 8e3b d963 c1bc 1850 52bb 73a8 543c
00000110: aed9 b43c f180 943c b9ab a0bc d214 e9bb
00000120: 91be 3d3d 303d 2bbc 383f 573c ec72 2dbc
00000130: 8f4c 02bb 6b1a 2cbc 8b67 9bbc 4f00 d0bc
00000140: 604f a2bc ea44 9ebc 375e 0abd e8ae 41bc
00000150: 8582 19bd 0227 3138 72d0 90bc ac18 ffbc
00000160: 6826 92b9 8591 be3c 1b18 25bd fa95 76bd
00000170: 60ff 9cbc 1ecc 9aba 68e7 cbbc 980c 8f3c
00000180: 7240 27bc 0950 6fbd a883 a23b b628 18bc
00000190: 49fb a0bb 531d de3c 982e 4c3a 1243 ba3b
0.031015227 -0.0044764173 0.025933294 -0.015102869 0.033299234 0.016510816 -0.01694525 0.004791769
-0.00021754965 -0.0057316213 0.03895998 0.039840315 0.022770423 -0.009075253 0.038427275 0.039205976
-0.008862071 -0.004755686 0.018089155 0.021165669 -0.014393666 0.0032369627 -0.003783413 0.004259376
0.006938172 0.0037012938 0.0005618086 0.039697316 0.022443945 0.016969183 0.0028433015 0.0029637667
0.00028445193 -0.0032308134 -0.0083130635 0.00765654 0.013949914 0.0016140771 0.015629204 -0.0013270008
-0.001952641 0.020690896 0.009187374 0.006928678 -0.00027101493 -0.0019570556 0.002626483 0.034783725
0.008586642 -0.0069927815 0.01982715 0.014322667 0.016884085 -0.0059119286 0.011315765 0.019967528
-0.0037976934 -0.020909073 0.003104067 -0.020802464 0.0245517 -0.016734986 0.019461261 0.027536865
0.0043527912 -0.023607181 -0.0032091197 0.012979615 0.022076454 0.01812789 -0.019613134 -0.0071130777
0.046324316 -0.0104516 0.013137631 -0.010586482 -0.0019882058 -0.010504345 -0.018970272 -0.025390772
-0.01981324 -0.01931997 -0.033781257 -0.011821486 -0.03747799 4.2236417e-05 -0.01767752 -0.031139694
-0.00027875905 0.023262748 -0.040306192 -0.060201623 -0.019164741 -0.0011810099 -0.024890617 0.01746206
-0.010208236 -0.058425937 0.0049595423 -0.00928705 -0.004912768 0.027113592 0.00077889254 0.005684265

base.mlp.fc1.0.weight f4 [64, 104]
00000000: 7039 da3d e7df 7ebe 43ab 10bd 3ef4 ed3c
00000010: 7275 91bc d49b d3bd a539 773d dfcd ef3d
00000020: 3b85 34be b8b7 8e3e 03e9 63bd 84a2 66bd
00000030: d07d 8dbd c67a 943d 8229 723e 1256 33be
00000040: 32d4 a23d 93bb c3bd 2623 c4bd f78c 203e
00000050: 7a90 bb3d e810 b93c 691c 293e 4aa5 1dbe
00000060: f4f4 f23e 017a fbbc 6149 d4be e9a8 febd
00000070: e1d3 48be afd4 333e c635 3ebd 6612 4ebe
00000080: 4702 79be 6001 9bbe 9444 e93e f6ae 973d
00000090: 0e0f 053d ae31 2d3e 4668 45be 310f 393c
000000a0: d1d0 973d 13e6 86be 8dfa ac3d df10 63be
000000b0: 7a2c a1be e879 453d b7e0 b1bd bbd9 aebd
000000c0: 6671 9d3d 3f7d dfbd 4476 363c 3397 933e
000000d0: ba76 a53d d608 f4bd b573 41be 76e9 c83c
000000e0: b392 00bf 2783 7abe c0e8 663e bf20 e1bd
000000f0: d30e 653e 7e5f 10bc ecd7 20be bbfa 07be
00000100: 1515 b53c 3092 47bd 4d47 103d b10c 313e
00000110: d07c 87bd 7f18 89bd c687 f53d f1f0 023d
00000120: 207a 2e3e 6253 953e 1202 7d3d ac8f 193e
00000130: 3e09 2fbe 994b ffbd a53a b93d f4fa 183e
00000140: 3c12 eebd aeb2 14be da6b 56bd 1586 84be
00000150: aa07 813e 0acb e53d 9edc 23be 5b01 f9bb
00000160: b2de e5bd 844f 26be 2d57 043e fa32 afbc
00000170: 65bd fcbd 1af2 c5bd 5aa7 cbbb 7f09 05be
00000180: 7fc4 2a3e 7fdc 4f3d 621c 2b3e 905f a8bd
00000190: 6246 7ebe 2e52 3abd d534 983d 2a4a 5f3d
000001a0: 91d1 d2bc e7e6 703d 7d95 be3d cbe9 28be
000001b0: 202e e9b7 d7d8 d53d 556c 31be 1b11 02be
000001c0: cf07 b9be c922 063e 61a5 513e e653 8fbe
000001d0: 3220 0ebe 2909 1a3e 2f1d b0bc 0666 d4bd
000001e0: 578b 1cbe 857d 403e d0a9 b03c b842 2c3d
000001f0: 6479 1dbf 10e4 bbbd a605 5fbd d45b 223e
00000200: f7a1 ab3e 4c84 75be 59d6 b1ba 4a43 a7be
00000210: e2cc 183d c694 853e 4f99 babd 8e1b d1bc
00000220: 1bd9 cc3d ce1e bc3e c2fc d2bd 0828 8abe
00000230: bfeb 233c 1722 ca3d 94e9 dd3d 5b1f 9cbe
00000240: ec9c 2f3d b1af 91bd 5dc9 04bd 29ef 0a3e
00000250: baa8 7a3e b663 c0bd 2d45 033d 0b55 a3bd
00000260: c178 553e fd21 0c3d 508f a5bc ee7a e4bd
00000270: 622e 113e f903 05bd ef9b bfbd 14a7 043e
00000280: 8c4f 30bd d4f6 8ebe 9e5e fd3d 17c6 50bd
00000290: b864 773c 6a4d 0bbd 2275 303c 3334 abbc
000002a0: b27c 5bbd 8fc3 113e 3cae 94be 6321 d53c
000002b0: 3b2e fdbd 6dd7 b8bd 82b2 913d b422 57be
000002c0: 31ec 6f3e c5f3 32be 201d 51be 3d18 223e
000002d0: aef4 e3bc 3c90 473e 95aa 2a3d 1210 d43d
000002e0: 8bad 813e 3337 11be 31e9 b73b f4fd 033e
000002f0: d4a7 343e 1147 e9bd 26bc d23d e8d3 a8be
00000300: 6518 73be 7a1f bebc 0e39 313e 8e5c 67be
00000310: f241 1dbe 471f 3c3b 9637 63be 9b07 023e
00000320: 4148 b73d 8b04 6d3d cb44 e33b b0df 91be
00000330: b079 1abe efef f9bd f961 c33d bcc9 30bd
00000340: 3fbc a8bb 86c7 1e3e f019 b03e 70a6 51bd
00000350: d2db d63d fad7 a33d 96b1 7b3e c2b9 85be
00000360: 2b4e 993d b73e 0fbe 76be 933e c7f1 21be
00000370: fcfd 943e 6719 193e 3911 84bb a12a bc3e
00000380: daba 133e aac6 1c3e ed2b b13e 8842 a33d
00000390: 6b16 0dbd 4f75 8e3d 3184 463e dcaf 0dbe
000003a0: a518 70be 40a9 a33d 7304 bfbd b90e 8bbd
000003b0: 6d93 00be 6560 0bbe 221f 05bd af9b 8fbd
000003c0: 0b79 6c3d a8b9 d9bd ee0d e3bd 5366 81be
000003d0: a4fa 1dbe 245d 723b f8bf 4d3c ac34 89be
000003e0: ecb4 373d 0466 8dbe 2186 033d c596 6a3d
000003f0: 07cf d5bd 155f cfbd ff04 24be bdf8 9ebe
0.106554866 -0.248901 -0.035319578 0.029047128 -0.017756198 -0.10332456 0.06035771 0.11709189
-0.17628948 0.2787454 -0.05564214 -0.05630733 -0.069087625 0.0724998 0.23648646 -0.17513302
0.07950629 -0.09557261 -0.095770165 0.15678774 0.09158416 0.02259107 0.16514744 -0.15395084
0.4745251 -0.030697824 -0.41462234 -0.12434561 -0.19612075 0.17561601 -0.046438 -0.20124206
-0.24317275 -0.30274487 0.45560133 0.07406418 0.03248506 0.16913483 -0.19278058 0.011295126
0.074128754 -0.26347408 0.08446226 -0.22174405 -0.31479245 0.048211962 -0.08685439 -0.085376225
0.07687645 -0.10912561 0.011136595 0.28826293 0.08079286 -0.11915748 -0.18891795 0.024525385
-0.50223845 -0.24464093 0.22549725 -0.10992574 0.22368936 -0.00881183 -0.15707368 -0.1327924
0.02210478 -0.0487234 0.035224248 0.17289998 -0.06615603 -0.066941254 0.11988787 0.03196806
0.17038774 0.2916518 0.061769553 0.14996213 -0.1709337 -0.12465591 0.09044389 0.14939481
-0.11624572 -0.14521286 -0.05234895 -0.25883546 0.2520116 0.11220367 -0.16002128 -0.0075990385
-0.112241164 -0.1624127 0.1292388 -0.021386612 -0.12340812 -0.09665318 -0.006215018 -0.12991904
0.1667652 0.05074739 0.16710046 -0.08221352 -0.24831536 -0.04548853 0.07431952 0.054514088
-0.025734695 0.058813956 0.093058564 -0.16495435 -2.7797243e-05 0.104417495 -0.17326482 -0.12701838
-0.3613877 0.13099207 0.20473243 -0.27993697 -0.13879469 0.15042557 -0.02149829 -0.10371022
-0.15287529 0.18797882 0.021565348 0.042055815 -0.6151335 -0.09174359 -0.054448746 0.15855342
0.33522007 -0.23976249 -0.0013567909 -0.32668525 0.037304766 0.26090068 -0.091112725 -0.025525834
0.10002347 0.36742252 -0.10302116 -0.26983666 0.010004937 0.09869783 0.10835567 -0.30492672
0.04287426 -0.071135886 -0.032418597 0.13567795 0.24478427 -0.09394018 0.032048393 -0.07975205
0.20846845 0.0342121 -0.020209938 -0.111562595 0.1417785 -0.03247449 -0.09355914 0.1295436
-0.04304461 -0.2792269 0.123715624 -0.050970163 0.015099697 -0.034009375 0.010770114 -0.020898914
-0.053585716 0.14234756 -0.2903918 0.026016897 -0.123623334 -0.09025464 0.07114126 -0.21009332
0.23429944 -0.17475803 -0.20421267 0.15829559 -0.027826633 0.19488615 0.041666586 0.10354628
0.25327715 -0.14181213 0.0056125154 0.12889844 0.17642146 -0.11390508 0.10289793 -0.32974172
-0.23739775 -0.023208369 0.17306921 -0.225939 -0.15357187 0.0028705166 -0.22189173 0.12698214
0.08949328 0.05786566 0.006935691 -0.28490973 -0.15085483 -0.12203967 0.09540171 -0.04316114
-0.005149394 0.155058 0.3439479 -0.051184118 0.10491146 0.08000179 0.24579462 -0.26118284
0.074856125 -0.13988768 0.28856248 -0.15814887 0.29100025 0.14951096 -0.0040303734 0.36751273
0.14426747 0.1531016 0.34603825 0.07971674 -0.034445208 0.069559686 0.19386365 -0.13836616
-0.23446901 0.07991266 -0.093270205 -0.067899175 -0.12556238 -0.1361099 -0.032500394 -0.07012116
0.057732623 -0.10631114 -0.11086641 -0.2527338 -0.15427643 0.0036981786 0.012557976 -0.26797998
0.044850275 -0.27616894 0.032110337 0.05727269 -0.10439878 -0.10125557 -0.16017531 -0.31049147

base.mlp.fc1.0.bias f4 [64]
00000000: 348e 07bd 3679 bc3b 27ee 09bc 22b7 91bc
00000010: 725c 8a3b ece0 92bc c47f 39bc 5bee a1ba
00000020: 3ea6 42bd 18f4 333c 5433 a2bb bfc9 c33b
00000030: 15b0 af3c c00b acba 83d4 83bc 58f0 56bc
00000040: 47f6 8ebb 884f cb3b 08ba 803c 23ff 113c
00000050: 08ed c1ba 2185 56bc 613e 9a3c ebda 10bc
00000060: cc6b 6b3c 73b5 86bc 0684 14bc ccd8 df3b
00000070: df2f d23c 168b 96bc 2a50 7ebb cc82 1bbb
00000080: 6921 8cbb 4dfe b33c 7d05 1ebd 0051 1b3c
00000090: 676a 153d 7639 1e3c c267 17bc c7a3 2c3c
000000a0: 3464 dfb9 9008 15bc abba 15bd e685 0ebb
000000b0: 296e 91bb d0b2 323d dfcb b1bc f1b0 c0bc
000000c0: b758 2a3d 28b3 07bc f939 59bd c22b 81bd
000000d0: 81f5 b23b 8d58 86bc 5136 ccbc b343 393c
000000e0: 904d 4e3c 08aa b83b 4b8c 8fbc 999a 5cbb
000000f0: a70c 80ba b93f 793c 65ba 303c 37e6 84bc
-0.0330946 0.005751754 -0.008418596 -0.01778752 0.004222446 -0.017929517 -0.011321966 -0.0012354361
-0.047521822 0.010983489 -0.0049499664 0.0059749777 0.021446267 -0.001312606 -0.016092544 -0.013118826
-0.0043628546 0.006204549 0.015713707 0.008910927 -0.0014795372 -0.013093264 0.018828573 -0.008841257
0.0143689625 -0.016443944 -0.00906468 0.006831264 0.025657592 -0.018376868 -0.0038805106 -0.0023729084
-0.0042764437 0.021971846 -0.038579453 0.009479761 0.036478426 0.009657254 -0.009241046 0.010537094
-0.00042608532 -0.00909628 -0.036554974 -0.002174729 -0.004438181 0.04362756 -0.021703659 -0.023521872
0.04158851 -0.00828246 -0.053033803 -0.06307174 0.0054613953 -0.016399646 -0.024928244 0.011307645
0.0125917345 0.0056355037 -0.017522952 -0.0033661483 -0.0009769396 0.015212947 0.010786627 -0.016223056

base.mlp.fc1.2.weight f4 [64]
00000000: 3f5b 7d3f c6fd 713f 43a6 7f3f 67eb 603f
00000010: 913d 823f db37 893f 0d6d 6f3f fc33 803f
00000020: d339 703f 794b 743f dcbe 863f 56a9 793f
00000030: 39f5 8a3f ddb3 763f 336a 7c3f c9a4 783f
00000040: fd59 893f f16e 863f 319f 813f 7a26 823f
00000050: fe4a 763f cb4e 7b3f 7997 853f 8691 843f
00000060: d661 7f3f e4a8 6e3f 8303 813f c8d4 7e3f
00000070: 6e3e 853f 4053 893f fb60 823f bf6c 873f
00000080: 27ad 883f af09 793f bcf9 7b3f 096c 8a3f
00000090: 9f73 823f 061b 843f 7b35 813f af4e 833f
000000a0: 13df 813f dbf1 823f a2fa 803f 6dfd 823f
000000b0: a1ea 8a3f 1de0 703f 8353 743f 5003 893f
000000c0: bfc5 753f 7bac 813f 51dd 833f 58dd 763f
000000d0: a8bd 823f 4a07 813f 93bb 763f e3bf 823f
000000e0: cd40 8c3f 28ec 8c3f 9c4e 803f 9d93 8a3f
000000f0: 1eeb 803f 2870 823f f901 723f 0066 893f
0.98967355 0.9452785 0.9986307 0.87859195 1.0175039 1.0720171 0.93525773 1.0015864
0.9383823 0.9542766 1.0526996 0.9752401 1.0856086 0.963682 0.9859955 0.9712644
1.0730587 1.0502607 1.0126706 1.0167992 0.9620818 0.98167104 1.0436851 1.035691
0.9975866 0.93226457 1.0079197 0.9954343 1.0409677 1.0728531 1.0185846 1.0580062
1.0677842 0.972804 0.9842794 1.081422 1.0191535 1.0320747 1.0094446 1.0258387
1.0146202 1.0230058 1.0076487 1.023359 1.0852853 0.9409197 0.9543993 1.0704136
0.9600486 1.0130762 1.0301915 0.96431494 1.0214128 1.008035 0.96379966 1.0214809
1.0957276 1.1009569 1.002399 1.0826298 1.0071752 1.0190477 0.9453426 1.0734253

base.mlp.fc1.2.bias f4 [64]
00000000: e05d 63bd 3ccc 5b3c b842 0ab9 47c8 45bb
00000010: fba0 1bbc 10bd e8bc b2cd 133d e341 68ba
00000020: a524 cabb 9d31 5b3c 2c09 69bc e50f 163d
00000030: d5bf 4bbc 6eda 72bb c707 50bc 26c3 76bc
00000040: 9516 acbc 8c52 f73c 56f3 503c 87f3 313b
00000050: 72d3 49bc 30f7 5bbb 2841 58bc 55ef bcbb
00000060: fc17 0c3c 6b99 3abd 6d74 fd3b 3485 c9bc
00000070: d3ce b4bc 9764 c5bb 154e d2bb 13f0 9bbc
00000080: 6fff 9d3c 80f2 6dbc b7d9 c3bc d845 b43c
00000090: e45d a73c fec5 1ebd d3b4 5c3a 2291 0dbc
000000a0: fcb6 323c 8c6e 153c c340 0ebc d088 163c
000000b0: b2bf cab9 4585 203c ff7d 53bd c736 e23b
000000c0: 628c 32bd f784 063b c4ef cabb 88af 32bc
000000d0: 3a48 013c ba09 d4bc 6c68 8e3c 3f43 2abb
000000e0: bfe5 1abd 71c4 523b 82f9 f93c 9646 afbc
000000f0: f040 c83c c637 023c d108 353c 67c8 debb
-0.055509448 0.0134153925 -0.0001318556 -0.003017919 -0.00949883 -0.028410465 0.03608484 -0.00088599155
-0.006168919 0.013378528 -0.014223378 0.036636252 -0.012435873 -0.0037056464 -0.012697167 -0.015061175
-0.021006862 0.030190729 0.012753328 0.002715321 -0.012318479 -0.0033564083 -0.013199128 -0.0057658353
0.00855064 -0.045556467 0.0077348263 -0.024599649 -0.022071278 -0.006023954 -0.0064179995 -0.019035375
0.01928684 -0.014523149 -0.023907525 0.02200596 0.020430513 -0.03876304 0.0008419279 -0.008640559
0.010907885 0.009120595 -0.008682433 0.009187892 -0.00038671267 0.009797399 -0.05163383 0.0069035026
-0.04359091 0.002052603 -0.006193133 -0.010906108 0.007890755 -0.025883544 0.017383777 -0.0025980023
-0.03781676 0.0032160545 0.030514482 -0.021395963 0.024445027 0.007947868 0.011049465 -0.006798792

base.mlp.fc_h.0.weight f4 [64, 64]
00000000: f553 203d 8281 1c3d f68f 01bd fa5e 1c3d
00000010: 5a1b c7bd cb87 c13e f7f2 a2bd 5927 dfbe
00000020: 31c3 a73d 589d fabd 29ae ebbe 023c f3bd
00000030: a996 8b3d 0e0b 7f3e 16c2 cd3d 858b 80bd
00000040: 55fb 8d3e a5ce 483e d8c9 8abe 26cb 79be
00000050: c4fc 99be 40a5 743e abbc a73d 3664 fc3d
00000060: 0253 b53c d1e9 3d3e 1cbe 41be 5002 7ebe
00000070: 0eca a53e 5796 a93e b4aa 49be bea8 303e
00000080: 578f 01be dcd7 8d3d f339 573e d990 4bbe
00000090: 80af bc3d e196 bbbd 9240 4c3e 8ddd 863d
000000a0: 76c3 da3d b9af 9abe 8c22 413e d8a1 153e
000000b0: 6d9a babe f139 a0be 8114 83be 129f 08bd
000000c0: 069b 8d3e 1507 703a 0c54 c8be 6acc 28be
000000d0: 5a57 48be f323 003e 9269 9bbc ec8d 6e3d
000000e0: bcc6 143e 5207 90be 5005 883c 705e 0b3e
000000f0: c9e6 913e f862 363b b2f9 b33e 6e99 1abd
00000100: 3bb6 703e 6ad7 163d dece 8ebe 1f10 023e
00000110: 6a49 09bd 0cc8 42be 83c5 41be ec27 713e
00000120: 148d c03d 3827 b7bd 3d15 50bd da66 4e3e
00000130: 2575 323e cbf0 df3e 0555 463e c740 393e
00000140: 07a2 77be 949a d43d e35d 143e 6946 643d
00000150: 185c 97bd c099 8b3e eead be3c b657 443d
00000160: 0e27 883e 2501 38bd 2d16 9ebe 87f3 d53c
00000170: b8cc ce3d 8578 cf3c 7ebc 1d3c 3834 d0bc
00000180: 5233 183e 468d 8e3e 2e4b 11bd 033d abbe
00000190: 7f51 86be aaf2 003f 9576 983d 0759 36bd
000001a0: 282a 373e 7acc 15be ed65 593e fcf2 c2be
000001b0: 14fb 3a3e ce17 933e 0c65 003e bd8f 783e
000001c0: 2bc7 65be da20 543e c587 513e 32d6 89be
000001d0: d952 3f3e bce3 c8bd ac65 37be fbc6 473e
000001e0: eab6 843e 6c8e bf3c 324f e3bd 7638 e2bd
000001f0: 1b3d 103e 4f56 823e d795 d13e 3237 c43e
00000200: 7665 e83d 8d12 5d3e e0b2 69bd d548 fb3d
00000210: 190a da3d 0c1b e23d e986 0b3e 88b8 013f
00000220: 8124 a8bd 37d1 acbe 8685 48be a192 bebe
00000230: 4763 e63d a42c bd3d b6c4 a83d 56f2 6b3b
00000240: 61f4 6dbd 83b4 b9bd 7b22 29bd 6276 7cbe
00000250: 2240 78bc 8ab1 4dbe 9af0 9ebc d4bb 2c3d
00000260: 89d8 233f 0c7d 873e 0a6c 31be d486 6f3e
00000270: 57a6 023e 39ea 91be 8650 f23d a940 943c
00000280: 10bf 32be a1c9 d1bc 184b 413e c405 a93e
00000290: 33d0 363e 5f19 5dbe ee53 adbe 1152 0c3e
000002a0: bc25 523e b393 033d 9a06 d73d 72c9 a5be
000002b0: bd30 e5bd bfc5 803d fb9d fd3d 797b c8be
000002c0: ffce 68bc 48ec 70be 011f 21be f1af 1abe
000002d0: 9658 143e e0ee 373c 0790 edbd d9e4 8f3c
000002e0: a404 3bbd 05f9 9abd 8f0c 4e3d 0e1b 113d
000002f0: 4d0a 99be 403c 06bf 2bac 353e c064 963d
00000300: bb6b 363e e59b e2bc d262 a5bd 5586 7ebe
00000310: ffe0 ca3c ac68 5ebd c3bf 7c3e 9732 39bd
00000320: f06c 19bd e6cc 19be 2b5d 5cbe 0cf0 353e
00000330: b633 3abe ad18 8abe ec8c 773e 2857 413e
00000340: e6ea 2bbe 021f f7bd 5866 92be 5935 d83c
00000350: cb80 7ebe 5e48 2fbd 4e3a ae3e 811d 8fbd
00000360: 2336 db3d f0f1 b03c 8686 5fbe 8dc8 22be
00000370: a1de 44bd 641e a23e cecb 33be 840b 37bf
00000380: 17f7 94be a38d c03e e6de 323d ecef 0c3d
00000390: e4ec f13c 0f3d 593e 28f1 47be 1088 f8b9
000003a0: a4c5 203e 51f3 ca3d 3064 f03d ddd0 203e
000003b0: d9b0 96bd 612c 4cbe a9a9 75bc 6246 703e
000003c0: 8a89 61bc 7602 71be a04e de3e a442 9c3e
000003d0: a100 66be 1c4b 8c3e 7437 a0be 34cb 91bc
000003e0: 4ace 0e3e f464 683d 51cc ab3d 51c3 e33d
000003f0: fa15 84be cb6d eebd 0f43 95be d7af fa3d
0.039142568 0.038209446 -0.031631432 0.038176514 -0.09722014 0.37798914 -0.07956498 -0.43584707
0.08191527 -0.12237042 -0.4603131 -0.1187668 0.068158455 0.24906561 0.100467846 -0.06276611
0.27730814 0.19610079 -0.2710712 -0.24393901 -0.30075657 0.23891163 0.081902824 0.12323801
0.022134308 0.18546225 -0.18920177 -0.2480557 0.32380718 0.33122513 -0.19694024 0.1725187
-0.12652336 0.069259375 0.210182 -0.19879474 0.092131615 -0.09159637 0.19946507 0.06585226
0.106818125 -0.3021219 0.18860835 0.1461252 -0.36445943 -0.31294206 -0.2560158 -0.033354826
0.27657336 0.0009156329 -0.39126623 -0.16484228 -0.19564572 0.12513714 -0.018971238 0.058240816
0.14528936 -0.28130585 0.016604096 0.13610244 0.28496388 0.0027829986 0.3515144 -0.03774398
0.23507015 0.03682653 -0.27892202 0.12701462 -0.03351728 -0.19021624 -0.18923001 0.23550385
0.094019085 -0.08943027 -0.050801504 0.20156422 0.174275 0.43738398 0.1936837 0.18091117
-0.24182902 0.10381046 0.1448894 0.05573121 -0.07390612 0.2726574 0.023276296 0.04793521
0.26592296 -0.044922967 -0.30876294 0.0261171 0.10097641 0.025326023 0.00962746 -0.025415525
0.14863327 0.27842158 -0.035472088 -0.33444986 -0.26234052 0.50370276 0.07444493 -0.044518497
0.17887175 -0.14628783 0.21230288 -0.38076007 0.18259841 0.287291 0.12538546 0.24273582
-0.22439258 0.20715657 0.20461948 -0.2692123 0.18683948 -0.09809062 -0.17909878 0.19509499
0.25920802 0.023383342 -0.1109909 -0.11045925 0.1408581 0.25456473 0.4093463 0.3832336
0.11347477 0.21589108 -0.057055354 0.12269751 0.10646457 0.11040315 0.13625683 0.506722
-0.082100876 -0.33753368 -0.19582185 -0.37221244 0.112494044 0.0923703 0.08240645 0.0036002598
-0.058094386 -0.09067633 -0.04129265 -0.24654534 -0.015152009 -0.20087257 -0.019401837 0.042171314
0.6400228 0.2646259 -0.1732637 0.23391277 0.12758766 -0.2849901 0.11831765 0.018097239
-0.17455697 -0.02560884 0.18876302 0.3301221 0.17852859 -0.2159171 -0.33853096 0.13703181
0.20522207 0.03212328 0.10499306 -0.32380253 -0.11190937 0.06287717 0.12383648 -0.39156702
-0.014209508 -0.23527634 -0.15734483 -0.15106179 0.14486918 0.011226386 -0.11599737 0.017565178
-0.045658723 -0.07567028 0.050304946 0.035426192 -0.2989067 -0.52435684 0.17741458 0.07343435
0.17814533 -0.027662227 -0.08075489 -0.24855931 0.02476549 -0.05429904 0.24682526 -0.04521426
-0.037457407 -0.15019569 -0.21519916 0.17767352 -0.18183789 -0.2697195 0.24174851 0.18880904
-0.16788825 -0.12066461 -0.28593707 0.026392626 -0.24853818 -0.042793624 0.34028858 -0.06988049
0.10703685 0.02159974 -0.2182866 -0.15896817 -0.048063878 0.3166381 -0.17558214 -0.71501946
-0.29094765 0.3760806 0.043669604 0.034408495 0.029531904 0.21214698 -0.19525588 -0.0004740362
0.15700394 0.0990969 0.11737859 0.15704675 -0.0735795 -0.19938804 -0.014994063 0.23464349
-0.013765702 -0.23536095 0.4341936 0.30519593 -0.22461177 0.27401054 -0.31292307 -0.01779709
0.1394588 0.0567369 0.0838858 0.11121238 -0.25798017 -0.11642035 -0.29152724 0.1224057

base.mlp.fc_h.0.bias f4 [64]
00000000: 0000 0000 0000 0000 0000 0000 0000 0000
00000010: 0000 0000 0000 0000 0000 0000 0000 0000
00000020: 0000 0000 0000 0000 0000 0000 0000 0000
00000030: 0000 0000 0000 0000 0000 0000 0000 0000
00000040: 0000 0000 0000 0000 0000 0000 0000 0000
00000050: 0000 0000 0000 0000 0000 0000 0000 0000
00000060: 0000 0000 0000 0000 0000 0000 0000 0000
00000070: 0000 0000 0000 0000 0000 0000 0000 0000
00000080: 0000 0000 0000 0000 0000 0000 0000 0000
00000090: 0000 0000 0000 0000 0000 0000 0000 0000
000000a0: 0000 0000 0000 0000 0000 0000 0000 0000
000000b0: 0000 0000 0000 0000 0000 0000 0000 0000
000000c0: 0000 0000 0000 0000 0000 0000 0000 0000
000000d0: 0000 0000 0000 0000 0000 0000 0000 0000
000000e0: 0000 0000 0000 0000 0000 0000 0000 0000
000000f0: 0000 0000 0000 0000 0000 0000 0000 0000
0.0 0.0 0.0 0.0 0.0 0.0 0.0 0.0
0.0 0.0 0.0 0.0 0.0 0.0 0.0 0.0
0.0 0.0 0.0 0.0 0.0 0.0 0.0 0.0
0.0 0.0 0.0 0.0 0.0 0.0 0.0 0.0
0.0 0.0 0.0 0.0 0.0 0.0 0.0 0.0
0.0 0.0 0.0 0.0 0.0 0.0 0.0 0.0
0.0 0.0 0.0 0.0 0.0 0.0 0.0 0.0
0.0 0.0 0.0 0.0 0.0 0.0 0.0 0.0

base.mlp.fc_h.2.weight f4 [64]
00000000: 0000 803f 0000 803f 0000 803f 0000 803f
00000010: 0000 803f 0000 803f 0000 803f 0000 803f
00000020: 0000 803f 0000 803f 0000 803f 0000 803f
00000030: 0000 803f 0000 803f 0000 803f 0000 803f
00000040: 0000 803f 0000 803f 0000 803f 0000 803f
00000050: 0000 803f 0000 803f 0000 803f 0000 803f
00000060: 0000 803f 0000 803f 0000 803f 0000 803f
00000070: 0000 803f 0000 803f 0000 803f 0000 803f
00000080: 0000 803f 0000 803f 0000 803f 0000 803f
00000090: 0000 803f 0000 803f 0000 803f 0000 803f
000000a0: 0000 803f 0000 803f 0000 803f 0000 803f
000000b0: 0000 803f 0000 803f 0000 803f 0000 803f
000000c0: 0000 803f 0000 803f 0000 803f 0000 803f
000000d0: 0000 803f 0000 803f 0000 803f 0000 803f
000000e0: 0000 803f 0000 803f 0000 803f 0000 803f
000000f0: 0000 803f 0000 803f 0000 803f 0000 803f
1.0 1.0 1.0 1.0 1.0 1.0 1.0 1.0
1.0 1.0 1.0 1.0 1.0 1.0 1.0 1.0
1.0 1.0 1.0 1.0 1.0 1.0 1.0 1.0
1.0 1.0 1.0 1.0 1.0 1.0 1.0 1.0
1.0 1.0 1.0 1.0 1.0 1.0 1.0 1.0
1.0 1.0 1.0 1.0 1.0 1.0 1.0 1.0
1.0 1.0 1.0 1.0 1.0 1.0 1.0 1.0
1.0 1.0 1.0 1.0 1.0 1.0 1.0 1.0

base.mlp.fc_h.2.bias f4 [64]
00000000: 0000 0000 0000 0000 0000 0000 0000 0000
00000010: 0000 0000 0000 0000 0000 0000 0000 0000
00000020: 0000 0000 0000 0000 0000 0000 0000 0000
00000030: 0000 0000 0000 0000 0000 0000 0000 0000
00000040: 0000 0000 0000 0000 0000 0000 0000 0000
00000050: 0000 0000 0000 0000 0000 0000 0000 0000
00000060: 0000 0000 0000 0000 0000 0000 0000 0000
00000070: 0000 0000 0000 0000 0000 0000 0000 0000
00000080: 0000 0000 0000 0000 0000 0000 0000 0000
00000090: 0000 0000 0000 0000 0000 0000 0000 0000
000000a0: 0000 0000 0000 0000 0000 0000 0000 0000
000000b0: 0000 0000 0000 0000 0000 0000 0000 0000
000000c0: 0000 0000 0000 0000 0000 0000 0000 0000
000000d0: 0000 0000 0000 0000 0000 0000 0000 0000
000000e0: 0000 0000 0000 0000 0000 0000 0000 0000
000000f0: 0000 0000 0000 0000 0000 0000 0000 0000
0.0 0.0 0.0 0.0 0.0 0.0 0.0 0.0
0.0 0.0 0.0 0.0 0.0 0.0 0.0 0.0
0.0 0.0 0.0 0.0 0.0 0.0 0.0 0.0
0.0 0.0 0.0 0.0 0.0 0.0 0.0 0.0
0.0 0.0 0.0 0.0 0.0 0.0 0.0 0.0
0.0 0.0 0.0 0.0 0.0 0.0 0.0 0.0
0.0 0.0 0.0 0.0 0.0 0.0 0.0 0.0
0.0 0.0 0.0 0.0 0.0 0.0 0.0 0.0

base.mlp.fc2.0.0.weight f4 [64, 64]
00000000: d85d 04bd ee72 4f3d 3905 06bd d612 973b
00000010: eb43 0ebe 6295 ea3e d874 953a 7f08 c5be
00000020: 9e9d 6f3d a5e3 23be fc67 d4be d42e bfbd
00000030: 6209 3dbc f1b1 4e3e 6bdc fe3c 6546 28ba
00000040: 509d 943e f5ee 523e b08d 9cbe 087b 87be
00000050: 5889 37be 2eec 813e 22af ae3d 6351 393e
00000060: a316 e83d 8d1d 2d3e 8bde 0fbe f8ac 94be
00000070: 77af bb3e 7297 ad3e 7dc3 66be c463 213e
00000080: 4638 acbd 34f9 dc3c fa39 093e 7eb5 20be
00000090: 2e9c 963d 9e2b 30bd c329 653e cfda 363d
000000a0: 777e e83d ca01 9ebe dbf7 293e c60c 493e
000000b0: 847e c7be 1091 71be 9da3 6ebe 1b10 8d3c
000000c0: 0735 803e 0815 3e3d bb0c e5be 017d 63be
000000d0: 3946 39be 0a4f a33d 0506 b7bd b6ad 39bc
000000e0: 73d8 153e 115a 9cbe 7a2b 3e3d af38 063e
000000f0: 2a38 973e 6ac9 02bc bc86 c73e 0881 3dbc
00000100: b60a 803e 58e2 cc3d 9424 74be 1a1c 173e
00000110: 20dc 16bd 785c 53be d916 73be 0afe b53e
00000120: 098e b33d 65b6 72bc fa1c f13b 4fb0 273e
00000130: 117e 733e 27be e33e ca53 4a3e 6d83 253e
00000140: f6c8 8cbe 504d 053e 1443 5e3e a2e1 533d
00000150: be1f dabc 3758 8d3e dc93 a33c efec ee3c
00000160: 799b 653e 5826 cbbc b501 b7be e280 d13b
00000170: 9828 b83d 59fa 103d 91ca a53b c1d6 4c3d
00000180: 033c fa3d 53b6 8e3e 8f6b b73d 2442 d1be
00000190: 46e0 8ebe 0a1d f83e c9a0 553d cb53 40be
000001a0: 4f47 513e 2387 22be 9ebb 503e e7e1 dbbe
000001b0: bc65 4c3e 0005 8a3e f035 a13d c501 493e
000001c0: 3101 76be 0973 553e aa56 653e d847 62be
000001d0: f81e 343e bdf7 c7bd f301 01be a813 6f3e
000001e0: ad6e 783e 6f7a 863d 4c97 16be 67c8 1fbe
000001f0: 7f9d 053e d636 983e 0cdb ac3e 10cf a93e
00000200: e5a3 513d 8b66 3c3e ef04 25be 56b2 e63d
00000210: 7d1b 993d 9cd5 303e 18e3 5d3e 1762 ed3e
00000220: fe58 1ebe 0280 83be e65c 0bbe eefe afbe
00000230: 5fbb 9d3d 90c0 f23d 4298 493d 263b b4bd
00000240: 6f19 a5bd 72fa 2abe 73bc e1bc 4004 80be
00000250: 0cd2 cabd 438a 64be 6952 c7bb cc1e 3e3d
00000260: 98a6 2e3f 166c 923e 39ee 35be 9319 833e
00000270: 5d09 bd3d 5e62 03bf 058a c83d 50dd aebd
00000280: bb7c 1abe 2d68 a8bc 0c43 4e3e e1a2 b03e
00000290: dcc1 533e bad5 ecbd 3118 a8be 58ce 4e3e
000002a0: 6ab9 1e3e 5630 653d 77f1 db3d 271b 1cbe
000002b0: 9e63 32be 0a47 43bc a57e 193e fcc8 cbbe
000002c0: 1404 0ebb da8b 6fbe 149a cfbd 4bdf e1bd
000002d0: 45a8 493e e4b8 cb3d 9009 e7bd 6ed0 293e
000002e0: 8da3 933d 5e2f 48be f5de 5c3d e37d 053e
000002f0: d7e5 a1be a77a 27bf a416 8b3e 096f 9a3c
00000300: 8ffc eb3d 3bc5 55bd e782 52bd e4c8 4fbe
00000310: 87bc 033e 93f0 27be fc81 6d3e cdc1 81bd
00000320: 4ec6 313d 28a8 1dbe f7e4 a0bd cfec 6c3e
00000330: 7e96 07be 2484 90be 7644 393e f449 3c3e
00000340: e908 66be b452 b1bd 54c5 7abe a7f6 cdba
00000350: 0ad2 8cbe 410f 33bd 4d3b be3e 6d01 1fbe
00000360: 4e14 2a3e 9491 d0bc 2bca 0abe 1f5b 50be
00000370: 6d2a dbba 2639 843e 4fff 62be 7a8d 52bf
00000380: 313a 71be 2bd0 b63e 7533 74bb b774 5f3c
00000390: 16d8 293c b3b5 7f3e 63c3 32be fe56 99bd
000003a0: 9d02 953d 859a 3a3e 5fcd f73d b974 633e
000003b0: 51b2 67bd b994 57be bde2 b5bc 41a8 5f3e
000003c0: 5ec4 21bd a536 8dbe 2cac c43e c08e 8f3e
000003d0: 7656 82be fcc8 5f3e 8b56 b7be bb55 0c3d
000003e0: 0db2 e33d 2c61 c03d f7ff a73d 83ef 363e
000003f0: 7be5 47be ccd7 06be 4fc7 88be ef71 753e
-0.03231606 0.050646715 -0.032719824 0.0046103997 -0.13893096 0.45817095 0.001140262 -0.38483045
0.058499925 -0.16004808 -0.41485584 -0.09335104 -0.011537882 0.20185067 0.031110963 -0.0006419181
0.2902627 0.20598967 -0.3057685 -0.26461053 -0.17923486 0.25375503 0.08529498 0.18097453
0.113324426 0.16905804 -0.14049737 -0.29038215 0.36657307 0.33904606 -0.2253551 0.15760714
-0.08409171 0.026974298 0.13401023 -0.15694234 0.07354008 -0.043010347 0.22379212 0.044642266
0.11352246 -0.3086074 0.16598456 0.19633779 -0.3896371 -0.23590493 -0.23304601 0.017219594
0.25040457 0.046406776 -0.44736275 -0.22215654 -0.18093194 0.0797406 -0.08936695 -0.01133292
0.1463335 -0.30537465 0.04642818 0.1310756 0.29535037 -0.007982591 0.38969982 -0.011566408
0.25008172 0.10004109 -0.23842078 0.14756814 -0.03683102 -0.20640743 -0.23739184 0.3554538
0.087673254 -0.014813994 0.0073581906 0.1637585 0.2377856 0.44481012 0.19758525 0.16163416
-0.2749707 0.13017774 0.21705276 0.051728852 -0.026626464 0.27606365 0.019967966 0.029165713
0.2242259 -0.024798557 -0.3574349 0.006393538 0.08992118 0.035395 0.005059548 0.050009493
0.122184776 0.27873477 0.08956062 -0.40870774 -0.27905482 0.48459655 0.05215529 -0.18781964
0.20437358 -0.15871863 0.2038407 -0.42945787 0.19960684 0.2695694 0.07871616 0.19629581
-0.24023892 0.20844664 0.22396341 -0.22097719 0.17589939 -0.09764049 -0.125984 0.23347342
0.2426097 0.06566321 -0.14706153 -0.15603791 0.13048361 0.29729337 0.3376087 0.3316579
0.051181693 0.18398492 -0.16115163 0.11264484 0.07475946 0.17268986 0.2166866 0.463639
-0.15463635 -0.256836 -0.13609657 -0.34374183 0.07701754 0.11853135 0.04921747 -0.08800344
-0.08061492 -0.166971 -0.02755568 -0.25003242 -0.099033445 -0.22318368 -0.006082822 0.04641609
0.6822295 0.28598088 -0.17766656 0.2560545 0.092303015 -0.5132197 0.0979195 -0.08538306
-0.15086643 -0.020557487 0.20142764 0.34499267 0.2067942 -0.115642026 -0.32830957 0.20195901
0.15500417 0.0559543 0.10739415 -0.15244733 -0.17420813 -0.0119187925 0.14989717 -0.39801776
-0.0021669911 -0.23393193 -0.1013681 -0.11028918 0.19693096 0.099473745 -0.11281121 0.16583416
0.07208929 -0.19549319 0.053923566 0.13036303 -0.31620666 -0.6542153 0.2716571 0.018851774
0.11522781 -0.052190047 -0.05139437 -0.20291477 0.12864886 -0.16400366 0.23194116 -0.06335793
0.04340201 -0.15396178 -0.078561716 0.2313721 -0.13241002 -0.28225815 0.18092522 0.18387586
-0.22464336 -0.086583525 -0.24489337 -0.0015713767 -0.27503997 -0.04371572 0.37154618 -0.15527888
0.16609308 -0.025460042 -0.13553683 -0.2034726 -0.0016721018 0.2582485 -0.22167705 -0.82247126
-0.23557355 0.35705695 -0.0037262116 0.013638667 0.01036646 0.24971657 -0.17457347 -0.074872956
0.07275889 0.18223007 0.12099718 0.22212495 -0.05656654 -0.21052827 -0.022202844 0.21841528
-0.03949391 -0.27580753 0.38412607 0.28038597 -0.2545659 0.21854013 -0.35808215 0.034261446
0.11117945 0.09393534 0.08203118 0.17864804 -0.19521134 -0.13168257 -0.2671456 0.23969243

base.mlp.fc2.0.0.bias f4 [64]
00000000: 45b6 68bc 4fc7 89bc 1791 8fbb 6d12 09bd
00000010: 631f df3d 636b dd3b a50c b6bc cb69 17bc
00000020: c5b4 003b eec9 073c 51d8 9b3c 28c1 20bd
00000030: 2c71 553d 6e67 e1bc 15af 5f3b 3331 bcb8
00000040: 27cd 7e3c 3b19 8cbb 6fe6 1d3d bf6d 90bb
00000050: 6846 52bd 5bf7 b3b9 b274 ec3b 96eb 683c
00000060: 89e2 afba ff3c ce3c 8474 f23c 3b50 b5bc
00000070: dc39 ccbc 1fad 5c39 6a2a c2b9 a00b c03c
00000080: d70e cf3c ca4b 0ebc 70a3 253b 8269 bb3c
00000090: da4c cebc c188 93bc 4f1d 6ebc c163 17bd
000000a0: 8627 543d fbf3 313d 5c72 85ba 5a78 d23b
000000b0: 5f49 b7bc bb72 55bd 41d6 e8bc 852a 7f3d
000000c0: 21fe 873c f3ef 01bd e8aa 833c 9ae6 f13b
000000d0: 0a22 783c b042 90bb b2a6 9a3a 1a7e bdbc
000000e0: a265 b33b 64f2 12bd c9b4 d93b 46ac c83a
000000f0: 1fe4 5cbc 45bc 1abd dd7e 903c f399 053c
-0.014203613 -0.01681867 -0.0043813097 -0.033464838 0.108946584 0.0067571863 -0.022222826 -0.009241532
0.0019638997 0.00828789 0.019024046 -0.03924671 0.052109882 -0.02751514 0.0034131457 -8.973703e-05
0.015551842 -0.0042754686 0.038549837 -0.004407614 -0.051336676 -0.00034325835 0.0072160596 0.014216324
-0.0013418953 0.02517557 0.029596575 -0.022132983 -0.024929933 0.00021045328 -0.00037034164 0.023443043
0.02527563 -0.008685062 0.0025274418 0.022877458 -0.02518313 -0.018009545 -0.014533355 -0.036960367
0.051795505 0.04344557 -0.0010181176 0.0064230384 -0.022373853 -0.05211137 -0.028422477 0.06229641
0.01660067 -0.031722974 0.016072705 0.007382226 0.015144834 -0.004402481 0.0011798947 -0.023131419
0.005474762 -0.035875693 0.0066438657 0.001531013 -0.013482123 -0.037777204 0.017638618 0.00815438

base.mlp.fc2.0.2.weight f4 [64]
00000000: b64f 863f 8e0c 793f 0f9d 813f 20bf 843f
00000010: 5e12 833f b5bd 863f 2e5a 873f b4e6 773f
00000020: 5124 7c3f 847f 863f 1d1f 8f3f 0c4a 593f
00000030: e658 6f3f aaed 803f 7aa5 8b3f dc79 7d3f
00000040: 188f 823f 4352 893f b2b1 833f 55e5 803f
00000050: ab4e 6b3f c628 823f 05fc 803f 6700 873f
00000060: 681a 7a3f d4b7 6e3f 65a5 6e3f 5ef2 803f
00000070: 8845 833f 7bca 743f 4b87 883f 78a1 8b3f
00000080: 728e 883f 21e6 7c3f 4a2a 753f 8377 7a3f
00000090: bd70 873f 3148 643f 4370 833f 5e80 733f
000000a0: af1d 8a3f be03 7a3f 8a10 7c3f 24b0 723f
000000b0: 6632 843f 2a62 833f 4c02 853f 9a17 803f
000000c0: 0ecd 873f 42ad 853f d88a 6a3f c42a 713f
000000d0: a21f 743f f008 7c3f b052 8b3f 7335 803f
000000e0: 4b97 783f eba2 7f3f 5054 8f3f 0e16 8f3f
000000f0: ab92 8c3f f1f9 733f 6183 843f a9a3 793f
1.0493076 0.9728478 1.0126055 1.0370827 1.023998 1.0526644 1.0574396 0.968364
0.98492914 1.0507665 1.118137 0.8487861 0.93495023 1.0072529 1.0909874 0.9901407
1.0199919 1.0728229 1.0288603 1.0069987 0.9191691 1.0168693 1.007691 1.0546998
0.9769654 0.9324925 0.9322112 1.0073965 1.0255594 0.9562146 1.0666288 1.0908651
1.0668471 0.9878865 0.95767653 0.9783861 1.058128 0.89172655 1.0268635 0.9511775
1.0790309 0.9766196 0.98462737 0.9480002 1.032788 1.0264332 1.0391326 1.0007203
1.0609453 1.0443499 0.9161811 0.9420588 0.9536077 0.9845114 1.0884609 1.0016311
0.97105855 0.9985797 1.1197605 1.1178606 1.098226 0.95303255 1.0352594 0.9751535

base.mlp.fc2.0.2.bias f4 [64]
00000000: d482 e3bb 6722 f53b 63e8 bbba 384b d33c
00000010: 32f2 033d 1dd9 023c 9743 053c 11b1 613d
00000020: d8d8 d4bc 63d6 3c3c bf37 153d 75de d73d
00000030: 986b 07bb 0984 1abc f2b6 d83b f365 b1bb
00000040: 5e56 f93c b634 f4bc a828 293d 7df7 89bc
00000050: 5420 95bd 44c9 aebc 4217 4bbd 1eba ee3c
00000060: 6e46 a4ba fdf4 1abd 91d9 9ebd 0ecb e83c
00000070: d04b 08bc 0ba2 3ebb 78d0 7f3c e595 3cbb
00000080: c8cd cabc 5d63 143b 9896 81bc 0911 08bc
00000090: 5e9c 70bc 884f 69bd 4a84 11bd 8af2 94bc
000000a0: 3080 943c 45af fdbb 43ff e83b 5f90 15bc
000000b0: 4589 1fbc 0a46 aabb c6b8 aa3b d67f 123d
000000c0: 7e5a b83c a013 0ebc dcc6 a63c 0e1c 2b3d
000000d0: 9abc d9bc e6c0 683b 89e0 923c ea99 1fbb
000000e0: 13f2 0fba 541c 60bc 2784 543d 7b23 593b
000000f0: c7c1 e1bb c513 553d f309 3bbc 38bf 11bc
-0.006943086 0.0074809077 -0.0014336224 0.025792703 0.032213397 0.007986334 0.00813379 0.055100504
-0.025982305 0.011525723 0.036430117 0.10540477 -0.0020663496 -0.009430894 0.0066136057 -0.0054137646
0.03043669 -0.02981029 0.04129854 -0.016841644 -0.07281557 -0.021336205 -0.049582727 0.029141482
-0.0012533197 -0.037831295 -0.07756341 0.028417137 -0.008318856 -0.0029088284 0.015613668 -0.0028775868
-0.024756327 0.0022642233 -0.015818879 -0.008304843 -0.014685718 -0.056960613 -0.03552655 -0.018182058
0.01812753 -0.007741841 0.0071105077 -0.009128659 -0.009737317 -0.0051963376 0.005210015 0.035766445
0.022504088 -0.008671671 0.020358495 0.041774802 -0.02657919 0.0035515367 0.017929332 -0.0024353215
-0.0005491089 -0.013678629 0.051883843 0.003313272 -0.006889555 0.052020807 -0.011415946 -0.008895688

base.mlp.fc2.1.0.weight f4 [64, 64]
00000000: 0025 0e3c d494 7c3d 20ea 253c afd7 cf3d
00000010: a48b c0bd 681b 8f3e 4e01 bdbd 68fb bfbe
00000020: fe47 563e 8533 0abe 8246 e6be 5e71 a8bd
00000030: eba8 423d 10bc 813e f8bd c13d b581 24be
00000040: 5112 693e 5830 7c3e 431a 9bbe 9f83 95be
00000050: d6c5 8cbe a2e9 7d3e 60ac 683d c083 5f3d
00000060: aaa3 c03d 099b 2c3e 2313 3bbe 3dce 14be
00000070: 8add c53e db08 913e 1609 97be d76d ee3d
00000080: bfbf e6bd 3602 ab3d 5399 813e dd1e 70be
00000090: b108 163e f1bc 5abd 3757 5a3e 2c26 e63d
000000a0: ea76 fa3d 6a95 a2be f7ef 5f3e f8e9 9e3e
000000b0: 7119 dcbe 8788 b5be c72a b7be d003 fbbc
000000c0: a7fe 683e e586 98bd 11e6 acbe cce3 15be
000000d0: ba5d 78be f407 fc3d 9160 1fbd d14a 323d
000000e0: bdaf e13d 6a5c 63be 2097 bc3d 426d bc3d
000000f0: 95e1 7f3e 225f 113d ad93 c03e 219f 9abd
00000100: f36a 673e d2c4 653c 745a b4be 09be da3d
00000110: 940c b3bd 9fac 80be f3df 70be 3478 8b3e
00000120: bbe4 893d 2c67 1abe 5c0e 1cbd d2d5 8a3e
00000130: 79b2 b43d b90a b23e bce1 023e b1a2 3c3e
00000140: e343 c6bd c7c7 1b3e e34d 3b3e 7e30 ae3d
00000150: 11b1 86bd 74e9 8b3e 1a11 91bd 7273 f33d
00000160: bd4e 923e 46c4 a1bd 5868 c5be de13 6e3d
00000170: 1b18 2c3e cf78 ad3b 8334 9fbd 9b7a df3c
00000180: 5f3e 113e 83ad c93e 54de 2ebd 6483 a2be
00000190: f661 8fbe 4103 ec3e ebfc 0cbb d62b 8b3c
000001a0: 3166 813e 5d2c 1fbe 652d 893e 88d3 a1be
000001b0: 18e4 163e 0c2c 6a3e c2f6 d73d 4adc 3f3e
000001c0: db02 6fbe cd49 213e 0e98 433e 7279 98be
000001d0: 587c f73d 4671 c2bd 53b4 20be 29a7 8a3e
000001e0: 514b 6f3e b825 b33d f42c 00be f92b f5bc
000001f0: 98a7 1b3e 8e96 a53e ffa4 c23e 612e c53e
00000200: de0f fe3c 2192 633e d83d 3fb9 037e bf3d
00000210: 82b6 ce3d 5e89 993d 4cf3 303e 4aa9 0c3f
00000220: 14b1 c4bd 6c93 aabe fb80 7ebe dbd8 b7be
00000230: 5f43 e23d 1b28 923d ba04 2d3e a9f5 d33c
00000240: 32ca 0138 e1b7 bdbd 1be3 98bd 801f 5fbe
00000250: dda7 8dbd ecec 02be f4c2 46bc 0f89 a13c
00000260: 04c3 333f 50b5 7f3e a1f7 43be dede 983e
00000270: cbbe 183e 713a 84be 20f5 b53d b5a9 ee3c
00000280: 3d9d 1dbe c041 9dbc e066 8f3d b1d3 9c3e
00000290: 15f7 2c3e 71ab 6ebe 3bff acbe 2989 1a3e
000002a0: 3560 863e f159 7e3d 0b8d 9e3d 9ccc abbe
000002b0: 513b 56bd 8bed 5a3d df7b ec3d 3389 ccbe
000002c0: 0e0b c6bd 723d 76be c567 2dbe 0815 30be
000002d0: 04ab 003e 520b 1e3d cfc2 bfbd 681f d23d
000002e0: 6188 48bd 8ef1 9cbd 5049 9bb9 4bd7 583d
000002f0: 44e6 aabe 4d12 05bf e1ff 053e d70a 05bc
00000300: eaf5 023e df1a 85bd ac0b cdbb 4090 4dbe
00000310: 804b b43c b42d acbd 3a67 883e fce2 0ebe
00000320: a9b6 c43d 29e7 05be 9928 89be 9373 043e
00000330: dbd1 21be 53c2 8cbe 416f 8e3e 46c7 433e
00000340: d540 9cbe 7d9f 14be f98f 91be 42bb ce3c
00000350: c8c4 7cbe 0eca e6bd 278b c43e 39e1 0fbe
00000360: 47e0 233e 5655 623b f208 32be 4a31 f1bd
00000370: f996 03bc 97e7 a93e c7d5 21be 8c88 37bf
00000380: 7493 aabe de72 ab3e d51e 853d d8e6 263d
00000390: 6469 673d 297d 473e 84be 30be bf8e 063c
000003a0: 0fde f63d 1c86 e73d a35a c93d 55fb 283e
000003b0: 0ab7 dfbd 606b babd bb5c c73a 7e67 823e
000003c0: 2d3a 28bd f419 6ebe 4675 fb3e a55d 883e
000003d0: 453f 42be b135 7c3e a962 b5be 93b6 41bd
000003e0: 2975 543e 6cb7 0d3d 7393 c13d 6379 853d
000003f0: b894 7dbe d356 fdbd 1466 cbbe 7852 153e
0.008675814 0.06166537 0.0101266205 0.1014856 -0.09401634 0.27950597 -0.092287645 -0.37496495
0.209259 -0.13496216 -0.44975668 -0.08224748 0.047524374 0.25338793 0.09460062 -0.16065104
0.22760893 0.24627817 -0.30293474 -0.2920198 -0.27494687 0.24796155 0.056805015 0.054569006
0.094062164 0.16856016 -0.18269019 -0.14531799 0.38645583 0.2832707 -0.2949912 0.11642044
-0.112670414 0.08350031 0.2531229 -0.23449273 0.14651753 -0.053402845 0.21322332 0.112377495
0.12229712 -0.3175462 0.21868883 0.3103788 -0.4298816 -0.35455725 -0.35774824 -0.030641466
0.22753392 -0.07447604 -0.33769277 -0.14637679 -0.24254504 0.123062044 -0.038910452 0.04352838
0.110198475 -0.22203222 0.09208512 0.09200527 0.24988396 0.035491116 0.37612668 -0.07549883
0.22599392 0.014023976 -0.3522526 0.106807776 -0.087426335 -0.251317 -0.2352293 0.27240145
0.0673308 -0.1507842 -0.03809963 0.27116257 0.088231035 0.34773806 0.12781423 0.18421437
-0.09680917 0.15212928 0.1829143 0.08505343 -0.065767415 0.27326548 -0.0708334 0.11887254
0.28575698 -0.07898764 -0.3855617 0.058124416 0.1680607 0.0052939425 -0.07773688 0.027280143
0.14183949 0.3939019 -0.042692497 -0.31740868 -0.28004426 0.46096233 -0.0021513056 0.016988676
0.25273278 -0.15544267 0.26792446 -0.31606698 0.14735448 0.22868365 0.10545112 0.18736377
-0.23340933 0.15750809 0.19100973 -0.29780155 0.120842636 -0.094942614 -0.15693788 0.27080658
0.23368575 0.08747429 -0.12517148 -0.029928194 0.1520065 0.32341427 0.38016507 0.38511947
0.031013425 0.22223713 -0.00018238218 0.09350207 0.10093404 0.07496904 0.1728031 0.54945815
-0.096040875 -0.333156 -0.2485389 -0.35907635 0.11048006 0.07136556 0.16896334 0.025873976
3.0944306e-05 -0.09263588 -0.07465192 -0.2178936 -0.06916783 -0.12785691 -0.012131441 0.019718675
0.70219445 0.24971509 -0.19137432 0.29857534 0.14916532 -0.25825837 0.088846445 0.029133657
-0.15392013 -0.019196391 0.07002044 0.30630258 0.1689113 -0.23307587 -0.33788475 0.15091385
0.26245275 0.062097494 0.077417456 -0.33554542 -0.052302662 0.053449195 0.11547064 -0.39948425
-0.09670077 -0.24046877 -0.16934116 -0.17195523 0.12565237 0.038585015 -0.09363329 0.102598965
-0.048958186 -0.076632604 -0.00029618526 0.052939694 -0.33378804 -0.5198105 0.13085891 -0.00812026
0.12789121 -0.06499266 -0.006257495 -0.20074558 0.022008657 -0.08407155 0.26641256 -0.13953775
0.09605152 -0.13076462 -0.26788786 0.12934713 -0.1580271 -0.27492008 0.27819255 0.19118986
-0.30518213 -0.14513965 -0.28430155 0.025235776 -0.24684441 -0.112690076 0.38387415 -0.1405076
0.16003524 0.0034535727 -0.17386225 -0.11776979 -0.0080316 0.33184502 -0.15804206 -0.7169273
-0.33315623 0.33486074 0.06500021 0.040747494 0.056496993 0.19481339 -0.17260176 0.008212744
0.12054073 0.11304876 0.09831741 0.16502126 -0.10923584 -0.091025114 0.0015210131 0.25469583
-0.041071106 -0.23252088 0.4911291 0.26633945 -0.18969448 0.24629857 -0.35426834 -0.047293257
0.20747818 0.034598753 0.09451952 0.06517293 -0.24763763 -0.12370076 -0.39726317 0.1458224

base.mlp.fc2.1.0.bias f4 [64]
00000000: 91e9 cfbc a88c 77bd 013f 883b 99be 953c
00000010: ea79 963c aa53 db38 3ee1 14bd 1d75 273d
00000020: cbc4 d03b ca15 933d 6eec 29bd 09c8 b9bc
00000030: 7e3b 9cba 352f 7d3c ba1a e63c b231 9cbc
00000040: 5a01 80bc 6268 cdba 0340 e73b 5d80 9fbb
00000050: a0f4 7a3c 09d4 003d 62cf 653c d6a4 f53c
00000060: 9e7c 1a3d efdb 91bc d7a2 063c f74f 453d
00000070: d66e d2bc 55e3 6f3d 7076 2e3d f6c9 8f3b
00000080: 33c0 50bd c2e1 253c 501e 263d 5259 0d3d
00000090: 9c64 31bc 215b e33c a482 f83b 8f0f 9f3d
000000a0: 0ecd 4abc 6086 9bbc 4d60 cc3c a943 e2bc
000000b0: b5b2 18bd 03d3 3d3d c048 b63b 08d2 2ab9
000000c0: 04e9 663d d992 803a 28ca b6bb 27b2 0cbc
000000d0: a3ca 5e3c a2ef 51bd be7b dbb6 ccbc 09bd
000000e0: 40c8 053d 3600 b8bb f6d9 683c 00a7 bb3a
000000f0: fca7 c83c 13a0 f0bc 66c7 fd3c 1297 2d3a
-0.025379928 -0.060436875 0.0041579013 0.01827936 0.01836868 0.000104583174 -0.03634762 0.040883172
0.006371116 0.0718189 -0.041485243 -0.022678392 -0.0011919586 0.01545315 0.028088916 -0.019066665
-0.015625644 -0.0015671367 0.0070571913 -0.004867597 0.015317112 0.031452212 0.014026495 0.029985826
0.0377165 -0.017805068 0.008217535 0.048171964 -0.025687616 0.05856641 0.04259342 0.0043880893
-0.050964545 0.010124626 0.040556252 0.03450901 -0.01082721 0.027753415 0.007583933 0.077666394
-0.01237799 -0.018984973 0.024948264 -0.027620154 -0.037279803 0.046343815 0.0055628717 -0.00016290706
0.056374565 0.0009809389 -0.005578298 -0.008587397 0.013598117 -0.051253922 -6.541114e-06 -0.033627316
0.032661676 -0.0056152595 0.014212122 0.0014316738 0.024494164 -0.029373204 0.03097887 0.00066219375

base.mlp.fc2.1.2.weight f4 [64]
00000000: 1cb9 793f 7218 803f de34 843f 8d91 7f3f
00000010: dd2e 7f3f 0af7 913f bfa4 7f3f 82a4 713f
00000020: 4e40 783f 49b3 6b3f 2760 873f 1ffc 843f
00000030: d4e8 863f 39e6 7c3f afc0 853f d615 703f
00000040: 20ac 843f 28ae 733f 02fe 803f 1218 8a3f
00000050: 53af 883f 763a 733f acf6 803f ea8d 913f
00000060: 09b2 823f c9d2 6e3f 8ee2 833f 4371 8d3f
00000070: b060 823f 1b9c 823f c2f0 7a3f 37e6 8d3f
00000080: ec35 803f 91a7 7e3f 9255 863f 5f7c 733f
00000090: 5c88 883f 57bf 8c3f bede 6d3f d38a 5f3f
000000a0: 3f3c 703f a345 6e3f 2073 803f 500c 863f
000000b0: 4641 773f 0cbd 813f 2d65 7b3f 4baa 7b3f
000000c0: db04 873f b587 7b3f 857f 743f 1c8a 843f
000000d0: 1d6c 8c3f 71ff 773f 5284 5e3f c329 973f
000000e0: b6bd 773f d1e2 6b3f d261 713f d4a2 893f
000000f0: 6b15 8f3f e400 833f 2f59 853f 3b02 6a3f
0.9754808 1.000746 1.0328634 0.9983147 0.9968088 1.1403515 0.9986076 0.94391644
0.9697312 0.9207044 1.0576218 1.0389441 1.0539804 0.9878879 1.0449427 0.9378332
1.0365028 0.95187616 1.0077517 1.0788596 1.0678505 0.9501108 1.0075278 1.1371434
1.0210582 0.9329038 1.0303514 1.105019 1.0185757 1.020389 0.9802362 1.1085881
1.0016456 0.99474436 1.0494864 0.9511165 1.0666614 1.0995892 0.92918 0.87321204
0.9384193 0.9307501 1.0035133 1.0472507 0.96583974 1.0135818 0.98201257 0.9830672
1.0548357 0.9825395 0.9550708 1.0354648 1.0970494 0.9687415 0.86920655 1.180962
0.9677385 0.9214297 0.94289887 1.0752816 1.1178411 1.0234647 1.0417842 0.91409653

base.mlp.fc2.1.2.bias f4 [64]
00000000: 83d8 fdbb 5fa0 1fbd 9a7d 18bb 9bdd abbc
00000010: 4cb2 27bc 5672 68bc 588c cc3b b47e 8e3c
00000020: a7ef 573d 2a97 073d fc06 9cbc 8ef5 7dbc
00000030: 2f9f d1bc c77f 20bd e322 a03c 8165 cdbd
00000040: 40c0 f13c 93c3 4dbd bf17 483c 7552 993c
00000050: e604 f13b 5e1a 2bbc c580 a2bb 1c47 d3ba
00000060: 5c6c a33c d126 b9bd e7a0 11bc fddb 49bc
00000070: 4e4b 7ebc 03fb 3b3d a2ca 9ebc a2df 923a
00000080: ca5e 1fbd fe38 71bd 2b63 333d 7fd9 27bc
00000090: 00c1 38b9 c548 973c 1940 97bd d82e e8bb
000000a0: 09af 4fbd 00b8 fcbb 46ed 0fbd ef2f 24bb
000000b0: 20ad 1dbd ac01 e53c e161 d93b 3683 bcbc
000000c0: 1c12 be3c 9ee4 3a3d 2c98 223d f78f 943c
000000d0: 1e1d 703c eaa7 4fbc 97e4 f23d c042 abbc
000000e0: 225b 51bc 7607 8b3d 536f b7bc fd24 78bc
000000f0: 1f43 a8ba 1e8d 00bb 73c0 633d 6ffe 573d
-0.0077467575 -0.0389713 -0.0023268224 -0.020979693 -0.01023538 -0.014187416 0.006242316 0.017394401
0.052718785 0.033103146 -0.0190463 -0.015500439 -0.0255886 -0.039184358 0.019547885 -0.10029126
0.029510617 -0.050235342 0.012212693 0.018716076 0.0073553203 -0.010443298 -0.004959198 -0.0016119215
0.01994913 -0.09040607 -0.00888846 -0.012320516 -0.015520884 0.04589368 -0.019383732 0.0011205564
-0.038908757 -0.058892243 0.043795746 -0.010244726 -0.00017619506 0.018467316 -0.073852725 -0.0070856623
-0.050704036 -0.007712364 -0.03513839 -0.0025052985 -0.038495183 0.027954899 0.0066339825 -0.023011785
0.023201995 0.045628183 0.039695904 0.018135054 0.01465538 -0.012674311 0.11860006 -0.020905852
-0.012778075 0.067885324 -0.02239195 -0.015145537 -0.0012837386 -0.0019615362 0.055603456 0.05273288
