mappo/results/MyEnv/Intersection_MAPPO/rmappo/check/run1/models/actor.pt (torch, 206338 bytes, 31 tensors)

base.feature_norm.weight f4 [104]
00000000: fb02 773f c241 803f 75ba 763f aea9 833f
00000010: fe20 773f dacd 783f 2763 783f f115 7c3f
00000020: be54 5b3f 8ac3 733f ecb2 773f 8a45 7a3f
00000030: 0135 823f dddd 803f 91e3 763f 8ba6 763f
00000040: 11af 7a3f 11ca 7a3f 6316 833f 1034 843f
00000050: 79d6 8c3f 729e 8c3f 5b64 8f3f 7674 843f
00000060: 8216 8f3f 6c01 8a3f d9f8 8a3f 1596 853f
00000070: bc4b 7a3f 0af8 813f 3261 a63f 6ec3 823f
00000080: 7f4c 9b3f e46f a13f bf6d 8a3f 2381 773f
00000090: 49ac 7c3f 9370 7d3f 6d2d 773f fdb8 673f
000000a0: 6a94 623f 788c 803f aeda 7a3f e8da 813f
000000b0: b65c 7c3f fb4f 723f c9b5 843f ec53 6c3f
000000c0: 75fc 8b3f 477e 803f 4801 843f 2113 823f
000000d0: 599d 7c3f 4a09 813f 6fd4 953f c3e9 713f
000000e0: 48bb 7b3f cb04 863f 07a0 723f d3ca 7c3f
000000f0: 0cf4 8e3f c349 6e3f ab4a 3d3f 6878 623f
00000100: 2579 8b3f 448a 713f 1e6b 4a3f 312e 593f
00000110: dbf0 643f 4331 633f 6606 413f 2baf 483f
00000120: 484d 7a3f 6d4d 703f 31f9 883f 127d 773f
00000130: 3d01 7f3f 2980 863f 0c43 853f 55a5 7d3f
00000140: 0b93 763f 87c8 683f 51aa 763f aa78 763f
00000150: cdbf 753f 21b8 763f bcb2 743f 8458 6b3f
00000160: 209a 5a3f 8c9b 5b3f 7835 593f 2d56 6c3f
00000170: be4b 703f d29c 843f c2c9 6f3f 5f2f 7d3f
00000180: 8d1d 773f 7697 7d3f 8015 753f 7522 813f
00000190: 8e99 7d3f 0151 823f e4e8 8b3f 6df5 863f
0.9648892 1.0020068 0.9637826 1.0286157 0.9653472 0.97189105 0.97026294 0.9847098
0.8567618 0.95220244 0.9675739 0.9776236 1.0172426 1.0067707 0.9644099 0.96347874
0.9792338 0.9796458 1.0241207 1.0328388 1.1002952 1.0985854 1.1202501 1.0348041
1.1178744 1.0781684 1.0857192 1.0436426 0.9777181 1.015382 1.2998412 1.021589
1.213272 1.2612271 1.0814742 0.9668142 0.98700386 0.989999 0.9655369 0.90516645
0.8850771 1.0042868 0.9798993 1.014493 0.98578966 0.9465329 1.0367976 0.92315555
1.0936419 1.0038537 1.0312891 1.0162088 0.98677593 1.008096 1.1705455 0.9449732
0.98332644 1.0470213 0.9477543 0.98746985 1.1168227 0.930813 0.7394206 0.88464975
1.0896345 0.943516 0.790697 0.8483611 0.89430016 0.8874704 0.7540039 0.78392285
0.9777417 0.9386814 1.0701047 0.9667522 0.99611264 1.0507861 1.0411086 0.990804
0.9631812 0.9093098 0.9635363 0.9627787 0.9599579 0.9637471 0.95585227 0.9193194
0.85391426 0.8578422 0.8484721 0.92318994 0.93865573 1.0360358 0.93667233 0.9890041
0.96529466 0.99059236 0.9573593 1.008864 0.9906243 1.018097 1.0930448 1.0543648

base.feature_norm.bias f4 [104]
00000000: c281 053d 783a 9d3c 5990 d23c ce45 8ebc
00000010: 9bf2 793c cbe6 c53c a3dc 90bc d87b 3fbc
00000020: 9b4a 3f3b 9264 08ba b204 72bc 8142 ed3b
00000030: 5675 b03c a2a6 b73a e8ca 393d f236 a63b
00000040: 63de 5f3c f85d af3c 6d21 f13c ba81 233c
00000050: fbee 853c 91ca b5bb 230a 5c3b af18 a4bb
00000060: a96b 673a 7464 4e3c f677 bb3c 4e20 12bc
00000070: 2f1b 9a3c 60c4 89ba fc29 a53c 9d28 cd3b
00000080: e992 e9ba f51d 71bc 8e1c 86bb dfce d03c
00000090: 4c2a 023d e2a2 bb3b 2a6f 16bb 9d8e 4fbc
000000a0: 3679 833a d68e d43c 7be0 be3c 73f1 e53b
000000b0: 17d0 5839 114c db3c d3ca f93b e6c2 883a
000000c0: f017 19bd 2250 babb d7d0 a2bb 6259 613c
000000d0: c93a 34bb 7221 a3bc e1a1 6e3a 3e10 fd3b
000000e0: 10ff 02bd f3f8 ee3b 3a13 833b e2a3 cd3c
000000f0: 983a 66bc 58cd 713c 2b6c 44bc af9d e9bc
00000100: 624f ec3b bb2c f73c bd9c 883c 49ba 6b3b
00000110: 8ee8 80bc 7d37 cf3c beea a8bc 569f 3f3d
00000120: a4ff a0ba e294 1c3d 89ae f7bc ba48 b5bc
00000130: 846a dbbc 374f f93c 38c3 3b3c 7f1c acbc
00000140: 3e3b 1abc 2408 b6bc daf0 823c 46e1 a5bc
00000150: 9adc 873c 38df 1fbc ebdf 853c a08b 373c
00000160: 1b61 8bba d004 91bc 3e19 b6bc b9e1 04bd
00000170: 114e 83bc d359 1b3d d206 2dbc 8dee 02bc
00000180: e178 41bc 01d3 48bb 2f10 61bc 9868 493c
00000190: 4e6a abbc 95f7 bbbb 528a e6ba 3045 96bc
0.03259445 0.01919292 0.025703596 -0.01736727 0.015255596 0.024157902 -0.017683333 -0.0116872415
0.0029188755 -0.00052029744 -0.014771627 0.007240594 0.021540325 0.0014011452 0.045359522 0.005072468
0.013663861 0.021407112 0.029434884 0.00997966 0.016349306 -0.0055478294 0.0033575378 -0.0050078253
0.00088279933 0.012597192 0.02288435 -0.008918835 0.01881179 -0.0010510795 0.020161621 0.006260945
-0.0017820272 -0.014716615 -0.0040927595 0.025489269 0.03177862 0.0057262043 -0.0022954443 -0.012668279
0.001003063 0.025947016 0.0233004 0.0070173084 0.00020676885 0.02676967 0.0076230555 0.0010434061
-0.037376344 -0.005685822 -0.0049687433 0.013754221 -0.002750086 -0.019913409 0.00091031013 0.0077228835
-0.031981528 0.0072928607 0.0040000947 0.02510256 -0.014052056 0.01475843 -0.01198868 -0.028517572
0.0072116116 0.030172696 0.016676301 0.003596919 -0.01573589 0.025295014 -0.020619746 0.046782814
-0.0012283218 0.038227923 -0.030234592 -0.022129405 -0.026784189 0.03043328 0.011460118 -0.021009682
-0.0094135385 -0.022220679 0.015983988 -0.02024902 0.016584683 -0.009757809 0.016342124 0.011202723
-0.0010633798 -0.01770249 -0.022228833 -0.03244183 -0.016028436 0.03792746 -0.010560708 -0.007991445
-0.011808605 -0.0030643346 -0.013736769 0.0122930035 -0.020924713 -0.005736301 -0.001758883 -0.018343538

base.mlp.fc1.0.weight f4 [64, 104]
00000000: d94f 063d 33be a9be ad7a bebd eb1b 81bc
00000010: ede1 babd 4605 67be ffaa 553d 2844 9c3e
00000020: 4d63 88bd e536 903e ecf2 05be 84a1 cdbd
00000030: ff03 ecbd 7736 273d 4613 3e3e 8417 8cbe
00000040: cbb7 d83d 454e e7bd dcb1 afbd dbb3 273d
00000050: b629 9fbd 3fe9 b1bd 427b 3a3e 9f22 21be
00000060: 6cb8 003f 0a70 18bc 68fd 99be 3753 d7bd
00000070: a478 87be d345 843d a33c 23bd 8459 bcbd
00000080: d9ac a9bd ea0c a1bc 4b84 1c3f d326 0f3e
00000090: e70e 1cbc e4a9 173e 118e 36be 16d1 cb3d
000000a0: 2a25 d1bb 1b2b b8be 0e3e 9cbd ceb5 b5be
000000b0: 8a35 04bf 19ae f23d 3509 143c 235a 1cbe
000000c0: 052b 8b3e ea19 d4bd f9ee bfbd 7052 9e3e
000000d0: cb56 1f3d fc61 9c3c 8a62 62be 6bdf a9bc
000000e0: 6071 c0be c1d7 4abe bbcd 313e 2d2b 3b3d
000000f0: e0ec 923d 9471 cbbd 6854 cdbc fae2 a8bd
00000100: e854 a8bd c70b 6ebd ec54 f03d 5c3a a53d
00000110: 6e0f 00be b56a 57bd 9204 7a3d 307a 623d
00000120: 53ff 7fbd 9f15 453e 6c6a 0fbd a64e b63d
00000130: bf88 4dbe 9ffe f2bd 33c6 8f3d b52e 513e
00000140: 36d4 33bd 7751 abbd 099a 21bd cfa7 99be
00000150: 03de 6c3e 5cf5 103e 194d 71bd 2e53 fa3d
00000160: 24b4 03be 34c4 ffbd 35cb 183e 0def 2f3d
00000170: fde0 f3bd 7658 33bc c611 bc3d a72b 94bd
00000180: e12c 3e3e 68c1 733d cfff 5a3e 6e55 ddbc
00000190: 0d37 5abe 7b74 33bd a92f 683d 840c a63d
000001a0: 4545 14bc 5790 5e3d 848c 973d 3866 3abe
000001b0: 62c8 d7bc 24cc 963d 2af3 24be 7d43 cebd
000001c0: 77f3 91be 7108 e53d ede7 2a3e 1b96 96be
000001d0: 4300 0fbe bbb6 3a3e 1632 05bb c1ae 80bd
000001e0: 7c99 21be ec46 143e baaf 07bd 575f cfbc
000001f0: 18f1 1dbf d554 75bd c37a 4cbe 3978 073e
00000200: 6693 ed3e 3105 02be 6e38 e93d b7fa 74be
00000210: d6ea bd3c 46bb 8f3e 0a27 a33d 040c 9b3d
00000220: ed40 f13c dd13 e23e 248a dfbd af76 6abe
00000230: 8d4b 8d3c 1784 143d 9f55 683d 6b48 99be
00000240: 98ae 283b 381f 13bd 8b02 b0bd fedd 1c3e
00000250: 5f37 6f3e 802d d5bd 2614 203e e3d9 edbc
00000260: 9ca8 a53d 9a7a 543e aaed e23c 2284 92be
00000270: fa4f aa3d c84e 1ebe ade0 673d b842 f33d
00000280: 2bf3 4bbd 742f a0be 9e72 863d 74a9 bbbd
00000290: 9b72 4fbd eafe 913b ef1f 57bd 4652 db3d
000002a0: 5715 2bbe c99a d73d 39d2 73be f81a df3d
000002b0: 4bee eebd ac0f 863d 3d88 753b d207 31be
000002c0: 1a84 883e ee3c efbd 73df 03be 48dc 733e
000002d0: 33a7 52bd 9044 b73d 1c09 42bd 138d fd3d
000002e0: 4089 6e3e 3650 23be a754 aabd d720 943c
000002f0: 597f a83d deb2 1bbe 78cc b83d c75b 81be
00000300: 0740 b6be 1c9f 30be 7708 073e de99 81be
00000310: 3cd6 f6bd 397c 873c c280 65be 1204 1d3e
00000320: 2b6f 103e ff0f 7f3d c05d 5d3d 3c18 38be
00000330: bfff 0abd 47ff d4bd ce69 143e b99d 3fbd
00000340: 55b8 be3c 6a27 dd3d 8637 8f3e db73 dbbd
00000350: 80b4 fd3c 9ba4 083c 7ee1 4f3e c776 aabe
00000360: acf5 453e 6892 9cbd aa48 8c3e 49e0 2ebe
00000370: db89 823e 7357 563d d76a 8fbd 74ac ae3e
00000380: 4a93 d53d 5bfb 5e3e d6ef f23e 43dc 913d
00000390: f7db 1cbd 7031 213e 2a8a 393e 5cf9 1ebe
000003a0: 9656 74be d5e4 e03d 282c 53bd c840 edbc
000003b0: 778b ccbc 00c4 abbd c200 be3d 0fd9 a6bd
000003c0: e274 c4bd 5c79 9dbe 657a e63d d823 50be
000003d0: f8d6 02be 1fab 01be 8527 1ebd 0370 36be
000003e0: 14ed eebb 7197 adbe 1a55 5a3d a873 813e
000003f0: 6af2 e9bd e716 66be 3631 1cbe a84c 89be
0.032790992 -0.33152923 -0.09300742 -0.015760383 -0.09125123 -0.22560605 0.052165028 0.3052075
-0.06659565 0.2816688 -0.13080949 -0.10040572 -0.115242 0.040823426 0.1856204 -0.2736169
0.10581931 -0.112942256 -0.08578846 0.040943008 -0.077716276 -0.08687066 0.18211082 -0.15735863
0.50281405 -0.009304056 -0.30076146 -0.10513919 -0.2645923 0.064586304 -0.03985275 -0.09196761
-0.08284921 -0.019659478 0.61139363 0.13979654 -0.009525037 0.14810902 -0.17827632 0.09951989
-0.006382604 -0.35970387 -0.076290235 -0.35490268 -0.51644194 0.11849613 0.009035398 -0.1526876
0.2718126 -0.10356505 -0.09371752 0.3092227 0.03890113 0.019089691 -0.22107902 -0.020736417
-0.37586498 -0.19808866 0.17363636 0.045695473 0.071740866 -0.09933773 -0.025064662 -0.08246417
-0.082193196 -0.0581167 0.117349476 0.08067772 -0.12505886 -0.052591998 0.061039515 0.05529231
-0.062499356 0.19246529 -0.0350136 0.0890172 -0.20071696 -0.11864971 0.070202254 0.20427974
-0.043903552 -0.083651476 -0.03945354 -0.3001084 0.23131566 0.14156097 -0.058911417 0.122228965
-0.12861687 -0.12488595 0.14921267 0.042952586 -0.119081475 -0.010946384 0.091830775 -0.072348885
0.18571807 0.05951062 0.21386646 -0.027018275 -0.21310063 -0.043812256 0.056686077 0.08107856
-0.009049718 0.054336872 0.07399848 -0.18203056 -0.026340667 0.073631555 -0.16108385 -0.10071466
-0.2850606 0.11183251 0.16690035 -0.29411396 -0.13964944 0.18233769 -0.0020324043 -0.06283332
-0.15781206 0.1448018 -0.03312657 -0.025314016 -0.61696005 -0.059895355 -0.19968705 0.13229455
0.4640152 -0.12697293 0.11387716 -0.23923765 0.023183268 0.28072566 0.079664305 0.07570651
0.029449904 0.4415578 -0.1091502 -0.22896837 0.01724794 0.036258783 0.05672228 -0.29938063
0.0025738832 -0.035918444 -0.08594235 0.15319058 0.23360966 -0.10409069 0.15632686 -0.02903456
0.080888 0.20749894 0.027701218 -0.28616434 0.083160356 -0.1545974 0.056610752 0.1187796
-0.04979245 -0.31286204 0.0656483 -0.0916318 -0.050646406 0.004455437 -0.05252069 0.10709052
-0.16707359 0.1052757 -0.23810662 0.10893816 -0.116665445 0.06545958 0.0037465238 -0.1728814
0.26663285 -0.11681543 -0.12878208 0.238145 -0.051428985 0.08948624 -0.04737197 0.123804234
0.23294544 -0.15948567 -0.083169274 0.018082066 0.08227415 -0.15204951 0.09023374 -0.25265333
-0.35595724 -0.17248195 0.13186823 -0.25312704 -0.12052581 0.016538726 -0.22412398 0.15333584
0.14104907 0.062271114 0.054044485 -0.17977995 -0.033935305 -0.10400253 0.14493486 -0.046781275
0.023281256 0.10798533 0.2797205 -0.10715457 0.030969858 0.008340026 0.20300862 -0.33293745
0.19331998 -0.07645112 0.27399188 -0.17077745 0.254958 0.05232949 -0.070028 0.34115946
0.10428484 0.21775572 0.47448605 0.0712209 -0.038295712 0.15741515 0.18119112 -0.1552481
-0.23861155 0.10981146 -0.051555783 -0.028961554 -0.024968846 -0.083869934 0.09277488 -0.081468694
-0.09592606 -0.30756652 0.11253814 -0.20326173 -0.12777317 -0.12662934 -0.038611908 -0.17816167
-0.0072914455 -0.33904603 0.053303815 0.2528355 -0.1142319 -0.22469674 -0.15253147 -0.26816297

base.mlp.fc1.0.bias f4 [64]
00000000: 2049 653b 1818 34bc abc4 b8bc ee32 82bc
00000010: b781 403c 166f 1e3d 7a88 813c 5f6b 24bc
00000020: 7fe2 56bb f865 32bc dd48 84bc 89df 513d
00000030: b8b4 be3a 4de9 50bb 0685 8c3d 6ba7 0e3c
00000040: 5653 223c 51b4 69bb 2b83 803c 61db 97bc
00000050: bc80 a6ba 73f3 5abd ca4e 4abd 6d67 d6bb
00000060: 4d14 a83a 9bed 55bc 2005 cf3b bafa 9e3b
00000070: fe5d 0abd a533 3a3b ae0d 6fbc 48c0 80bb
00000080: 0545 b4bc 1456 05bc ae12 1fbc 6243 d63a
00000090: e4bd c23c a9b2 043c c4fb 2d3c 86c9 b7bc
000000a0: 5cbe 053b 21bd f3bc 0898 e9bc 73bb ef3b
000000b0: edb8 b1bc 5854 1b3c 801a df3a 2948 d23b
000000c0: 5eea 85bc ca58 64bc a050 4a3d 0393 de3b
000000d0: 2b0f 3ebb 605e 34bc 20ec f93b 3714 863b
000000e0: c340 643b df7f 0d3c 6d9c 4c3c b7ef 863c
000000f0: eb78 b33c ad8c d23c 08a2 e6bb 4608 263c
0.0034986213 -0.0109920725 -0.022554716 -0.015893426 0.011749676 0.03868016 0.015812147 -0.010035365
-0.003278881 -0.010888569 -0.016148025 0.05123857 0.0014549708 -0.003187734 0.0686131 0.008706908
0.009907564 -0.0035660455 0.015687546 -0.018537225 -0.0012703161 -0.053454828 -0.049391545 -0.006543091
0.0012823433 -0.013057138 0.0063177496 0.0048516663 -0.033781044 0.002841213 -0.014590664 -0.0039291717
-0.022005567 -0.008138198 -0.009709043 0.0016346986 0.023772188 0.0080992365 0.010619108 -0.022434961
0.0020407652 -0.02975327 -0.028514877 0.007316047 -0.021694625 0.009480558 0.0017021447 0.0064172936
-0.016347107 -0.013937185 0.049393296 0.0067924275 -0.002900074 -0.011008829 0.0076270252 0.0040917653
0.003482864 0.008636444 0.012488467 0.016471727 0.021908244 0.025701845 -0.0070383586 0.0101338085

base.mlp.fc1.2.weight f4 [64]
00000000: a012 873f c888 833f 919d 7c3f 0945 783f
00000010: 0c21 773f fd8b 7c3f 154b 5e3f aacd 7b3f
00000020: 608f 803f 6043 833f 711f 853f f3b7 823f
00000030: 18f1 7f3f d8a9 773f c072 6d3f c475 773f
00000040: 7f4e 823f 1024 843f 3128 893f bd1b 843f
00000050: cd45 683f 026c 7d3f d2ac 723f 6d3e 863f
00000060: da3e 823f 2058 883f 566c 7c3f 1732 8d3f
00000070: 0e90 7b3f 9378 823f 689f 813f 451f 843f
00000080: 1f5d 753f 4290 813f be72 883f 7567 833f
00000090: 75ab 7a3f db40 883f 665d 823f 56a8 833f
000000a0: 1cbd 813f 56c0 823f 0d25 803f c639 6c3f
000000b0: 4a28 853f da63 733f 43fb 6a3f a249 7f3f
000000c0: 70d0 7d3f e976 883f 2520 7c3f 610d 763f
000000d0: 5d7e 683f b3e0 813f 665a 773f f550 713f
000000e0: 7d7d 7d3f abb4 7c3f 185d 8d3f fe68 813f
000000f0: 8815 8b3f c034 753f 7906 823f 83de 833f
1.0552559 1.0276117 0.9867793 0.9698034 0.965348 0.98651105 0.86833316 0.98360693
1.0043755 1.0254936 1.040022 1.0212387 0.99977255 0.96743536 0.9275322 0.9666407
1.0180205 1.0323505 1.071539 1.0320965 0.9073151 0.9899293 0.9479495 1.0487801
1.0175431 1.0651894 0.9860281 1.1030911 0.98266685 1.0193046 1.0126772 1.0322043
0.95845217 1.0122149 1.0660017 1.0265948 0.9791787 1.0644792 1.0184753 1.0285747
1.0135837 1.0214946 1.0011307 0.92275655 1.040292 0.95074236 0.91789645 0.9972173
0.99146175 1.0661288 0.9848655 0.96114165 0.90817815 1.0146698 0.9662231 0.94264156
0.99019605 0.9871318 1.1044035 1.0110166 1.0865946 0.95783615 1.0158225 1.030228

base.mlp.fc1.2.bias f4 [64]
00000000: 28b9 533c 34b7 33bc 46c9 6f3a 2033 0bbb
00000010: 2a68 bf3b f804 c2bb 19b8 b1b9 b027 f8bc
00000020: c23d a2bb add3 b7bc aaff 03bd 808f 4a3c
00000030: bd31 7cbc 022d 09b9 664b 43bd 2e27 d13c
00000040: 3270 1d3c 9e73 d4ba 777a 93bc 1f53 223c
00000050: 4f5d 29bc 6475 253c e244 1f3d daaf 56bc
00000060: 4464 20bc d019 5abb ffd3 723c e9ed 793c
00000070: 809c ac3b 803e ac3a e457 dbba faba 5cbd
00000080: 5e0e bb3c 4977 d5bc 2048 babb 4f36 783c
00000090: 45e3 7fbc 38b0 a23d 6740 993c ba9b 88bc
000000a0: 2a59 803c 5a25 d5bc c691 a2bc 1927 803b
000000b0: 0cfe 0ebc 81a2 113d 8524 b4bc 5edf 3f3b
000000c0: 25f3 0cbc d4aa 2abc b111 84bc e787 f1bc
000000d0: 3508 073c bd0b 8e3c 1e5f 12bc 60c8 183b
000000e0: 581f 1abd 5d1f 663d 5267 263d 1eac 76bc
000000f0: aa7e 843c 7aef a23c 21a6 d83c 2a35 11bc
0.012922563 -0.010968972 0.00091471185 -0.002124019 0.0058412747 -0.0059210025 -0.00033897234 -0.030292362
-0.0049512098 -0.022439802 -0.032226242 0.012363315 -0.015392718 -0.00013082105 -0.047679327 0.025531378
0.009609269 -0.0016208773 -0.018002732 0.009907513 -0.010337188 0.010098789 0.03888405 -0.01310345
-0.00978953 -0.0033279546 0.014821052 0.015254476 0.0052676797 0.0013141185 -0.0016734567 -0.053889252
0.022834 -0.026057856 -0.0056848675 0.015149667 -0.01561815 0.07943767 0.018707467 -0.016675819
0.015667517 -0.026018787 -0.0198449 0.003910911 -0.008727562 0.035555366 -0.02199007 0.0029277424
-0.008602892 -0.010416705 -0.016121717 -0.029483749 0.008241703 0.017339582 -0.0089338105 0.0023312792
-0.037627548 0.056182254 0.040625878 -0.015055684 0.01617368 0.019889582 0.026446404 -0.008862773

base.mlp.fc_h.0.weight f4 [64, 64]
00000000: f553 203d 8281 1c3d f68f 01bd fa5e 1c3d
00000010: 5a1b c7bd cb87 c13e f7f2 a2bd 5927 dfbe
00000020: 31c3 a73d 589d fabd 29ae ebbe 023c f3bd
00000030: a996 8b3d 0e0b 7f3e 16c2 cd3d 858b 80bd
00000040: 55fb 8d3e a5ce 483e d8c9 8abe 26cb 79be
00000050: c4fc 99be 40a5 743e abbc a73d 3664 fc3d
00000060: 0253 b53c d1e9 3d3e 1cbe 41be 5002 7ebe
00000070: 0eca a53e 5796 a93e b4aa 49be bea8 303e
00000080: 578f 01be dcd7 8d3d f339 573e d990 4bbe
00000090: 80af bc3d e196 bbbd 9240 4c3e 8ddd 863d
000000a0: 76c3 da3d b9af 9abe 8c22 413e d8a1 153e
000000b0: 6d9a babe f139 a0be 8114 83be 129f 08bd
000000c0: 069b 8d3e 1507 703a 0c54 c8be 6acc 28be
000000d0: 5a57 48be f323 003e 9269 9bbc ec8d 6e3d
000000e0: bcc6 143e 5207 90be 5005 883c 705e 0b3e
000000f0: c9e6 913e f862 363b b2f9 b33e 6e99 1abd
00000100: 3bb6 703e 6ad7 163d dece 8ebe 1f10 023e
00000110: 6a49 09bd 0cc8 42be 83c5 41be ec27 713e
00000120: 148d c03d 3827 b7bd 3d15 50bd da66 4e3e
00000130: 2575 323e cbf0 df3e 0555 463e c740 393e
00000140: 07a2 77be 949a d43d e35d 143e 6946 643d
00000150: 185c 97bd c099 8b3e eead be3c b657 443d
00000160: 0e27 883e 2501 38bd 2d16 9ebe 87f3 d53c
00000170: b8cc ce3d 8578 cf3c 7ebc 1d3c 3834 d0bc
00000180: 5233 183e 468d 8e3e 2e4b 11bd 033d abbe
00000190: 7f51 86be aaf2 003f 9576 983d 0759 36bd
000001a0: 282a 373e 7acc 15be ed65 593e fcf2 c2be
000001b0: 14fb 3a3e ce17 933e 0c65 003e bd8f 783e
000001c0: 2bc7 65be da20 543e c587 513e 32d6 89be
000001d0: d952 3f3e bce3 c8bd ac65 37be fbc6 473e
000001e0: eab6 843e 6c8e bf3c 324f e3bd 7638 e2bd
000001f0: 1b3d 103e 4f56 823e d795 d13e 3237 c43e
00000200: 7665 e83d 8d12 5d3e e0b2 69bd d548 fb3d
00000210: 190a da3d 0c1b e23d e986 0b3e 88b8 013f
00000220: 8124 a8bd 37d1 acbe 8685 48be a192 bebe
00000230: 4763 e63d a42c bd3d b6c4 a83d 56f2 6b3b
00000240: 61f4 6dbd 83b4 b9bd 7b22 29bd 6276 7cbe
00000250: 2240 78bc 8ab1 4dbe 9af0 9ebc d4bb 2c3d
00000260: 89d8 233f 0c7d 873e 0a6c 31be d486 6f3e
00000270: 57a6 023e 39ea 91be 8650 f23d a940 943c
00000280: 10bf 32be a1c9 d1bc 184b 413e c405 a93e
00000290: 33d0 363e 5f19 5dbe ee53 adbe 1152 0c3e
000002a0: bc25 523e b393 033d 9a06 d73d 72c9 a5be
000002b0: bd30 e5bd bfc5 803d fb9d fd3d 797b c8be
000002c0: ffce 68bc 48ec 70be 011f 21be f1af 1abe
000002d0: 9658 143e e0ee 373c 0790 edbd d9e4 8f3c
000002e0: a404 3bbd 05f9 9abd 8f0c 4e3d 0e1b 113d
000002f0: 4d0a 99be 403c 06bf 2bac 353e c064 963d
00000300: bb6b 363e e59b e2bc d262 a5bd 5586 7ebe
00000310: ffe0 ca3c ac68 5ebd c3bf 7c3e 9732 39bd
00000320: f06c 19bd e6cc 19be 2b5d 5cbe 0cf0 353e
00000330: b633 3abe ad18 8abe ec8c 773e 2857 413e
00000340: e6ea 2bbe 021f f7bd 5866 92be 5935 d83c
00000350: cb80 7ebe 5e48 2fbd 4e3a ae3e 811d 8fbd
00000360: 2336 db3d f0f1 b03c 8686 5fbe 8dc8 22be
00000370: a1de 44bd 641e a23e cecb 33be 840b 37bf
00000380: 17f7 94be a38d c03e e6de 323d ecef 0c3d
00000390: e4ec f13c 0f3d 593e 28f1 47be 1088 f8b9
000003a0: a4c5 203e 51f3 ca3d 3064 f03d ddd0 203e
000003b0: d9b0 96bd 612c 4cbe a9a9 75bc 6246 703e
000003c0: 8a89 61bc 7602 71be a04e de3e a442 9c3e
000003d0: a100 66be 1c4b 8c3e 7437 a0be 34cb 91bc
000003e0: 4ace 0e3e f464 683d 51cc ab3d 51c3 e33d
000003f0: fa15 84be cb6d eebd 0f43 95be d7af fa3d
0.039142568 0.038209446 -0.031631432 0.038176514 -0.09722014 0.37798914 -0.07956498 -0.43584707
0.08191527 -0.12237042 -0.4603131 -0.1187668 0.068158455 0.24906561 0.100467846 -0.06276611
0.27730814 0.19610079 -0.2710712 -0.24393901 -0.30075657 0.23891163 0.081902824 0.12323801
0.022134308 0.18546225 -0.18920177 -0.2480557 0.32380718 0.33122513 -0.19694024 0.1725187
-0.12652336 0.069259375 0.210182 -0.19879474 0.092131615 -0.09159637 0.19946507 0.06585226
0.106818125 -0.3021219 0.18860835 0.1461252 -0.36445943 -0.31294206 -0.2560158 -0.033354826
0.27657336 0.0009156329 -0.39126623 -0.16484228 -0.19564572 0.12513714 -0.018971238 0.058240816
0.14528936 -0.28130585 0.016604096 0.13610244 0.28496388 0.0027829986 0.3515144 -0.03774398
0.23507015 0.03682653 -0.27892202 0.12701462 -0.03351728 -0.19021624 -0.18923001 0.23550385
0.094019085 -0.08943027 -0.050801504 0.20156422 0.174275 0.43738398 0.1936837 0.18091117
-0.24182902 0.10381046 0.1448894 0.05573121 -0.07390612 0.2726574 0.023276296 0.04793521
0.26592296 -0.044922967 -0.30876294 0.0261171 0.10097641 0.025326023 0.00962746 -0.025415525
0.14863327 0.27842158 -0.035472088 -0.33444986 -0.26234052 0.50370276 0.07444493 -0.044518497
0.17887175 -0.14628783 0.21230288 -0.38076007 0.18259841 0.287291 0.12538546 0.24273582
-0.22439258 0.20715657 0.20461948 -0.2692123 0.18683948 -0.09809062 -0.17909878 0.19509499
0.25920802 0.023383342 -0.1109909 -0.11045925 0.1408581 0.25456473 0.4093463 0.3832336
0.11347477 0.21589108 -0.057055354 0.12269751 0.10646457 0.11040315 0.13625683 0.506722
-0.082100876 -0.33753368 -0.19582185 -0.37221244 0.112494044 0.0923703 0.08240645 0.0036002598
-0.058094386 -0.09067633 -0.04129265 -0.24654534 -0.015152009 -0.20087257 -0.019401837 0.042171314
0.6400228 0.2646259 -0.1732637 0.23391277 0.12758766 -0.2849901 0.11831765 0.018097239
-0.17455697 -0.02560884 0.18876302 0.3301221 0.17852859 -0.2159171 -0.33853096 0.13703181
0.20522207 0.03212328 0.10499306 -0.32380253 -0.11190937 0.06287717 0.12383648 -0.39156702
-0.014209508 -0.23527634 -0.15734483 -0.15106179 0.14486918 0.011226386 -0.11599737 0.017565178
-0.045658723 -0.07567028 0.050304946 0.035426192 -0.2989067 -0.52435684 0.17741458 0.07343435
0.17814533 -0.027662227 -0.08075489 -0.24855931 0.02476549 -0.05429904 0.24682526 -0.04521426
-0.037457407 -0.15019569 -0.21519916 0.17767352 -0.18183789 -0.2697195 0.24174851 0.18880904
-0.16788825 -0.12066461 -0.28593707 0.026392626 -0.24853818 -0.042793624 0.34028858 -0.06988049
0.10703685 0.02159974 -0.2182866 -0.15896817 -0.048063878 0.3166381 -0.17558214 -0.71501946
-0.29094765 0.3760806 0.043669604 0.034408495 0.029531904 0.21214698 -0.19525588 -0.0004740362
0.15700394 0.0990969 0.11737859 0.15704675 -0.0735795 -0.19938804 -0.014994063 0.23464349
-0.013765702 -0.23536095 0.4341936 0.30519593 -0.22461177 0.27401054 -0.31292307 -0.01779709
0.1394588 0.0567369 0.0838858 0.11121238 -0.25798017 -0.11642035 -0.29152724 0.1224057

base.mlp.fc_h.0.bias f4 [64]
00000000: 0000 0000 0000 0000 0000 0000 0000 0000
00000010: 0000 0000 0000 0000 0000 0000 0000 0000
00000020: 0000 0000 0000 0000 0000 0000 0000 0000
00000030: 0000 0000 0000 0000 0000 0000 0000 0000
00000040: 0000 0000 0000 0000 0000 0000 0000 0000
00000050: 0000 0000 0000 0000 0000 0000 0000 0000
00000060: 0000 0000 0000 0000 0000 0000 0000 0000
00000070: 0000 0000 0000 0000 0000 0000 0000 0000
00000080: 0000 0000 0000 0000 0000 0000 0000 0000
00000090: 0000 0000 0000 0000 0000 0000 0000 0000
000000a0: 0000 0000 0000 0000 0000 0000 0000 0000
000000b0: 0000 0000 0000 0000 0000 0000 0000 0000
000000c0: 0000 0000 0000 0000 0000 0000 0000 0000
000000d0: 0000 0000 0000 0000 0000 0000 0000 0000
000000e0: 0000 0000 0000 0000 0000 0000 0000 0000
000000f0: 0000 0000 0000 0000 0000 0000 0000 0000
0.0 0.0 0.0 0.0 0.0 0.0 0.0 0.0
0.0 0.0 0.0 0.0 0.0 0.0 0.0 0.0
0.0 0.0 0.0 0.0 0.0 0.0 0.0 0.0
0.0 0.0 0.0 0.0 0.0 0.0 0.0 0.0
0.0 0.0 0.0 0.0 0.0 0.0 0.0 0.0
0.0 0.0 0.0 0.0 0.0 0.0 0.0 0.0
0.0 0.0 0.0 0.0 0.0 0.0 0.0 0.0
0.0 0.0 0.0 0.0 0.0 0.0 0.0 0.0

base.mlp.fc_h.2.weight f4 [64]
00000000: 0000 803f 0000 803f 0000 803f 0000 803f
00000010: 0000 803f 0000 803f 0000 803f 0000 803f
00000020: 0000 803f 0000 803f 0000 803f 0000 803f
00000030: 0000 803f 0000 803f 0000 803f 0000 803f
00000040: 0000 803f 0000 803f 0000 803f 0000 803f
00000050: 0000 803f 0000 803f 0000 803f 0000 803f
00000060: 0000 803f 0000 803f 0000 803f 0000 803f
00000070: 0000 803f 0000 803f 0000 803f 0000 803f
00000080: 0000 803f 0000 803f 0000 803f 0000 803f
00000090: 0000 803f 0000 803f 0000 803f 0000 803f
000000a0: 0000 803f 0000 803f 0000 803f 0000 803f
000000b0: 0000 803f 0000 803f 0000 803f 0000 803f
000000c0: 0000 803f 0000 803f 0000 803f 0000 803f
000000d0: 0000 803f 0000 803f 0000 803f 0000 803f
000000e0: 0000 803f 0000 803f 0000 803f 0000 803f
000000f0: 0000 803f 0000 803f 0000 803f 0000 803f
1.0 1.0 1.0 1.0 1.0 1.0 1.0 1.0
1.0 1.0 1.0 1.0 1.0 1.0 1.0 1.0
1.0 1.0 1.0 1.0 1.0 1.0 1.0 1.0
1.0 1.0 1.0 1.0 1.0 1.0 1.0 1.0
1.0 1.0 1.0 1.0 1.0 1.0 1.0 1.0
1.0 1.0 1.0 1.0 1.0 1.0 1.0 1.0
1.0 1.0 1.0 1.0 1.0 1.0 1.0 1.0
1.0 1.0 1.0 1.0 1.0 1.0 1.0 1.0

base.mlp.fc_h.2.bias f4 [64]
00000000: 0000 0000 0000 0000 0000 0000 0000 0000
00000010: 0000 0000 0000 0000 0000 0000 0000 0000
00000020: 0000 0000 0000 0000 0000 0000 0000 0000
00000030: 0000 0000 0000 0000 0000 0000 0000 0000
00000040: 0000 0000 0000 0000 0000 0000 0000 0000
00000050: 0000 0000 0000 0000 0000 0000 0000 0000
00000060: 0000 0000 0000 0000 0000 0000 0000 0000
00000070: 0000 0000 0000 0000 0000 0000 0000 0000
00000080: 0000 0000 0000 0000 0000 0000 0000 0000
00000090: 0000 0000 0000 0000 0000 0000 0000 0000
000000a0: 0000 0000 0000 0000 0000 0000 0000 0000
000000b0: 0000 0000 0000 0000 0000 0000 0000 0000
000000c0: 0000 0000 0000 0000 0000 0000 0000 0000
000000d0: 0000 0000 0000 0000 0000 0000 0000 0000
000000e0: 0000 0000 0000 0000 0000 0000 0000 0000
000000f0: 0000 0000 0000 0000 0000 0000 0000 0000
0.0 0.0 0.0 0.0 0.0 0.0 0.0 0.0
0.0 0.0 0.0 0.0 0.0 0.0 0.0 0.0
0.0 0.0 0.0 0.0 0.0 0.0 0.0 0.0
0.0 0.0 0.0 0.0 0.0 0.0 0.0 0.0
0.0 0.0 0.0 0.0 0.0 0.0 0.0 0.0
0.0 0.0 0.0 0.0 0.0 0.0 0.0 0.0
0.0 0.0 0.0 0.0 0.0 0.0 0.0 0.0
0.0 0.0 0.0 0.0 0.0 0.0 0.0 0.0

base.mlp.fc2.0.0.weight f4 [64, 64]
00000000: e5be 883d 9e1e 063d 37e2 8bbd c510 d23c
00000010: 89b5 e2bd 2487 da3e 3ba5 06bc 0f49 07bf
00000020: b294 e13c 1474 c5bd 87da 04bf 5f0b d3bd
00000030: e0fb 1e3a 1c97 783e 3473 1a3e 7c40 9dbd
00000040: 69ed ad3e 5f99 763e f693 93be 6a63 1cbe
00000050: 833b 20be 006d 833e d39a b53d f94a 203e
00000060: 6db2 fb3c 9146 053e f53b 18be 3880 7ebe
00000070: 51c2 953e 71ba a33e cd74 91be 3de7 f63d
00000080: 50f5 5abe 393e c33d 5746 463e e7a2 03be
00000090: ad50 d13d c733 92bd ae4b 6a3e 247f 673d
000000a0: cff9 2a3d 0ddf b5be 6872 3a3e ccfa 5a3e
000000b0: 06fa febe 99fb 91be 2d98 8cbe 63ec d3bc
000000c0: ffe7 5c3e ebdf 083e 452a c5be 016a d9bd
000000d0: 74a8 6ebe 3952 133e 3683 9dbd c955 38bd
000000e0: 2269 2c3e 6730 7abe eb76 1a3b 91b0 0f3e
000000f0: 92f8 923e d770 6b3d 34ad 853e 18e1 cdbc
00000100: 1393 913e 9038 963c 1c9a 95be e116 513d
00000110: 3323 5ebc 73ef 1ebe 7d7b 75be d5dd 423e
00000120: e06f 5c3d befe ccbd e10e 46be e91d 783e
00000130: 4461 f13d 8368 bd3e 6cd0 813e 2cca 923e
00000140: ad09 60be 4a91 563d 95c0 423e b54f 973d
00000150: 83ea d3bd 5c80 873e 3ffe 28b9 b4b9 593d
00000160: 9643 7b3e 8ec3 a43c 4fe3 bfbe 8269 c03d
00000170: 29de 7d3d 74d4 e83d 21d1 aa3d 6afe c7bc
00000180: fc71 1b3e c0af af3e f912 3bbd ae17 b7be
00000190: 66e5 76be 9109 fa3e 1656 e93d 4ec3 a0bd
000001a0: 20e3 363e a7ba 3dbe 2284 713e 9c0c d4be
000001b0: d0b7 293e dd5f 8a3e 4c72 313e e2d8 7e3e
000001c0: 0f73 5cbe a6dc 263e 6f39 633e 1480 44be
000001d0: 9a46 463e 0ef9 98bd d86a 24be 7a38 553e
000001e0: c131 633e 31f5 d6bc d1e6 06be 2060 b1bd
000001f0: f98e 243e dd4a 5f3e 739a ce3e 1782 c33e
00000200: 4f96 903d c59c 913e 4714 95bd 177c 77bd
00000210: ad13 e23d 6083 803d da7f 133e 4613 083f
00000220: 52d3 11be e96f a2be ef85 8ebe 6fda ddbe
00000230: b35e 9e3d e8ee 563e 2040 8a3d 7e9b 30be
00000240: 5b82 f5bd 1d52 fbbd 0a51 d23c cdf0 7bbe
00000250: cbc6 4fbe cadc 30be 930a 8e39 fad0 7f3d
00000260: af1d 313f a5fb a53e 80ee d8bd 5494 9d3e
00000270: e0d3 163e 6df5 90be e18f 313e 0c5a 30bd
00000280: c0e5 68be bb87 8e3b 53c3 853e f76c bf3e
00000290: 8146 153e a5f8 1abe 856a 86be a81d 0e3e
000002a0: aa23 4f3e bec0 243d d2cb a93d 2677 94be
000002b0: f88f e6bc ab82 9c3d 2aa2 9f3b 2a66 e6be
000002c0: 0121 95bd c70d 74be e8b3 49be 5cbc 3abd
000002d0: ab54 ee3c aa5d 17bd b006 cebd c875 013e
000002e0: 994e abbc 55eb 9fbd 09aa 7e3c 4ecb e53c
000002f0: 9d18 94be 0b22 eebe 4aea 8e3e daf9 3c3e
00000300: fd62 0e3e 7d1e f4bc d959 83bd c2dd b8be
00000310: 2b89 813d 5874 94bd 41a0 213e 765c 17bc
00000320: 491e 1fbc 89f8 74be 0021 26be 9597 0d3e
00000330: 901b 3abe ebc0 8dbe b3ba 803e d547 4e3e
00000340: bc05 12be 9a42 a0bd 0509 d0be 9ebe fb3d
00000350: e368 63be 46fc 4bbd 43fc a93e 99c1 c1bd
00000360: 3850 063e 4523 893d 5e5a 8fbe 8002 01be
00000370: 1ac7 9a3b d069 af3e 50d5 11be bca4 2dbf
00000380: bd70 87be e519 113f 794a 363d e626 7fbd
00000390: 99d3 283d 333e 303e f588 0abe 25e6 013d
000003a0: f6ee 303e 0dda 883d af95 273e a4ac 1e3e
000003b0: 4ef9 123d 7ae4 6cbe e6ef 7a3d 7ac3 653e
000003c0: 53c2 ca3c 6cb6 82be 25aa e93e 2cfc 373e
000003d0: 1a18 51be 95ee 893e eeb0 a0be 8111 7b3c
000003e0: 0786 d43d 97a8 cc3d 8504 d7ba 3323 63bc
000003f0: 52d9 50be d62f 71be 2eaf b5be 7073 3a3e
0.06677035 0.032744043 -0.068302564 0.025642762 -0.11069781 0.4268123 -0.008218105 -0.52845854
0.027536724 -0.09641281 -0.51895946 -0.10304903 0.0006064754 0.24276394 0.15083009 -0.07678315
0.33970192 0.24081944 -0.28823823 -0.15272298 -0.15647702 0.25669098 0.08867421 0.156536
0.030724728 0.130152 -0.14866622 -0.24853599 0.29249814 0.3197818 -0.28409424 0.12055824
-0.21382642 0.095333524 0.1936277 -0.12855111 0.10220466 -0.07138782 0.22880432 0.056517735
0.041742142 -0.35521737 0.18207705 0.21384734 -0.49800128 -0.28512266 -0.2745985 -0.025869554
0.21572874 0.13366668 -0.38508812 -0.10615922 -0.23306447 0.14386834 -0.07691042 -0.045003686
0.1683698 -0.24432527 0.0023569416 0.14032198 0.2870527 0.05748066 0.26108706 -0.025131747
0.2843252 0.018337518 -0.2921914 0.05104721 -0.013558197 -0.1552103 -0.23972888 0.19029935
0.05381763 -0.10009526 -0.19341613 0.2423016 0.1178613 0.369938 0.25354326 0.2866987
-0.21878691 0.052384652 0.19018777 0.0738825 -0.10347464 0.26465118 -0.00016116443 0.053155616
0.245375 0.020112779 -0.3747811 0.09395124 0.061979447 0.11368647 0.083406694 -0.024413306
0.151802 0.34313774 -0.04567239 -0.35760254 -0.24110946 0.48835424 0.11393373 -0.078497514
0.17860079 -0.18528233 0.23585561 -0.4141587 0.16574025 0.27026263 0.17328757 0.24887422
-0.21528266 0.16295108 0.22189878 -0.19189483 0.1936287 -0.074693784 -0.16056383 0.20822325
0.22186948 -0.026239963 -0.13173987 -0.086609125 0.16070165 0.21805902 0.4035221 0.38185188
0.07059919 0.28439918 -0.07279258 -0.060421076 0.11038909 0.06275058 0.1440424 0.5315441
-0.14240769 -0.31726006 -0.27836558 -0.43330714 0.07732906 0.20989573 0.06750512 -0.17246816
-0.11987754 -0.12271521 0.025673408 -0.24603577 -0.20290677 -0.17271724 0.0002709223 0.062455155
0.6918592 0.32418552 -0.10592365 0.30777228 0.14729261 -0.28312245 0.17340042 -0.043054625
-0.22743893 0.0043496764 0.26125583 0.3738782 0.14577676 -0.15133913 -0.26253143 0.138785
0.20228449 0.040222876 0.08290829 -0.28997153 -0.028144822 0.076421104 0.0048716264 -0.4499982
-0.072816856 -0.2383338 -0.19697535 -0.04558979 0.029093107 -0.03695456 -0.10059869 0.12642586
-0.020911502 -0.07808558 0.015543469 0.028051045 -0.28925028 -0.46510348 0.27913123 0.18454686
0.13904949 -0.029799694 -0.064136215 -0.36106688 0.06324991 -0.07248753 0.15783788 -0.009238353
-0.00971181 -0.23922934 -0.16223526 0.13827355 -0.18174577 -0.27686247 0.2514244 0.20144589
-0.1426 -0.07825203 -0.4063188 0.12292217 -0.2220798 -0.049801134 0.33200273 -0.09460754
0.13116539 0.0669618 -0.27998632 -0.1259861 0.004723442 0.34260416 -0.14241529 -0.6782949
-0.264532 0.56680137 0.044504616 -0.062292956 0.04121742 0.17211227 -0.13528807 0.031713624
0.17278656 0.06682215 0.16365694 0.15495545 0.035882287 -0.23134032 0.06126394 0.2243785
0.024750864 -0.25529802 0.45637622 0.1796729 -0.2041935 0.26939836 -0.31384987 0.0153239975
0.10377126 0.099930935 -0.0016404545 -0.013863373 -0.20395401 -0.23553404 -0.35485214 0.18208098

base.mlp.fc2.0.0.bias f4 [64]
00000000: 3204 263b af61 6b3c cbb7 3abd 095c c73c
00000010: e581 ce3c 75b7 9fbb c4ea 23bd 0aa4 2d3c
00000020: 0a03 39bc 6313 a0bc 9948 2a3d 8d9d f2bb
00000030: f1cc dcbc d318 fcbb 6b92 9fbc 42ca 34bd
00000040: 6a32 03bc 03c8 9b3c 976f 2cbd 1cf8 23bc
00000050: d0b8 743d 01fd 9fbc e5dd 443c 5a8e 1c3d
00000060: bafe 8cbc 6db1 bdbc 3708 323c 2475 a2bc
00000070: 039e 913a 6454 48bc baf5 95bc f2ff d43a
00000080: 130f 5d3c 2fd7 9cbb 02f1 3cbc f3d1 2cbb
00000090: 9ed4 c53c 4810 38bb c57e f7bc 2695 94bc
000000a0: c480 393d e73a 253d e9c0 78ba 61c8 a03c
000000b0: 0336 993c c809 7fbd 651d 28bb 076a 793c
000000c0: 03e2 573b b2d8 ecbc 5a21 d73c 971b b8bc
000000d0: 3220 1cbd 9db6 d9bc c2a3 fb3b 4ae5 db3c
000000e0: c6f8 713c e863 93bc 321e dcbc 0d26 5f3c
000000f0: c704 4abc 4ef3 6d3d 2841 353b c4a3 23bc
0.002533209 0.014366551 -0.045585435 0.024335878 0.025208423 -0.0048741647 -0.04001881 0.010598192
-0.0112922285 -0.019540494 0.04157314 -0.0074040354 -0.026953192 -0.007693389 -0.019478997 -0.0441382
-0.008007625 0.019016271 -0.042098608 -0.010007884 0.059746563 -0.019529821 0.012015794 0.038221695
-0.017211307 -0.023155892 0.010866216 -0.019831248 0.0011109713 -0.012227152 -0.018305648 0.0016250594
0.0134923635 -0.004786394 -0.01153207 -0.0026370257 0.024149235 -0.0028085876 -0.030211816 -0.018137526
0.045288816 0.040339377 -0.0009489195 0.019626798 0.018702513 -0.062265188 -0.0025652286 0.015223033
0.003294111 -0.028911922 0.02626102 -0.022474093 -0.03811664 -0.026576335 0.0076794336 0.026842732
0.014768785 -0.017991975 -0.026869867 0.013619912 -0.012330241 0.05809336 0.0027657244 -0.009987775

base.mlp.fc2.0.2.weight f4 [64]
00000000: d64d 843f e0c7 7d3f d2d6 843f b7be 7f3f
00000010: e50c 7c3f 7a73 823f 2e12 7b3f fcb7 7e3f
00000020: a29b 7f3f 0590 853f 33f5 803f f83b 7f3f
00000030: 0f8e 7b3f a769 803f 2396 923f f273 893f
00000040: 57b3 843f 3a43 833f 8b01 763f d3d8 7d3f
00000050: 1e9b 7d3f 579a 783f 14d9 823f 06e3 7b3f
00000060: 3683 843f d730 813f 33b0 903f 859e 783f
00000070: fbf4 873f a0f5 743f fd8b 803f 838f 863f
00000080: ea3e 7e3f 9452 8a3f 24ee 813f 62dc 813f
00000090: 5d39 7b3f 558f 803f 814e 813f 42da 883f
000000a0: 3b82 853f 2567 813f 668b 743f a973 813f
000000b0: 9343 833f f4e4 823f e7af 893f 6b10 813f
000000c0: 2f1a 823f d19a 823f 264a 843f 5536 753f
000000d0: 588b 7e3f cf82 663f 70db 873f f88c 853f
000000e0: 7c55 793f ef32 833f 6361 833f 736e 6a3f
000000f0: a78b 863f b676 7d3f 8306 7b3f a34b 873f
1.0336254 0.9913311 1.0378058 0.9990038 0.98457175 1.0191491 0.98074615 0.9949949
0.9984685 1.0434576 1.0074829 0.9970088 0.9826364 1.0032243 1.1452068 1.0738509
1.036723 1.0254891 0.96096104 0.9915897 0.99064815 0.97110504 1.0222497 0.98393285
1.0352542 1.009303 1.1303772 0.9711688 1.0621637 0.95687294 1.0042721 1.0512546
0.9931475 1.0806451 1.01508 1.014538 0.98134404 1.0043741 1.0102082 1.0691607
1.0430368 1.0109602 0.95525205 1.0113422 1.0254997 1.0226121 1.0756806 1.0083135
1.0164241 1.0203496 1.0335128 0.9578603 0.9943137 0.9004335 1.0613842 1.0433645
0.97396064 1.0249919 1.0264095 0.9157478 1.0511369 0.99009264 0.9805681 1.0569957

base.mlp.fc2.0.2.bias f4 [64]
00000000: e97b 80ba 2ef7 d3bc 1e46 06bd 147d f83b
00000010: 2731 d83b f5bd 26bc 2e09 acba 9f74 8ebb
00000020: 9c2b 7cbc f926 63bc 4ef9 bebc f12f 9bbc
00000030: 4ff0 71bc ed12 edbc 6986 a7bc 1536 8dbc
00000040: f6e9 093d eb79 9cbc 23c2 68bc a061 963c
00000050: 0c60 8f3c 791d d4bb f46b 11bc ab0c 973c
00000060: 4cd5 613c 73f8 1cbd 22f2 413d 5348 193c
00000070: 41c9 39bc bfb0 103c c102 fabb b40f 0f3c
00000080: 694f d3bb 0323 c53c 053b 0bbd 9869 043b
00000090: 4943 86bc 0b0d efbc 9084 e0bb 8d23 ddbb
000000a0: 4437 ad3c c928 ec3c c24d 05bc b234 86bb
000000b0: 07d6 6b3c d96c c7bb d113 92bc ef54 4dbc
000000c0: 489c d83b 2ca8 f4bb aa8c d83c 4e7f 29bd
000000d0: 0ea1 99bc 4c9b d13b eede 8cbc ff3b 88bc
000000e0: 2a0d 983c b181 02bd 0f0f 2dbd 53a2 ec3c
000000f0: 8b5a 18bd b4e1 963c 10ba a53c 2a8d 77bc
-0.0009802553 -0.0258747 -0.032781713 0.00758327 0.0065976563 -0.010177125 -0.0013125294 -0.0043473984
-0.015391257 -0.013864272 -0.023312237 -0.018943759 -0.014766767 -0.028939689 -0.020449834 -0.017237702
0.03367039 -0.019101104 -0.014206442 0.018357098 0.017501853 -0.00647324 -0.008875836 0.018438658
0.013783764 -0.038322877 0.047350056 0.009355622 -0.011339487 0.008831202 -0.007629723 0.008731771
-0.0064486754 0.024064546 -0.033991832 0.002020454 -0.016389506 -0.029181024 -0.00685174 -0.0067486227
0.021144517 0.028828042 -0.008136215 -0.0040956372 0.01439429 -0.0060859737 -0.017831715 -0.012532457
0.006610427 -0.0074663367 0.026434261 -0.041381173 -0.018753555 0.0063966867 -0.017196145 -0.01663017
0.018560965 -0.031861965 -0.04225069 0.028885996 -0.037195724 0.01841817 0.020230323 -0.01510934

base.mlp.fc2.1.0.weight f4 [64, 64]
00000000: 3b88 c03c 5317 ae3d 8ff1 bcbd 40b4 803c
00000010: 5734 ebbd 0213 dc3e f44b e7bc 1ab2 edbe
00000020: e195 a23d 4ed1 39be 0c38 debe bc26 27be
00000030: 9fad 613d e1f7 613e 89c0 833d 7927 7cbd
00000040: 45e8 a23e 3825 413e 16b7 7bbe 734f 75be
00000050: c72a a0be d66c 843e 2453 ad3d 74d0 2b3e
00000060: f288 ef3a ceb0 3b3e 73a8 27be a6aa 64be
00000070: c520 963e 615d 673e 0ccc 45be 241d 5a3e
00000080: 4ab6 28be a730 b13d def5 443e 4734 fdbd
00000090: 8006 de3d 795d 1fbe e120 413e 1421 2c3d
000000a0: 3602 173e cc3a a1be dcb7 6e3e a2d2 e93d
000000b0: 5d46 eebe d8e2 a2be 764e 4fbe eb09 c2bd
000000c0: 0978 923e f438 a53d abdd dbbe ad99 13be
000000d0: 17c1 5bbe 6689 433e 3a9b 13bd cd18 813d
000000e0: bafd 2f3e 82b4 86be f51a 023d 581f 383e
000000f0: e609 873e 2caa 763c 2445 ce3e 648d 1dbd
00000100: 5cbd 2b3e 5580 b43c fc8d 95be 1c43 cf3d
00000110: 4ae8 45bd 482b 83be 1d4a 60be 2cd7 353e
00000120: 0526 793d 97f0 d8bd 7de2 8dbc 9499 693e
00000130: b405 413e e375 e63e 4d43 503e 079e 203e
00000140: acb8 64be 535e d13d a7d2 223e 0d34 ac3d
00000150: 7977 4a3b 0bc2 803e de71 963c 7975 ff3c
00000160: 3e78 843e d18c 3bbd 2f04 c0be a5f1 d1bc
00000170: bf16 cc3c 000a 333d db4e b23d 26d5 93bd
00000180: e1bb 133e 1216 8a3e c374 5ebd cf0d c6be
00000190: 6aac 88be c35e 0d3f 8267 353d a945 51bd
000001a0: ef5e 633e 094d 11be 7556 7d3e bcb4 a8be
000001b0: 35a4 813e dfc4 853e 5d80 d23d bdf4 863e
000001c0: 4b1c 76be f8bc 3f3e ce5b 423e 3db7 3fbe
000001d0: 9d5b 363e a6cb c5bd 2138 1ebe 62db 583e
000001e0: ab31 823e db29 1c3d 9f96 d3bd e902 81bd
000001f0: 34c4 2e3e 3cab 8c3e 4298 b93e a64c b63e
00000200: 71ca 513e 8091 5d3e d999 a9bc 79a1 e03d
00000210: 51f9 193e 5f09 703c 79cf 0f3e 6013 ed3e
00000220: 2c23 3bbd 7e8e bbbe 5079 54be a53d aabe
00000230: 6e6c 133e bc72 8e3d 290f be3d 63c1 9cbc
00000240: 80f0 60bd 09fa a1bd 6329 123c d4b5 92be
00000250: e9dd 54bc 249a 19be 36bd 8bbd 5b06 573d
00000260: cfd4 393f 76ea 883e e607 96be 2e7e 923e
00000270: 81b8 da3d a045 a4be a65c e03d a6b0 c03d
00000280: 398d d6bd 3866 35bd 5ca9 123e 1b4e 943e
00000290: e9eb 003e 81ee 7abe 337a b3be 3d75 433e
000002a0: 1c6d 8f3e 7d00 4a3c ec53 ee3d 8fff d0be
000002b0: e67a 54bd 63e9 643d 0dfd 833d cf9b c0be
000002c0: fd8a 02bc ed2f c6be 18cf 2abe df4b b2bd
000002d0: 952b 0b3e e8f8 c1bd 7d6c 9bbd 3fbb f03c
000002e0: 2024 a5bd dae2 b4bd f427 6d3d ef43 ae3d
000002f0: 725b 98be ac32 03bf 1522 253e fbb0 903d
00000300: 9763 1f3e 5b45 c9bd 645e cabc 2d50 80be
00000310: 430a 26bd 6451 943b ae04 3f3e 3b35 2fbd
00000320: 4201 c2bd 4112 08ba ca01 5fbe 7e58 3a3e
00000330: 8625 28be a82d 4fbe 73ba 683e 1bb0 713e
00000340: da5a 2bbe 4a31 95bd 62c8 95be 0f1d 673d
00000350: 7648 1cbe 02c6 0dbd 27bc aa3e 1c61 aebd
00000360: 1e70 973d c55f 2b3c 25c4 8ebe 634c 7fbe
00000370: e9de d8bd f3c3 853e dfcc 39be a661 44bf
00000380: 9ed0 9abe f00b c63e 8de3 a73d 9f6e 9f3d
00000390: 324a 8cbc 5816 863e 7bd1 0fbe ca34 a6bb
000003a0: 9df5 9b3d 2a29 db3d 79a8 ce3d 7b72 093e
000003b0: de40 febd d208 4abe ea88 643d 2a83 903e
000003c0: c35b 4a3d 9dc8 a9be 6a9c f13e a447 b73e
000003d0: 4b11 63be b28b 673e 36d4 40be 8071 a0bb
000003e0: 8381 d73d 9dcd bf3d 8cb3 823d 6bbc cb3c
000003f0: a298 71be 669e 19be 7646 a9be c61d 933d
0.02350246 0.085005425 -0.09225761 0.01571095 -0.114845924 0.42983252 -0.02823446 -0.46424943
0.079387434 -0.1814625 -0.43402135 -0.1632337 0.05509722 0.22067215 0.064332075 -0.06156108
0.31817833 0.18861854 -0.2458156 -0.23956089 -0.31282637 0.25864285 0.084631234 0.16778737
0.0018275066 0.18329164 -0.16372852 -0.22330722 0.29321876 0.22594215 -0.19316119 0.21300179
-0.16475788 0.08651858 0.19234416 -0.12363487 0.108410835 -0.15563 0.18860199 0.042023733
0.14746937 -0.3149017 0.23312324 0.11417128 -0.46538058 -0.31813693 -0.20244774 -0.09474548
0.28607205 0.080675036 -0.42942557 -0.14414091 -0.21460377 0.19095382 -0.036036707 0.063035585
0.17186633 -0.26309592 0.03176399 0.17980707 0.2637474 0.015055221 0.40287125 -0.03846492
0.16771454 0.02203385 -0.29209888 0.10120222 -0.04831723 -0.25618958 -0.21903272 0.17757863
0.060827274 -0.10592764 -0.017319912 0.22812492 0.18849832 0.45011815 0.20338173 0.15685283
-0.22336072 0.10223069 0.1590067 0.084083654 0.0030893965 0.25148043 0.018364843 0.031183945
0.25872988 -0.04578859 -0.37503192 -0.02562792 0.02491319 0.04371071 0.08706447 -0.07218389
0.14427139 0.26969963 -0.05431057 -0.3868241 -0.26694041 0.5522272 0.044288166 -0.051091824
0.22204183 -0.14189543 0.24740012 -0.3295039 0.25320593 0.26126763 0.102783896 0.26358595
-0.2403423 0.1872443 0.18980333 -0.18722244 0.17808385 -0.096579835 -0.15451099 0.21177438
0.2542852 0.038125854 -0.10331463 -0.06299383 0.17067033 0.2747439 0.36248976 0.35605353
0.20487382 0.21637535 -0.020703243 0.109682985 0.15036513 0.014650672 0.14043988 0.46303844
-0.04568784 -0.3663215 -0.20749402 -0.33250156 0.14396831 0.069554776 0.09280235 -0.019135183
-0.05491686 -0.079090185 0.008921 -0.2865435 -0.012992361 -0.15000206 -0.068231985 0.052496295
0.72590345 0.2674138 -0.293029 0.28611892 0.106797226 -0.3208437 0.10955171 0.09408693
-0.10476155 -0.044286937 0.14322418 0.2896584 0.12589993 -0.24505045 -0.35054168 0.19087692
0.2801293 0.012329218 0.116371006 -0.40819976 -0.051875018 0.055886637 0.0644475 -0.37618873
-0.007967708 -0.3870844 -0.16680562 -0.087058775 0.13590844 -0.09471303 -0.07589052 0.02938616
-0.08063531 -0.08832331 0.05789943 0.08509051 -0.29757267 -0.51249194 0.16126283 0.07065006
0.15565334 -0.09827682 -0.024703212 -0.2506117 -0.04053713 0.004526304 0.18654129 -0.042775374
-0.09472896 -0.00051907083 -0.21778026 0.1819782 -0.16420564 -0.2023226 0.22727375 0.23602335
-0.16733876 -0.07284792 -0.29254442 0.056424197 -0.15262017 -0.034612663 0.33346674 -0.08514616
0.073944315 0.010459845 -0.2788402 -0.24931483 -0.10589392 0.2612606 -0.18144558 -0.767115
-0.30237287 0.38680983 0.08197699 0.07784771 -0.017125223 0.26188922 -0.14044754 -0.005072211
0.076152064 0.10701211 0.10090727 0.13422577 -0.12414716 -0.19729927 0.055794634 0.2822507
0.049403917 -0.33160868 0.47189647 0.35796845 -0.22174565 0.22611883 -0.18830952 -0.0048963428
0.10522749 0.093653895 0.06381902 0.024870118 -0.23593381 -0.1500183 -0.3306157 0.07183413

base.mlp.fc2.1.0.bias f4 [64]
00000000: 2b02 63bc 36e2 76bc dafd f7bb 485a 763b
00000010: 4e83 03bd 6b53 103a dcf7 ef3b 5243 0abd
00000020: 16e2 0ebd 45e2 0a3c f885 52bc 1874 9ebb
00000030: 0192 383c 6f1b 07bc 056b c1bc 5775 ae3c
00000040: 0ba6 2c3c b729 8f3a 4620 57bc 48e8 db3c
00000050: 2c21 893c 08ff 91bc 94f7 eabc 4252 b6bc
00000060: cc2e 673b cb72 8d3c 567f 8ebc 4442 aabc
00000070: c977 0abd a6f7 9b3b 8756 423b dd13 ed3b
00000080: 0397 3e3d 20e9 0fbd f944 88bc cee7 a1bb
00000090: b549 9cba 2f80 cfbc 2a96 663d 7e5c 1bbd
000000a0: ece6 ecbb 1986 9a3c 3f72 c03c 79b5 a4bb
000000b0: 5e70 0ebd 1da8 343c b9dd 423c f817 cebc
000000c0: 7bd0 e53c adec 193d 605d 3bbb 3850 b4bb
000000d0: 3541 563c c08b cabc 1164 8abd 9bce 96bc
000000e0: a030 cbbb dadc bd3c 0fea a0bc 0eaf 1c3c
000000f0: 7085 2ebd fe63 7dbd ac05 c7ba fe4d 9fbc
-0.013855497 -0.015068581 -0.0075681033 0.0037590433 -0.032107644 0.00055055943 0.0073232483 -0.033755608
-0.03488358 0.008476798 -0.012849323 -0.004835617 0.011265279 -0.008246287 -0.023610601 0.021296186
0.010537635 0.0010922466 -0.013130253 0.026844159 0.01673945 -0.017821804 -0.028682508 -0.02225602
0.0035275696 0.017266652 -0.017394703 -0.020783551 -0.033805642 0.0047597466 0.0029653625 0.007235034
0.046530735 -0.035134435 -0.016634451 -0.0049409634 -0.0011923822 -0.025329677 0.05629555 -0.037930004
-0.0072296765 0.01886277 0.023491977 -0.005026516 -0.03477513 0.011026409 0.011893683 -0.025157914
0.028053513 0.037579227 -0.0028589591 -0.005502727 0.01307707 -0.024724841 -0.067573674 -0.018409064
-0.006200865 0.0231766 -0.019642858 0.009563221 -0.042607725 -0.061862938 -0.0015184185 -0.01944637

base.mlp.fc2.1.2.weight f4 [64]
00000000: 2b19 883f bf28 793f cef9 883f 2730 7d3f
00000010: e29b 843f ad70 853f 4889 7f3f 537d 793f
00000020: 73c1 6c3f 9a22 803f 04b5 753f 49f7 783f
00000030: 1fd6 8c3f 1d3b 813f 2e1e 833f 668a 7e3f
00000040: 4fc4 753f 32e1 8f3f c604 7f3f bb6c 7f3f
00000050: 0660 8d3f 132e 7e3f 3aca 7f3f 1e7d 823f
00000060: 25de 843f dbcb 863f 801c 863f e5cc 873f
00000070: 0c6c 7e3f 11e7 813f 32eb 8c3f 3576 6e3f
00000080: 00ea 803f 2638 883f f190 7d3f 0843 883f
00000090: 5ffd 803f 3216 7c3f 9706 773f 7aab 6e3f
000000a0: 3622 733f d733 853f 6302 853f f90a 7c3f
000000b0: 15d0 823f d0a5 783f 61ec 863f beb9 873f
000000c0: 89eb 833f 648f 993f c2c3 833f 50a9 803f
000000d0: 5100 853f 7cf8 8e3f 9823 8b3f 20af 7a3f
000000e0: b125 7c3f 0e0e 773f c65e 7d3f 2317 7c3f
000000f0: 703f 843f 83b8 7f3f 61f9 873f e5fb 813f
1.0632681 0.973278 1.0701234 0.989016 1.0360072 1.0425011 0.9981885 0.97456855
0.9248268 1.001056 0.9597933 0.9725233 1.1002845 1.0096165 1.0243585 0.9942993
0.9600267 1.1240599 0.9961666 0.99775285 1.1044929 0.99289054 0.9991795 1.0194433
1.0380293 1.0530962 1.0477448 1.0609404 0.99383616 1.0148641 1.1009276 0.9314912
1.0071411 1.0642135 0.9904929 1.0645456 1.0077323 0.9847137 0.9649443 0.932304
0.94974077 1.0406445 1.0391353 0.9845424 1.0219752 0.9712801 1.0540887 1.0603559
1.0306255 1.1996884 1.0294116 1.005167 1.0390722 1.1169581 1.0870237 0.9792347
0.9849501 0.9650582 0.9897274 0.98472804 1.033186 0.9989092 1.0622979 1.0154997

base.mlp.fc2.1.2.bias f4 [64]
00000000: 797a 503a 4e08 b5bc a89d 87bc 6d15 9f3c
00000010: 5ab3 26bc 0c89 a3bc 6dcc bc3c f6a0 8eb7
00000020: cf2c 4f3c f9a1 d5bb dcc9 27bd 2d3b 54bc
00000030: bd1c 0c3d 0775 773c 849c 04bb 6d18 2d3c
00000040: dbc5 ae3c 5ba7 a5ba fe27 3f3c 85ce a33c
00000050: 5080 3f3a 8efe 5eba 074a 04bc dd09 b03b
00000060: 32e2 c93c 158a 113c 924a ecbc 3006 4fbc
00000070: 885f 84bb 422d 293d 3748 cf3c aee4 ebbb
00000080: 2abb af3c 2d1e c33c a911 e93c 2b6c bdbb
00000090: 3d26 9f3b b21c cc3b 603f 37bc e6ce c0bc
000000a0: 0822 b4bc 7f27 a83c 8f9a 603d 7393 b5bc
000000b0: ec01 433b 2309 d13a 765d b1bb 5744 b83b
000000c0: c8c1 b13b 1bb5 0e3d 0c9d cb3c 0076 683c
000000d0: 2412 c73b 7ff7 43bd b615 3ebd 3f7e c3bc
000000e0: 9d68 debc 7f3d 5f3c eebc 2e3d 6f0d 813c
000000f0: aa4b a73a 4dd7 d6bc ad3c f9bc 8790 f1b9
0.000795282 -0.022098687 -0.016554669 0.019419396 -0.010174597 -0.01996281 0.023046697 -1.7002672e-05
0.012644961 -0.006519553 -0.040963992 -0.012953562 0.034207094 0.015103585 -0.0020234892 0.010564906
0.02133458 -0.0012638377 0.01166725 0.019995937 0.0007305192 -0.00085065595 -0.00807429 0.0053722695
0.024643991 0.008883019 -0.028844152 -0.012635753 -0.0040397085 0.041302927 0.02530299 -0.0071988916
0.021451551 0.0238181 0.028450804 -0.005780717 0.0048568533 0.0062290067 -0.011184543 -0.023536157
-0.021988884 0.020526646 0.0548349 -0.022165036 0.0029755784 0.0015948158 -0.0054127527 0.005623381
0.005424712 0.034840684 0.02485516 0.01418829 0.0060751606 -0.047843453 -0.046407424 -0.02386391
-0.027149493 0.013625502 0.042660646 0.015753476 0.0012763639 -0.02622571 -0.03042444 -0.00046074783
